…
I0529 15:55:54.770364 28727 net.cpp:313] The NetState phase (0) differed from the phase (1) specified by a rule in layer data
I0529 15:55:54.771186 28727 net.cpp:49] Initializing net from parameters: 
name: "ResNet"
state {
  phase: TRAIN
}
layer {
  name: "data"
  type: "Data"
  top: "data"
  top: "label"
  include {
    phase: TRAIN
  }
  transform_param {
    mirror: false
    crop_size: 224
    mean_value: 97.3605
    mean_value: 98.4924
    mean_value: 81.4706
  }
  data_param {
    source: "../data/fold1/train_lmdb"
    batch_size: 1
    backend: LMDB
  }
}
layer {
  name: "conv1"
  type: "Convolution"
  bottom: "data"
  top: "conv1"
  convolution_param {
    num_output: 64
    pad: 3
    kernel_size: 7
    stride: 2
  }
}
layer {
  name: "bn_conv1"
  type: "BatchNorm"
  bottom: "conv1"
  top: "conv1"
  batch_norm_param {
    use_global_stats: true
  }
}
layer {
  name: "scale_conv1"
  type: "Scale"
  bottom: "conv1"
  top: "conv1"
  scale_param {
    bias_term: true
  }
}
layer {
  name: "conv1_relu"
  type: "ReLU"
  bottom: "conv1"
  top: "conv1"
}
layer {
  name: "pool1"
  type: "Pooling"
  bottom: "conv1"
  top: "pool1"
  pooling_param {
    pool: MAX
    kernel_size: 3
    stride: 2
  }
}
layer {
  name: "res2a_branch1"
  type: "Convolution"
  bottom: "pool1"
  top: "res2a_branch1"
  convolution_param {
    num_output: 256
    bias_term: false
    pad: 0
    kernel_size: 1
    stride: 1
  }
}
layer {
  name: "bn2a_branch1"
  type: "BatchNorm"
  bottom: "res2a_branch1"
  top: "res2a_branch1"
  batch_norm_param {
    use_global_stats: true
  }
}
layer {
  name: "scale2a_branch1"
  type: "Scale"
  bottom: "res2a_branch1"
  top: "res2a_branch1"
  scale_param {
    bias_term: true
  }
}
layer {
  name: "res2a_branch2a"
  type: "Convolution"
  bottom: "pool1"
  top: "res2a_branch2a"
  convolution_param {
    num_output: 64
    bias_term: false
    pad: 0
    kernel_size: 1
    stride: 1
  }
}
layer {
  name: "bn2a_branch2a"
  type: "BatchNorm"
  bottom: "res2a_branch2a"
  top: "res2a_branch2a"
  batch_norm_param {
    use_global_stats: true
  }
}
layer {
  name: "scale2a_branch2a"
  type: "Scale"
  bottom: "res2a_branch2a"
  top: "res2a_branch2a"
  scale_param {
    bias_term: true
  }
}
layer {
  name: "res2a_branch2a_relu"
  type: "ReLU"
  bottom: "res2a_branch2a"
  top: "res2a_branch2a"
}
layer {
  name: "res2a_branch2b"
  type: "Convolution"
  bottom: "res2a_branch2a"
  top: "res2a_branch2b"
  convolution_param {
    num_output: 64
    bias_term: false
    pad: 1
    kernel_size: 3
    stride: 1
  }
}
layer {
  name: "bn2a_branch2b"
  type: "BatchNorm"
  bottom: "res2a_branch2b"
  top: "res2a_branch2b"
  batch_norm_param {
    use_global_stats: true
  }
}
layer {
  name: "scale2a_branch2b"
  type: "Scale"
  bottom: "res2a_branch2b"
  top: "res2a_branch2b"
  scale_param {
    bias_term: true
  }
}
layer {
  name: "res2a_branch2b_relu"
  type: "ReLU"
  bottom: "res2a_branch2b"
  top: "res2a_branch2b"
}
layer {
  name: "res2a_branch2c"
  type: "Convolution"
  bottom: "res2a_branch2b"
  top: "res2a_branch2c"
  convolution_param {
    num_output: 256
    bias_term: false
    pad: 0
    kernel_size: 1
    stride: 1
  }
}
layer {
  name: "bn2a_branch2c"
  type: "BatchNorm"
  bottom: "res2a_branch2c"
  top: "res2a_branch2c"
  batch_norm_param {
    use_global_stats: true
  }
}
layer {
  name: "scale2a_branch2c"
  type: "Scale"
  bottom: "res2a_branch2c"
  top: "res2a_branch2c"
  scale_param {
    bias_term: true
  }
}
layer {
  name: "res2a"
  type: "Eltwise"
  bottom: "res2a_branch1"
  bottom: "res2a_branch2c"
  top: "res2a"
}
layer {
  name: "res2a_relu"
  type: "ReLU"
  bottom: "res2a"
  top: "res2a"
}
layer {
  name: "res2b_branch2a"
  type: "Convolution"
  bottom: "res2a"
  top: "res2b_branch2a"
  convolution_param {
    num_output: 64
    bias_term: false
    pad: 0
    kernel_size: 1
    stride: 1
  }
}
layer {
  name: "bn2b_branch2a"
  type: "BatchNorm"
  bottom: "res2b_branch2a"
  top: "res2b_branch2a"
  batch_norm_param {
    use_global_stats: true
  }
}
layer {
  name: "scale2b_branch2a"
  type: "Scale"
  bottom: "res2b_branch2a"
  top: "res2b_branch2a"
  scale_param {
    bias_term: true
  }
}
layer {
  name: "res2b_branch2a_relu"
  type: "ReLU"
  bottom: "res2b_branch2a"
  top: "res2b_branch2a"
}
layer {
  name: "res2b_branch2b"
  type: "Convolution"
  bottom: "res2b_branch2a"
  top: "res2b_branch2b"
  convolution_param {
    num_output: 64
    bias_term: false
    pad: 1
    kernel_size: 3
    stride: 1
  }
}
layer {
  name: "bn2b_branch2b"
  type: "BatchNorm"
  bottom: "res2b_branch2b"
  top: "res2b_branch2b"
  batch_norm_param {
    use_global_stats: true
  }
}
layer {
  name: "scale2b_branch2b"
  type: "Scale"
  bottom: "res2b_branch2b"
  top: "res2b_branch2b"
  scale_param {
    bias_term: true
  }
}
layer {
  name: "res2b_branch2b_relu"
  type: "ReLU"
  bottom: "res2b_branch2b"
  top: "res2b_branch2b"
}
layer {
  name: "res2b_branch2c"
  type: "Convolution"
  bottom: "res2b_branch2b"
  top: "res2b_branch2c"
  convolution_param {
    num_output: 256
    bias_term: false
    pad: 0
    kernel_size: 1
    stride: 1
  }
}
layer {
  name: "bn2b_branch2c"
  type: "BatchNorm"
  bottom: "res2b_branch2c"
  top: "res2b_branch2c"
  batch_norm_param {
    use_global_stats: true
  }
}
layer {
  name: "scale2b_branch2c"
  type: "Scale"
  bottom: "res2b_branch2c"
  top: "res2b_branch2c"
  scale_param {
    bias_term: true
  }
}
layer {
  name: "res2b"
  type: "Eltwise"
  bottom: "res2a"
  bottom: "res2b_branch2c"
  top: "res2b"
}
layer {
  name: "res2b_relu"
  type: "ReLU"
  bottom: "res2b"
  top: "res2b"
}
layer {
  name: "res2c_branch2a"
  type: "Convolution"
  bottom: "res2b"
  top: "res2c_branch2a"
  convolution_param {
    num_output: 64
    bias_term: false
    pad: 0
    kernel_size: 1
    stride: 1
  }
}
layer {
  name: "bn2c_branch2a"
  type: "BatchNorm"
  bottom: "res2c_branch2a"
  top: "res2c_branch2a"
  batch_norm_param {
    use_global_stats: true
  }
}
layer {
  name: "scale2c_branch2a"
  type: "Scale"
  bottom: "res2c_branch2a"
  top: "res2c_branch2a"
  scale_param {
    bias_term: true
  }
}
layer {
  name: "res2c_branch2a_relu"
  type: "ReLU"
  bottom: "res2c_branch2a"
  top: "res2c_branch2a"
}
layer {
  name: "res2c_branch2b"
  type: "Convolution"
  bottom: "res2c_branch2a"
  top: "res2c_branch2b"
  convolution_param {
    num_output: 64
    bias_term: false
    pad: 1
    kernel_size: 3
    stride: 1
  }
}
layer {
  name: "bn2c_branch2b"
  type: "BatchNorm"
  bottom: "res2c_branch2b"
  top: "res2c_branch2b"
  batch_norm_param {
    use_global_stats: true
  }
}
layer {
  name: "scale2c_branch2b"
  type: "Scale"
  bottom: "res2c_branch2b"
  top: "res2c_branch2b"
  scale_param {
    bias_term: true
  }
}
layer {
  name: "res2c_branch2b_relu"
  type: "ReLU"
  bottom: "res2c_branch2b"
  top: "res2c_branch2b"
}
layer {
  name: "res2c_branch2c"
  type: "Convolution"
  bottom: "res2c_branch2b"
  top: "res2c_branch2c"
  convolution_param {
    num_output: 256
    bias_term: false
    pad: 0
    kernel_size: 1
    stride: 1
  }
}
layer {
  name: "bn2c_branch2c"
  type: "BatchNorm"
  bottom: "res2c_branch2c"
  top: "res2c_branch2c"
  batch_norm_param {
    use_global_stats: true
  }
}
layer {
  name: "scale2c_branch2c"
  type: "Scale"
  bottom: "res2c_branch2c"
  top: "res2c_branch2c"
  scale_param {
    bias_term: true
  }
}
layer {
  name: "res2c"
  type: "Eltwise"
  bottom: "res2b"
  bottom: "res2c_branch2c"
  top: "res2c"
}
layer {
  name: "res2c_relu"
  type: "ReLU"
  bottom: "res2c"
  top: "res2c"
}
layer {
  name: "res3a_branch1"
  type: "Convolution"
  bottom: "res2c"
  top: "res3a_branch1"
  convolution_param {
    num_output: 512
    bias_term: false
    pad: 0
    kernel_size: 1
    stride: 2
  }
}
layer {
  name: "bn3a_branch1"
  type: "BatchNorm"
  bottom: "res3a_branch1"
  top: "res3a_branch1"
  batch_norm_param {
    use_global_stats: true
  }
}
layer {
  name: "scale3a_branch1"
  type: "Scale"
  bottom: "res3a_branch1"
  top: "res3a_branch1"
  scale_param {
    bias_term: true
  }
}
layer {
  name: "res3a_branch2a"
  type: "Convolution"
  bottom: "res2c"
  top: "res3a_branch2a"
  convolution_param {
    num_output: 128
    bias_term: false
    pad: 0
    kernel_size: 1
    stride: 2
  }
}
layer {
  name: "bn3a_branch2a"
  type: "BatchNorm"
  bottom: "res3a_branch2a"
  top: "res3a_branch2a"
  batch_norm_param {
    use_global_stats: true
  }
}
layer {
  name: "scale3a_branch2a"
  type: "Scale"
  bottom: "res3a_branch2a"
  top: "res3a_branch2a"
  scale_param {
    bias_term: true
  }
}
layer {
  name: "res3a_branch2a_relu"
  type: "ReLU"
  bottom: "res3a_branch2a"
  top: "res3a_branch2a"
}
layer {
  name: "res3a_branch2b"
  type: "Convolution"
  bottom: "res3a_branch2a"
  top: "res3a_branch2b"
  convolution_param {
    num_output: 128
    bias_term: false
    pad: 1
    kernel_size: 3
    stride: 1
  }
}
layer {
  name: "bn3a_branch2b"
  type: "BatchNorm"
  bottom: "res3a_branch2b"
  top: "res3a_branch2b"
  batch_norm_param {
    use_global_stats: true
  }
}
layer {
  name: "scale3a_branch2b"
  type: "Scale"
  bottom: "res3a_branch2b"
  top: "res3a_branch2b"
  scale_param {
    bias_term: true
  }
}
layer {
  name: "res3a_branch2b_relu"
  type: "ReLU"
  bottom: "res3a_branch2b"
  top: "res3a_branch2b"
}
layer {
  name: "res3a_branch2c"
  type: "Convolution"
  bottom: "res3a_branch2b"
  top: "res3a_branch2c"
  convolution_param {
    num_output: 512
    bias_term: false
    pad: 0
    kernel_size: 1
    stride: 1
  }
}
layer {
  name: "bn3a_branch2c"
  type: "BatchNorm"
  bottom: "res3a_branch2c"
  top: "res3a_branch2c"
  batch_norm_param {
    use_global_stats: true
  }
}
layer {
  name: "scale3a_branch2c"
  type: "Scale"
  bottom: "res3a_branch2c"
  top: "res3a_branch2c"
  scale_param {
    bias_term: true
  }
}
layer {
  name: "res3a"
  type: "Eltwise"
  bottom: "res3a_branch1"
  bottom: "res3a_branch2c"
  top: "res3a"
}
layer {
  name: "res3a_relu"
  type: "ReLU"
  bottom: "res3a"
  top: "res3a"
}
layer {
  name: "res3b_branch2a"
  type: "Convolution"
  bottom: "res3a"
  top: "res3b_branch2a"
  convolution_param {
    num_output: 128
    bias_term: false
    pad: 0
    kernel_size: 1
    stride: 1
  }
}
layer {
  name: "bn3b_branch2a"
  type: "BatchNorm"
  bottom: "res3b_branch2a"
  top: "res3b_branch2a"
  batch_norm_param {
    use_global_stats: true
  }
}
layer {
  name: "scale3b_branch2a"
  type: "Scale"
  bottom: "res3b_branch2a"
  top: "res3b_branch2a"
  scale_param {
    bias_term: true
  }
}
layer {
  name: "res3b_branch2a_relu"
  type: "ReLU"
  bottom: "res3b_branch2a"
  top: "res3b_branch2a"
}
layer {
  name: "res3b_branch2b"
  type: "Convolution"
  bottom: "res3b_branch2a"
  top: "res3b_branch2b"
  convolution_param {
    num_output: 128
    bias_term: false
    pad: 1
    kernel_size: 3
    stride: 1
  }
}
layer {
  name: "bn3b_branch2b"
  type: "BatchNorm"
  bottom: "res3b_branch2b"
  top: "res3b_branch2b"
  batch_norm_param {
    use_global_stats: true
  }
}
layer {
  name: "scale3b_branch2b"
  type: "Scale"
  bottom: "res3b_branch2b"
  top: "res3b_branch2b"
  scale_param {
    bias_term: true
  }
}
layer {
  name: "res3b_branch2b_relu"
  type: "ReLU"
  bottom: "res3b_branch2b"
  top: "res3b_branch2b"
}
layer {
  name: "res3b_branch2c"
  type: "Convolution"
  bottom: "res3b_branch2b"
  top: "res3b_branch2c"
  convolution_param {
    num_output: 512
    bias_term: false
    pad: 0
    kernel_size: 1
    stride: 1
  }
}
layer {
  name: "bn3b_branch2c"
  type: "BatchNorm"
  bottom: "res3b_branch2c"
  top: "res3b_branch2c"
  batch_norm_param {
    use_global_stats: true
  }
}
layer {
  name: "scale3b_branch2c"
  type: "Scale"
  bottom: "res3b_branch2c"
  top: "res3b_branch2c"
  scale_param {
    bias_term: true
  }
}
layer {
  name: "res3b"
  type: "Eltwise"
  bottom: "res3a"
  bottom: "res3b_branch2c"
  top: "res3b"
}
layer {
  name: "res3b_relu"
  type: "ReLU"
  bottom: "res3b"
  top: "res3b"
}
layer {
  name: "res3c_branch2a"
  type: "Convolution"
  bottom: "res3b"
  top: "res3c_branch2a"
  convolution_param {
    num_output: 128
    bias_term: false
    pad: 0
    kernel_size: 1
    stride: 1
  }
}
layer {
  name: "bn3c_branch2a"
  type: "BatchNorm"
  bottom: "res3c_branch2a"
  top: "res3c_branch2a"
  batch_norm_param {
    use_global_stats: true
  }
}
layer {
  name: "scale3c_branch2a"
  type: "Scale"
  bottom: "res3c_branch2a"
  top: "res3c_branch2a"
  scale_param {
    bias_term: true
  }
}
layer {
  name: "res3c_branch2a_relu"
  type: "ReLU"
  bottom: "res3c_branch2a"
  top: "res3c_branch2a"
}
layer {
  name: "res3c_branch2b"
  type: "Convolution"
  bottom: "res3c_branch2a"
  top: "res3c_branch2b"
  convolution_param {
    num_output: 128
    bias_term: false
    pad: 1
    kernel_size: 3
    stride: 1
  }
}
layer {
  name: "bn3c_branch2b"
  type: "BatchNorm"
  bottom: "res3c_branch2b"
  top: "res3c_branch2b"
  batch_norm_param {
    use_global_stats: true
  }
}
layer {
  name: "scale3c_branch2b"
  type: "Scale"
  bottom: "res3c_branch2b"
  top: "res3c_branch2b"
  scale_param {
    bias_term: true
  }
}
layer {
  name: "res3c_branch2b_relu"
  type: "ReLU"
  bottom: "res3c_branch2b"
  top: "res3c_branch2b"
}
layer {
  name: "res3c_branch2c"
  type: "Convolution"
  bottom: "res3c_branch2b"
  top: "res3c_branch2c"
  convolution_param {
    num_output: 512
    bias_term: false
    pad: 0
    kernel_size: 1
    stride: 1
  }
}
layer {
  name: "bn3c_branch2c"
  type: "BatchNorm"
  bottom: "res3c_branch2c"
  top: "res3c_branch2c"
  batch_norm_param {
    use_global_stats: true
  }
}
layer {
  name: "scale3c_branch2c"
  type: "Scale"
  bottom: "res3c_branch2c"
  top: "res3c_branch2c"
  scale_param {
    bias_term: true
  }
}
layer {
  name: "res3c"
  type: "Eltwise"
  bottom: "res3b"
  bottom: "res3c_branch2c"
  top: "res3c"
}
layer {
  name: "res3c_relu"
  type: "ReLU"
  bottom: "res3c"
  top: "res3c"
}
layer {
  name: "res3d_branch2a"
  type: "Convolution"
  bottom: "res3c"
  top: "res3d_branch2a"
  convolution_param {
    num_output: 128
    bias_term: false
    pad: 0
    kernel_size: 1
    stride: 1
  }
}
layer {
  name: "bn3d_branch2a"
  type: "BatchNorm"
  bottom: "res3d_branch2a"
  top: "res3d_branch2a"
  batch_norm_param {
    use_global_stats: true
  }
}
layer {
  name: "scale3d_branch2a"
  type: "Scale"
  bottom: "res3d_branch2a"
  top: "res3d_branch2a"
  scale_param {
    bias_term: true
  }
}
layer {
  name: "res3d_branch2a_relu"
  type: "ReLU"
  bottom: "res3d_branch2a"
  top: "res3d_branch2a"
}
layer {
  name: "res3d_branch2b"
  type: "Convolution"
  bottom: "res3d_branch2a"
  top: "res3d_branch2b"
  convolution_param {
    num_output: 128
    bias_term: false
    pad: 1
    kernel_size: 3
    stride: 1
  }
}
layer {
  name: "bn3d_branch2b"
  type: "BatchNorm"
  bottom: "res3d_branch2b"
  top: "res3d_branch2b"
  batch_norm_param {
    use_global_stats: true
  }
}
layer {
  name: "scale3d_branch2b"
  type: "Scale"
  bottom: "res3d_branch2b"
  top: "res3d_branch2b"
  scale_param {
    bias_term: true
  }
}
layer {
  name: "res3d_branch2b_relu"
  type: "ReLU"
  bottom: "res3d_branch2b"
  top: "res3d_branch2b"
}
layer {
  name: "res3d_branch2c"
  type: "Convolution"
  bottom: "res3d_branch2b"
  top: "res3d_branch2c"
  convolution_param {
    num_output: 512
    bias_term: false
    pad: 0
    kernel_size: 1
    stride: 1
  }
}
layer {
  name: "bn3d_branch2c"
  type: "BatchNorm"
  bottom: "res3d_branch2c"
  top: "res3d_branch2c"
  batch_norm_param {
    use_global_stats: true
  }
}
layer {
  name: "scale3d_branch2c"
  type: "Scale"
  bottom: "res3d_branch2c"
  top: "res3d_branch2c"
  scale_param {
    bias_term: true
  }
}
layer {
  name: "res3d"
  type: "Eltwise"
  bottom: "res3c"
  bottom: "res3d_branch2c"
  top: "res3d"
}
layer {
  name: "res3d_relu"
  type: "ReLU"
  bottom: "res3d"
  top: "res3d"
}
layer {
  name: "res4a_branch1"
  type: "Convolution"
  bottom: "res3d"
  top: "res4a_branch1"
  convolution_param {
    num_output: 1024
    bias_term: false
    pad: 0
    kernel_size: 1
    stride: 2
  }
}
layer {
  name: "bn4a_branch1"
  type: "BatchNorm"
  bottom: "res4a_branch1"
  top: "res4a_branch1"
  batch_norm_param {
    use_global_stats: true
  }
}
layer {
  name: "scale4a_branch1"
  type: "Scale"
  bottom: "res4a_branch1"
  top: "res4a_branch1"
  scale_param {
    bias_term: true
  }
}
layer {
  name: "res4a_branch2a"
  type: "Convolution"
  bottom: "res3d"
  top: "res4a_branch2a"
  convolution_param {
    num_output: 256
    bias_term: false
    pad: 0
    kernel_size: 1
    stride: 2
  }
}
layer {
  name: "bn4a_branch2a"
  type: "BatchNorm"
  bottom: "res4a_branch2a"
  top: "res4a_branch2a"
  batch_norm_param {
    use_global_stats: true
  }
}
layer {
  name: "scale4a_branch2a"
  type: "Scale"
  bottom: "res4a_branch2a"
  top: "res4a_branch2a"
  scale_param {
    bias_term: true
  }
}
layer {
  name: "res4a_branch2a_relu"
  type: "ReLU"
  bottom: "res4a_branch2a"
  top: "res4a_branch2a"
}
layer {
  name: "res4a_branch2b"
  type: "Convolution"
  bottom: "res4a_branch2a"
  top: "res4a_branch2b"
  convolution_param {
    num_output: 256
    bias_term: false
    pad: 1
    kernel_size: 3
    stride: 1
  }
}
layer {
  name: "bn4a_branch2b"
  type: "BatchNorm"
  bottom: "res4a_branch2b"
  top: "res4a_branch2b"
  batch_norm_param {
    use_global_stats: true
  }
}
layer {
  name: "scale4a_branch2b"
  type: "Scale"
  bottom: "res4a_branch2b"
  top: "res4a_branch2b"
  scale_param {
    bias_term: true
  }
}
layer {
  name: "res4a_branch2b_relu"
  type: "ReLU"
  bottom: "res4a_branch2b"
  top: "res4a_branch2b"
}
layer {
  name: "res4a_branch2c"
  type: "Convolution"
  bottom: "res4a_branch2b"
  top: "res4a_branch2c"
  convolution_param {
    num_output: 1024
    bias_term: false
    pad: 0
    kernel_size: 1
    stride: 1
  }
}
layer {
  name: "bn4a_branch2c"
  type: "BatchNorm"
  bottom: "res4a_branch2c"
  top: "res4a_branch2c"
  batch_norm_param {
    use_global_stats: true
  }
}
layer {
  name: "scale4a_branch2c"
  type: "Scale"
  bottom: "res4a_branch2c"
  top: "res4a_branch2c"
  scale_param {
    bias_term: true
  }
}
layer {
  name: "res4a"
  type: "Eltwise"
  bottom: "res4a_branch1"
  bottom: "res4a_branch2c"
  top: "res4a"
}
layer {
  name: "res4a_relu"
  type: "ReLU"
  bottom: "res4a"
  top: "res4a"
}
layer {
  name: "res4b_branch2a"
  type: "Convolution"
  bottom: "res4a"
  top: "res4b_branch2a"
  convolution_param {
    num_output: 256
    bias_term: false
    pad: 0
    kernel_size: 1
    stride: 1
  }
}
layer {
  name: "bn4b_branch2a"
  type: "BatchNorm"
  bottom: "res4b_branch2a"
  top: "res4b_branch2a"
  batch_norm_param {
    use_global_stats: true
  }
}
layer {
  name: "scale4b_branch2a"
  type: "Scale"
  bottom: "res4b_branch2a"
  top: "res4b_branch2a"
  scale_param {
    bias_term: true
  }
}
layer {
  name: "res4b_branch2a_relu"
  type: "ReLU"
  bottom: "res4b_branch2a"
  top: "res4b_branch2a"
}
layer {
  name: "res4b_branch2b"
  type: "Convolution"
  bottom: "res4b_branch2a"
  top: "res4b_branch2b"
  convolution_param {
    num_output: 256
    bias_term: false
    pad: 1
    kernel_size: 3
    stride: 1
  }
}
layer {
  name: "bn4b_branch2b"
  type: "BatchNorm"
  bottom: "res4b_branch2b"
  top: "res4b_branch2b"
  batch_norm_param {
    use_global_stats: true
  }
}
layer {
  name: "scale4b_branch2b"
  type: "Scale"
  bottom: "res4b_branch2b"
  top: "res4b_branch2b"
  scale_param {
    bias_term: true
  }
}
layer {
  name: "res4b_branch2b_relu"
  type: "ReLU"
  bottom: "res4b_branch2b"
  top: "res4b_branch2b"
}
layer {
  name: "res4b_branch2c"
  type: "Convolution"
  bottom: "res4b_branch2b"
  top: "res4b_branch2c"
  convolution_param {
    num_output: 1024
    bias_term: false
    pad: 0
    kernel_size: 1
    stride: 1
  }
}
layer {
  name: "bn4b_branch2c"
  type: "BatchNorm"
  bottom: "res4b_branch2c"
  top: "res4b_branch2c"
  batch_norm_param {
    use_global_stats: true
  }
}
layer {
  name: "scale4b_branch2c"
  type: "Scale"
  bottom: "res4b_branch2c"
  top: "res4b_branch2c"
  scale_param {
    bias_term: true
  }
}
layer {
  name: "res4b"
  type: "Eltwise"
  bottom: "res4a"
  bottom: "res4b_branch2c"
  top: "res4b"
}
layer {
  name: "res4b_relu"
  type: "ReLU"
  bottom: "res4b"
  top: "res4b"
}
layer {
  name: "res4c_branch2a"
  type: "Convolution"
  bottom: "res4b"
  top: "res4c_branch2a"
  convolution_param {
    num_output: 256
    bias_term: false
    pad: 0
    kernel_size: 1
    stride: 1
  }
}
layer {
  name: "bn4c_branch2a"
  type: "BatchNorm"
  bottom: "res4c_branch2a"
  top: "res4c_branch2a"
  batch_norm_param {
    use_global_stats: true
  }
}
layer {
  name: "scale4c_branch2a"
  type: "Scale"
  bottom: "res4c_branch2a"
  top: "res4c_branch2a"
  scale_param {
    bias_term: true
  }
}
layer {
  name: "res4c_branch2a_relu"
  type: "ReLU"
  bottom: "res4c_branch2a"
  top: "res4c_branch2a"
}
layer {
  name: "res4c_branch2b"
  type: "Convolution"
  bottom: "res4c_branch2a"
  top: "res4c_branch2b"
  convolution_param {
    num_output: 256
    bias_term: false
    pad: 1
    kernel_size: 3
    stride: 1
  }
}
layer {
  name: "bn4c_branch2b"
  type: "BatchNorm"
  bottom: "res4c_branch2b"
  top: "res4c_branch2b"
  batch_norm_param {
    use_global_stats: true
  }
}
layer {
  name: "scale4c_branch2b"
  type: "Scale"
  bottom: "res4c_branch2b"
  top: "res4c_branch2b"
  scale_param {
    bias_term: true
  }
}
layer {
  name: "res4c_branch2b_relu"
  type: "ReLU"
  bottom: "res4c_branch2b"
  top: "res4c_branch2b"
}
layer {
  name: "res4c_branch2c"
  type: "Convolution"
  bottom: "res4c_branch2b"
  top: "res4c_branch2c"
  convolution_param {
    num_output: 1024
    bias_term: false
    pad: 0
    kernel_size: 1
    stride: 1
  }
}
layer {
  name: "bn4c_branch2c"
  type: "BatchNorm"
  bottom: "res4c_branch2c"
  top: "res4c_branch2c"
  batch_norm_param {
    use_global_stats: true
  }
}
layer {
  name: "scale4c_branch2c"
  type: "Scale"
  bottom: "res4c_branch2c"
  top: "res4c_branch2c"
  scale_param {
    bias_term: true
  }
}
layer {
  name: "res4c"
  type: "Eltwise"
  bottom: "res4b"
  bottom: "res4c_branch2c"
  top: "res4c"
}
layer {
  name: "res4c_relu"
  type: "ReLU"
  bottom: "res4c"
  top: "res4c"
}
layer {
  name: "res4d_branch2a"
  type: "Convolution"
  bottom: "res4c"
  top: "res4d_branch2a"
  convolution_param {
    num_output: 256
    bias_term: false
    pad: 0
    kernel_size: 1
    stride: 1
  }
}
layer {
  name: "bn4d_branch2a"
  type: "BatchNorm"
  bottom: "res4d_branch2a"
  top: "res4d_branch2a"
  batch_norm_param {
    use_global_stats: true
  }
}
layer {
  name: "scale4d_branch2a"
  type: "Scale"
  bottom: "res4d_branch2a"
  top: "res4d_branch2a"
  scale_param {
    bias_term: true
  }
}
layer {
  name: "res4d_branch2a_relu"
  type: "ReLU"
  bottom: "res4d_branch2a"
  top: "res4d_branch2a"
}
layer {
  name: "res4d_branch2b"
  type: "Convolution"
  bottom: "res4d_branch2a"
  top: "res4d_branch2b"
  convolution_param {
    num_output: 256
    bias_term: false
    pad: 1
    kernel_size: 3
    stride: 1
  }
}
layer {
  name: "bn4d_branch2b"
  type: "BatchNorm"
  bottom: "res4d_branch2b"
  top: "res4d_branch2b"
  batch_norm_param {
    use_global_stats: true
  }
}
layer {
  name: "scale4d_branch2b"
  type: "Scale"
  bottom: "res4d_branch2b"
  top: "res4d_branch2b"
  scale_param {
    bias_term: true
  }
}
layer {
  name: "res4d_branch2b_relu"
  type: "ReLU"
  bottom: "res4d_branch2b"
  top: "res4d_branch2b"
}
layer {
  name: "res4d_branch2c"
  type: "Convolution"
  bottom: "res4d_branch2b"
  top: "res4d_branch2c"
  convolution_param {
    num_output: 1024
    bias_term: false
    pad: 0
    kernel_size: 1
    stride: 1
  }
}
layer {
  name: "bn4d_branch2c"
  type: "BatchNorm"
  bottom: "res4d_branch2c"
  top: "res4d_branch2c"
  batch_norm_param {
    use_global_stats: true
  }
}
layer {
  name: "scale4d_branch2c"
  type: "Scale"
  bottom: "res4d_branch2c"
  top: "res4d_branch2c"
  scale_param {
    bias_term: true
  }
}
layer {
  name: "res4d"
  type: "Eltwise"
  bottom: "res4c"
  bottom: "res4d_branch2c"
  top: "res4d"
}
layer {
  name: "res4d_relu"
  type: "ReLU"
  bottom: "res4d"
  top: "res4d"
}
layer {
  name: "res4e_branch2a"
  type: "Convolution"
  bottom: "res4d"
  top: "res4e_branch2a"
  convolution_param {
    num_output: 256
    bias_term: false
    pad: 0
    kernel_size: 1
    stride: 1
  }
}
layer {
  name: "bn4e_branch2a"
  type: "BatchNorm"
  bottom: "res4e_branch2a"
  top: "res4e_branch2a"
  batch_norm_param {
    use_global_stats: true
  }
}
layer {
  name: "scale4e_branch2a"
  type: "Scale"
  bottom: "res4e_branch2a"
  top: "res4e_branch2a"
  scale_param {
    bias_term: true
  }
}
layer {
  name: "res4e_branch2a_relu"
  type: "ReLU"
  bottom: "res4e_branch2a"
  top: "res4e_branch2a"
}
layer {
  name: "res4e_branch2b"
  type: "Convolution"
  bottom: "res4e_branch2a"
  top: "res4e_branch2b"
  convolution_param {
    num_output: 256
    bias_term: false
    pad: 1
    kernel_size: 3
    stride: 1
  }
}
layer {
  name: "bn4e_branch2b"
  type: "BatchNorm"
  bottom: "res4e_branch2b"
  top: "res4e_branch2b"
  batch_norm_param {
    use_global_stats: true
  }
}
layer {
  name: "scale4e_branch2b"
  type: "Scale"
  bottom: "res4e_branch2b"
  top: "res4e_branch2b"
  scale_param {
    bias_term: true
  }
}
layer {
  name: "res4e_branch2b_relu"
  type: "ReLU"
  bottom: "res4e_branch2b"
  top: "res4e_branch2b"
}
layer {
  name: "res4e_branch2c"
  type: "Convolution"
  bottom: "res4e_branch2b"
  top: "res4e_branch2c"
  convolution_param {
    num_output: 1024
    bias_term: false
    pad: 0
    kernel_size: 1
    stride: 1
  }
}
layer {
  name: "bn4e_branch2c"
  type: "BatchNorm"
  bottom: "res4e_branch2c"
  top: "res4e_branch2c"
  batch_norm_param {
    use_global_stats: true
  }
}
layer {
  name: "scale4e_branch2c"
  type: "Scale"
  bottom: "res4e_branch2c"
  top: "res4e_branch2c"
  scale_param {
    bias_term: true
  }
}
layer {
  name: "res4e"
  type: "Eltwise"
  bottom: "res4d"
  bottom: "res4e_branch2c"
  top: "res4e"
}
layer {
  name: "res4e_relu"
  type: "ReLU"
  bottom: "res4e"
  top: "res4e"
}
layer {
  name: "res4f_branch2a"
  type: "Convolution"
  bottom: "res4e"
  top: "res4f_branch2a"
  convolution_param {
    num_output: 256
    bias_term: false
    pad: 0
    kernel_size: 1
    stride: 1
  }
}
layer {
  name: "bn4f_branch2a"
  type: "BatchNorm"
  bottom: "res4f_branch2a"
  top: "res4f_branch2a"
  batch_norm_param {
    use_global_stats: true
  }
}
layer {
  name: "scale4f_branch2a"
  type: "Scale"
  bottom: "res4f_branch2a"
  top: "res4f_branch2a"
  scale_param {
    bias_term: true
  }
}
layer {
  name: "res4f_branch2a_relu"
  type: "ReLU"
  bottom: "res4f_branch2a"
  top: "res4f_branch2a"
}
layer {
  name: "res4f_branch2b"
  type: "Convolution"
  bottom: "res4f_branch2a"
  top: "res4f_branch2b"
  convolution_param {
    num_output: 256
    bias_term: false
    pad: 1
    kernel_size: 3
    stride: 1
  }
}
layer {
  name: "bn4f_branch2b"
  type: "BatchNorm"
  bottom: "res4f_branch2b"
  top: "res4f_branch2b"
  batch_norm_param {
    use_global_stats: true
  }
}
layer {
  name: "scale4f_branch2b"
  type: "Scale"
  bottom: "res4f_branch2b"
  top: "res4f_branch2b"
  scale_param {
    bias_term: true
  }
}
layer {
  name: "res4f_branch2b_relu"
  type: "ReLU"
  bottom: "res4f_branch2b"
  top: "res4f_branch2b"
}
layer {
  name: "res4f_branch2c"
  type: "Convolution"
  bottom: "res4f_branch2b"
  top: "res4f_branch2c"
  convolution_param {
    num_output: 1024
    bias_term: false
    pad: 0
    kernel_size: 1
    stride: 1
  }
}
layer {
  name: "bn4f_branch2c"
  type: "BatchNorm"
  bottom: "res4f_branch2c"
  top: "res4f_branch2c"
  batch_norm_param {
    use_global_stats: true
  }
}
layer {
  name: "scale4f_branch2c"
  type: "Scale"
  bottom: "res4f_branch2c"
  top: "res4f_branch2c"
  scale_param {
    bias_term: true
  }
}
layer {
  name: "res4f"
  type: "Eltwise"
  bottom: "res4e"
  bottom: "res4f_branch2c"
  top: "res4f"
}
layer {
  name: "res4f_relu"
  type: "ReLU"
  bottom: "res4f"
  top: "res4f"
}
layer {
  name: "res5a_branch1"
  type: "Convolution"
  bottom: "res4f"
  top: "res5a_branch1"
  convolution_param {
    num_output: 2048
    bias_term: false
    pad: 0
    kernel_size: 1
    stride: 2
  }
}
layer {
  name: "bn5a_branch1"
  type: "BatchNorm"
  bottom: "res5a_branch1"
  top: "res5a_branch1"
  batch_norm_param {
    use_global_stats: true
  }
}
layer {
  name: "scale5a_branch1"
  type: "Scale"
  bottom: "res5a_branch1"
  top: "res5a_branch1"
  scale_param {
    bias_term: true
  }
}
layer {
  name: "res5a_branch2a"
  type: "Convolution"
  bottom: "res4f"
  top: "res5a_branch2a"
  convolution_param {
    num_output: 512
    bias_term: false
    pad: 0
    kernel_size: 1
    stride: 2
  }
}
layer {
  name: "bn5a_branch2a"
  type: "BatchNorm"
  bottom: "res5a_branch2a"
  top: "res5a_branch2a"
  batch_norm_param {
    use_global_stats: true
  }
}
layer {
  name: "scale5a_branch2a"
  type: "Scale"
  bottom: "res5a_branch2a"
  top: "res5a_branch2a"
  scale_param {
    bias_term: true
  }
}
layer {
  name: "res5a_branch2a_relu"
  type: "ReLU"
  bottom: "res5a_branch2a"
  top: "res5a_branch2a"
}
layer {
  name: "res5a_branch2b"
  type: "Convolution"
  bottom: "res5a_branch2a"
  top: "res5a_branch2b"
  convolution_param {
    num_output: 512
    bias_term: false
    pad: 1
    kernel_size: 3
    stride: 1
  }
}
layer {
  name: "bn5a_branch2b"
  type: "BatchNorm"
  bottom: "res5a_branch2b"
  top: "res5a_branch2b"
  batch_norm_param {
    use_global_stats: true
  }
}
layer {
  name: "scale5a_branch2b"
  type: "Scale"
  bottom: "res5a_branch2b"
  top: "res5a_branch2b"
  scale_param {
    bias_term: true
  }
}
layer {
  name: "res5a_branch2b_relu"
  type: "ReLU"
  bottom: "res5a_branch2b"
  top: "res5a_branch2b"
}
layer {
  name: "res5a_branch2c"
  type: "Convolution"
  bottom: "res5a_branch2b"
  top: "res5a_branch2c"
  convolution_param {
    num_output: 2048
    bias_term: false
    pad: 0
    kernel_size: 1
    stride: 1
  }
}
layer {
  name: "bn5a_branch2c"
  type: "BatchNorm"
  bottom: "res5a_branch2c"
  top: "res5a_branch2c"
  b
I0529 15:55:54.772013 28727 layer_factory.hpp:77] Creating layer data
I0529 15:55:54.772609 28727 net.cpp:91] Creating Layer data
I0529 15:55:54.772644 28727 net.cpp:399] data -> data
I0529 15:55:54.772675 28727 net.cpp:399] data -> label
I0529 15:55:54.774554 28731 db_lmdb.cpp:35] Opened lmdb ../data/fold1/train_lmdb
I0529 15:55:54.795876 28727 data_layer.cpp:41] output data size: 1,3,224,224
I0529 15:55:54.798245 28727 net.cpp:141] Setting up data
I0529 15:55:54.798265 28727 net.cpp:148] Top shape: 1 3 224 224 (150528)
I0529 15:55:54.798270 28727 net.cpp:148] Top shape: 1 (1)
I0529 15:55:54.798272 28727 net.cpp:156] Memory required for data: 602116
I0529 15:55:54.798282 28727 layer_factory.hpp:77] Creating layer conv1
I0529 15:55:54.798301 28727 net.cpp:91] Creating Layer conv1
I0529 15:55:54.798308 28727 net.cpp:425] conv1 <- data
I0529 15:55:54.798319 28727 net.cpp:399] conv1 -> conv1
I0529 15:55:54.926164 28727 net.cpp:141] Setting up conv1
I0529 15:55:54.926192 28727 net.cpp:148] Top shape: 1 64 112 112 (802816)
I0529 15:55:54.926197 28727 net.cpp:156] Memory required for data: 3813380
I0529 15:55:54.926213 28727 layer_factory.hpp:77] Creating layer bn_conv1
I0529 15:55:54.926226 28727 net.cpp:91] Creating Layer bn_conv1
I0529 15:55:54.926230 28727 net.cpp:425] bn_conv1 <- conv1
I0529 15:55:54.926235 28727 net.cpp:386] bn_conv1 -> conv1 (in-place)
I0529 15:55:54.926394 28727 net.cpp:141] Setting up bn_conv1
I0529 15:55:54.926403 28727 net.cpp:148] Top shape: 1 64 112 112 (802816)
I0529 15:55:54.926406 28727 net.cpp:156] Memory required for data: 7024644
I0529 15:55:54.926416 28727 layer_factory.hpp:77] Creating layer scale_conv1
I0529 15:55:54.926426 28727 net.cpp:91] Creating Layer scale_conv1
I0529 15:55:54.926429 28727 net.cpp:425] scale_conv1 <- conv1
I0529 15:55:54.926434 28727 net.cpp:386] scale_conv1 -> conv1 (in-place)
I0529 15:55:54.926471 28727 layer_factory.hpp:77] Creating layer scale_conv1
I0529 15:55:54.926580 28727 net.cpp:141] Setting up scale_conv1
I0529 15:55:54.926589 28727 net.cpp:148] Top shape: 1 64 112 112 (802816)
I0529 15:55:54.926606 28727 net.cpp:156] Memory required for data: 10235908
I0529 15:55:54.926612 28727 layer_factory.hpp:77] Creating layer conv1_relu
I0529 15:55:54.926620 28727 net.cpp:91] Creating Layer conv1_relu
I0529 15:55:54.926625 28727 net.cpp:425] conv1_relu <- conv1
I0529 15:55:54.926628 28727 net.cpp:386] conv1_relu -> conv1 (in-place)
I0529 15:55:54.926914 28727 net.cpp:141] Setting up conv1_relu
I0529 15:55:54.926926 28727 net.cpp:148] Top shape: 1 64 112 112 (802816)
I0529 15:55:54.926929 28727 net.cpp:156] Memory required for data: 13447172
I0529 15:55:54.926933 28727 layer_factory.hpp:77] Creating layer pool1
I0529 15:55:54.926939 28727 net.cpp:91] Creating Layer pool1
I0529 15:55:54.926941 28727 net.cpp:425] pool1 <- conv1
I0529 15:55:54.926947 28727 net.cpp:399] pool1 -> pool1
I0529 15:55:54.926990 28727 net.cpp:141] Setting up pool1
I0529 15:55:54.926996 28727 net.cpp:148] Top shape: 1 64 56 56 (200704)
I0529 15:55:54.927000 28727 net.cpp:156] Memory required for data: 14249988
I0529 15:55:54.927002 28727 layer_factory.hpp:77] Creating layer pool1_pool1_0_split
I0529 15:55:54.927008 28727 net.cpp:91] Creating Layer pool1_pool1_0_split
I0529 15:55:54.927011 28727 net.cpp:425] pool1_pool1_0_split <- pool1
I0529 15:55:54.927016 28727 net.cpp:399] pool1_pool1_0_split -> pool1_pool1_0_split_0
I0529 15:55:54.927021 28727 net.cpp:399] pool1_pool1_0_split -> pool1_pool1_0_split_1
I0529 15:55:54.927052 28727 net.cpp:141] Setting up pool1_pool1_0_split
I0529 15:55:54.927058 28727 net.cpp:148] Top shape: 1 64 56 56 (200704)
I0529 15:55:54.927062 28727 net.cpp:148] Top shape: 1 64 56 56 (200704)
I0529 15:55:54.927064 28727 net.cpp:156] Memory required for data: 15855620
I0529 15:55:54.927067 28727 layer_factory.hpp:77] Creating layer res2a_branch1
I0529 15:55:54.927075 28727 net.cpp:91] Creating Layer res2a_branch1
I0529 15:55:54.927078 28727 net.cpp:425] res2a_branch1 <- pool1_pool1_0_split_0
I0529 15:55:54.927083 28727 net.cpp:399] res2a_branch1 -> res2a_branch1
I0529 15:55:54.927804 28727 net.cpp:141] Setting up res2a_branch1
I0529 15:55:54.927816 28727 net.cpp:148] Top shape: 1 256 56 56 (802816)
I0529 15:55:54.927819 28727 net.cpp:156] Memory required for data: 19066884
I0529 15:55:54.927824 28727 layer_factory.hpp:77] Creating layer bn2a_branch1
I0529 15:55:54.927832 28727 net.cpp:91] Creating Layer bn2a_branch1
I0529 15:55:54.927835 28727 net.cpp:425] bn2a_branch1 <- res2a_branch1
I0529 15:55:54.927841 28727 net.cpp:386] bn2a_branch1 -> res2a_branch1 (in-place)
I0529 15:55:54.928438 28727 net.cpp:141] Setting up bn2a_branch1
I0529 15:55:54.928449 28727 net.cpp:148] Top shape: 1 256 56 56 (802816)
I0529 15:55:54.928452 28727 net.cpp:156] Memory required for data: 22278148
I0529 15:55:54.928462 28727 layer_factory.hpp:77] Creating layer scale2a_branch1
I0529 15:55:54.928467 28727 net.cpp:91] Creating Layer scale2a_branch1
I0529 15:55:54.928470 28727 net.cpp:425] scale2a_branch1 <- res2a_branch1
I0529 15:55:54.928475 28727 net.cpp:386] scale2a_branch1 -> res2a_branch1 (in-place)
I0529 15:55:54.928513 28727 layer_factory.hpp:77] Creating layer scale2a_branch1
I0529 15:55:54.928603 28727 net.cpp:141] Setting up scale2a_branch1
I0529 15:55:54.928611 28727 net.cpp:148] Top shape: 1 256 56 56 (802816)
I0529 15:55:54.928613 28727 net.cpp:156] Memory required for data: 25489412
I0529 15:55:54.928618 28727 layer_factory.hpp:77] Creating layer res2a_branch2a
I0529 15:55:54.928627 28727 net.cpp:91] Creating Layer res2a_branch2a
I0529 15:55:54.928629 28727 net.cpp:425] res2a_branch2a <- pool1_pool1_0_split_1
I0529 15:55:54.928633 28727 net.cpp:399] res2a_branch2a -> res2a_branch2a
I0529 15:55:54.929471 28727 net.cpp:141] Setting up res2a_branch2a
I0529 15:55:54.929483 28727 net.cpp:148] Top shape: 1 64 56 56 (200704)
I0529 15:55:54.929486 28727 net.cpp:156] Memory required for data: 26292228
I0529 15:55:54.929491 28727 layer_factory.hpp:77] Creating layer bn2a_branch2a
I0529 15:55:54.929499 28727 net.cpp:91] Creating Layer bn2a_branch2a
I0529 15:55:54.929504 28727 net.cpp:425] bn2a_branch2a <- res2a_branch2a
I0529 15:55:54.929518 28727 net.cpp:386] bn2a_branch2a -> res2a_branch2a (in-place)
I0529 15:55:54.929669 28727 net.cpp:141] Setting up bn2a_branch2a
I0529 15:55:54.929677 28727 net.cpp:148] Top shape: 1 64 56 56 (200704)
I0529 15:55:54.929679 28727 net.cpp:156] Memory required for data: 27095044
I0529 15:55:54.929689 28727 layer_factory.hpp:77] Creating layer scale2a_branch2a
I0529 15:55:54.929697 28727 net.cpp:91] Creating Layer scale2a_branch2a
I0529 15:55:54.929699 28727 net.cpp:425] scale2a_branch2a <- res2a_branch2a
I0529 15:55:54.929703 28727 net.cpp:386] scale2a_branch2a -> res2a_branch2a (in-place)
I0529 15:55:54.929735 28727 layer_factory.hpp:77] Creating layer scale2a_branch2a
I0529 15:55:54.929829 28727 net.cpp:141] Setting up scale2a_branch2a
I0529 15:55:54.929836 28727 net.cpp:148] Top shape: 1 64 56 56 (200704)
I0529 15:55:54.929838 28727 net.cpp:156] Memory required for data: 27897860
I0529 15:55:54.929843 28727 layer_factory.hpp:77] Creating layer res2a_branch2a_relu
I0529 15:55:54.929848 28727 net.cpp:91] Creating Layer res2a_branch2a_relu
I0529 15:55:54.929852 28727 net.cpp:425] res2a_branch2a_relu <- res2a_branch2a
I0529 15:55:54.929857 28727 net.cpp:386] res2a_branch2a_relu -> res2a_branch2a (in-place)
I0529 15:55:54.930153 28727 net.cpp:141] Setting up res2a_branch2a_relu
I0529 15:55:54.930166 28727 net.cpp:148] Top shape: 1 64 56 56 (200704)
I0529 15:55:54.930168 28727 net.cpp:156] Memory required for data: 28700676
I0529 15:55:54.930171 28727 layer_factory.hpp:77] Creating layer res2a_branch2b
I0529 15:55:54.930179 28727 net.cpp:91] Creating Layer res2a_branch2b
I0529 15:55:54.930182 28727 net.cpp:425] res2a_branch2b <- res2a_branch2a
I0529 15:55:54.930188 28727 net.cpp:399] res2a_branch2b -> res2a_branch2b
I0529 15:55:54.931488 28727 net.cpp:141] Setting up res2a_branch2b
I0529 15:55:54.931501 28727 net.cpp:148] Top shape: 1 64 56 56 (200704)
I0529 15:55:54.931504 28727 net.cpp:156] Memory required for data: 29503492
I0529 15:55:54.931509 28727 layer_factory.hpp:77] Creating layer bn2a_branch2b
I0529 15:55:54.931515 28727 net.cpp:91] Creating Layer bn2a_branch2b
I0529 15:55:54.931519 28727 net.cpp:425] bn2a_branch2b <- res2a_branch2b
I0529 15:55:54.931522 28727 net.cpp:386] bn2a_branch2b -> res2a_branch2b (in-place)
I0529 15:55:54.931676 28727 net.cpp:141] Setting up bn2a_branch2b
I0529 15:55:54.931684 28727 net.cpp:148] Top shape: 1 64 56 56 (200704)
I0529 15:55:54.931686 28727 net.cpp:156] Memory required for data: 30306308
I0529 15:55:54.931692 28727 layer_factory.hpp:77] Creating layer scale2a_branch2b
I0529 15:55:54.931699 28727 net.cpp:91] Creating Layer scale2a_branch2b
I0529 15:55:54.931702 28727 net.cpp:425] scale2a_branch2b <- res2a_branch2b
I0529 15:55:54.931706 28727 net.cpp:386] scale2a_branch2b -> res2a_branch2b (in-place)
I0529 15:55:54.931740 28727 layer_factory.hpp:77] Creating layer scale2a_branch2b
I0529 15:55:54.931835 28727 net.cpp:141] Setting up scale2a_branch2b
I0529 15:55:54.931843 28727 net.cpp:148] Top shape: 1 64 56 56 (200704)
I0529 15:55:54.931845 28727 net.cpp:156] Memory required for data: 31109124
I0529 15:55:54.931849 28727 layer_factory.hpp:77] Creating layer res2a_branch2b_relu
I0529 15:55:54.931854 28727 net.cpp:91] Creating Layer res2a_branch2b_relu
I0529 15:55:54.931857 28727 net.cpp:425] res2a_branch2b_relu <- res2a_branch2b
I0529 15:55:54.931860 28727 net.cpp:386] res2a_branch2b_relu -> res2a_branch2b (in-place)
I0529 15:55:54.932008 28727 net.cpp:141] Setting up res2a_branch2b_relu
I0529 15:55:54.932018 28727 net.cpp:148] Top shape: 1 64 56 56 (200704)
I0529 15:55:54.932020 28727 net.cpp:156] Memory required for data: 31911940
I0529 15:55:54.932024 28727 layer_factory.hpp:77] Creating layer res2a_branch2c
I0529 15:55:54.932031 28727 net.cpp:91] Creating Layer res2a_branch2c
I0529 15:55:54.932034 28727 net.cpp:425] res2a_branch2c <- res2a_branch2b
I0529 15:55:54.932039 28727 net.cpp:399] res2a_branch2c -> res2a_branch2c
I0529 15:55:54.932899 28727 net.cpp:141] Setting up res2a_branch2c
I0529 15:55:54.932911 28727 net.cpp:148] Top shape: 1 256 56 56 (802816)
I0529 15:55:54.932924 28727 net.cpp:156] Memory required for data: 35123204
I0529 15:55:54.932930 28727 layer_factory.hpp:77] Creating layer bn2a_branch2c
I0529 15:55:54.932937 28727 net.cpp:91] Creating Layer bn2a_branch2c
I0529 15:55:54.932940 28727 net.cpp:425] bn2a_branch2c <- res2a_branch2c
I0529 15:55:54.932945 28727 net.cpp:386] bn2a_branch2c -> res2a_branch2c (in-place)
I0529 15:55:54.933095 28727 net.cpp:141] Setting up bn2a_branch2c
I0529 15:55:54.933104 28727 net.cpp:148] Top shape: 1 256 56 56 (802816)
I0529 15:55:54.933106 28727 net.cpp:156] Memory required for data: 38334468
I0529 15:55:54.933112 28727 layer_factory.hpp:77] Creating layer scale2a_branch2c
I0529 15:55:54.933117 28727 net.cpp:91] Creating Layer scale2a_branch2c
I0529 15:55:54.933120 28727 net.cpp:425] scale2a_branch2c <- res2a_branch2c
I0529 15:55:54.933125 28727 net.cpp:386] scale2a_branch2c -> res2a_branch2c (in-place)
I0529 15:55:54.933156 28727 layer_factory.hpp:77] Creating layer scale2a_branch2c
I0529 15:55:54.933248 28727 net.cpp:141] Setting up scale2a_branch2c
I0529 15:55:54.933255 28727 net.cpp:148] Top shape: 1 256 56 56 (802816)
I0529 15:55:54.933259 28727 net.cpp:156] Memory required for data: 41545732
I0529 15:55:54.933264 28727 layer_factory.hpp:77] Creating layer res2a
I0529 15:55:54.933269 28727 net.cpp:91] Creating Layer res2a
I0529 15:55:54.933271 28727 net.cpp:425] res2a <- res2a_branch1
I0529 15:55:54.933274 28727 net.cpp:425] res2a <- res2a_branch2c
I0529 15:55:54.933279 28727 net.cpp:399] res2a -> res2a
I0529 15:55:54.933305 28727 net.cpp:141] Setting up res2a
I0529 15:55:54.933311 28727 net.cpp:148] Top shape: 1 256 56 56 (802816)
I0529 15:55:54.933315 28727 net.cpp:156] Memory required for data: 44756996
I0529 15:55:54.933317 28727 layer_factory.hpp:77] Creating layer res2a_relu
I0529 15:55:54.933322 28727 net.cpp:91] Creating Layer res2a_relu
I0529 15:55:54.933326 28727 net.cpp:425] res2a_relu <- res2a
I0529 15:55:54.933328 28727 net.cpp:386] res2a_relu -> res2a (in-place)
I0529 15:55:54.933478 28727 net.cpp:141] Setting up res2a_relu
I0529 15:55:54.933487 28727 net.cpp:148] Top shape: 1 256 56 56 (802816)
I0529 15:55:54.933490 28727 net.cpp:156] Memory required for data: 47968260
I0529 15:55:54.933492 28727 layer_factory.hpp:77] Creating layer res2a_res2a_relu_0_split
I0529 15:55:54.933497 28727 net.cpp:91] Creating Layer res2a_res2a_relu_0_split
I0529 15:55:54.933501 28727 net.cpp:425] res2a_res2a_relu_0_split <- res2a
I0529 15:55:54.933506 28727 net.cpp:399] res2a_res2a_relu_0_split -> res2a_res2a_relu_0_split_0
I0529 15:55:54.933511 28727 net.cpp:399] res2a_res2a_relu_0_split -> res2a_res2a_relu_0_split_1
I0529 15:55:54.933544 28727 net.cpp:141] Setting up res2a_res2a_relu_0_split
I0529 15:55:54.933552 28727 net.cpp:148] Top shape: 1 256 56 56 (802816)
I0529 15:55:54.933554 28727 net.cpp:148] Top shape: 1 256 56 56 (802816)
I0529 15:55:54.933557 28727 net.cpp:156] Memory required for data: 54390788
I0529 15:55:54.933559 28727 layer_factory.hpp:77] Creating layer res2b_branch2a
I0529 15:55:54.933565 28727 net.cpp:91] Creating Layer res2b_branch2a
I0529 15:55:54.933568 28727 net.cpp:425] res2b_branch2a <- res2a_res2a_relu_0_split_0
I0529 15:55:54.933573 28727 net.cpp:399] res2b_branch2a -> res2b_branch2a
I0529 15:55:54.934590 28727 net.cpp:141] Setting up res2b_branch2a
I0529 15:55:54.934603 28727 net.cpp:148] Top shape: 1 64 56 56 (200704)
I0529 15:55:54.934607 28727 net.cpp:156] Memory required for data: 55193604
I0529 15:55:54.934612 28727 layer_factory.hpp:77] Creating layer bn2b_branch2a
I0529 15:55:54.934618 28727 net.cpp:91] Creating Layer bn2b_branch2a
I0529 15:55:54.934622 28727 net.cpp:425] bn2b_branch2a <- res2b_branch2a
I0529 15:55:54.934625 28727 net.cpp:386] bn2b_branch2a -> res2b_branch2a (in-place)
I0529 15:55:54.934782 28727 net.cpp:141] Setting up bn2b_branch2a
I0529 15:55:54.934789 28727 net.cpp:148] Top shape: 1 64 56 56 (200704)
I0529 15:55:54.934792 28727 net.cpp:156] Memory required for data: 55996420
I0529 15:55:54.934803 28727 layer_factory.hpp:77] Creating layer scale2b_branch2a
I0529 15:55:54.934819 28727 net.cpp:91] Creating Layer scale2b_branch2a
I0529 15:55:54.934823 28727 net.cpp:425] scale2b_branch2a <- res2b_branch2a
I0529 15:55:54.934830 28727 net.cpp:386] scale2b_branch2a -> res2b_branch2a (in-place)
I0529 15:55:54.934867 28727 layer_factory.hpp:77] Creating layer scale2b_branch2a
I0529 15:55:54.934964 28727 net.cpp:141] Setting up scale2b_branch2a
I0529 15:55:54.934972 28727 net.cpp:148] Top shape: 1 64 56 56 (200704)
I0529 15:55:54.934974 28727 net.cpp:156] Memory required for data: 56799236
I0529 15:55:54.934979 28727 layer_factory.hpp:77] Creating layer res2b_branch2a_relu
I0529 15:55:54.934985 28727 net.cpp:91] Creating Layer res2b_branch2a_relu
I0529 15:55:54.934988 28727 net.cpp:425] res2b_branch2a_relu <- res2b_branch2a
I0529 15:55:54.934991 28727 net.cpp:386] res2b_branch2a_relu -> res2b_branch2a (in-place)
I0529 15:55:54.935276 28727 net.cpp:141] Setting up res2b_branch2a_relu
I0529 15:55:54.935286 28727 net.cpp:148] Top shape: 1 64 56 56 (200704)
I0529 15:55:54.935289 28727 net.cpp:156] Memory required for data: 57602052
I0529 15:55:54.935292 28727 layer_factory.hpp:77] Creating layer res2b_branch2b
I0529 15:55:54.935302 28727 net.cpp:91] Creating Layer res2b_branch2b
I0529 15:55:54.935305 28727 net.cpp:425] res2b_branch2b <- res2b_branch2a
I0529 15:55:54.935309 28727 net.cpp:399] res2b_branch2b -> res2b_branch2b
I0529 15:55:54.936159 28727 net.cpp:141] Setting up res2b_branch2b
I0529 15:55:54.936172 28727 net.cpp:148] Top shape: 1 64 56 56 (200704)
I0529 15:55:54.936174 28727 net.cpp:156] Memory required for data: 58404868
I0529 15:55:54.936178 28727 layer_factory.hpp:77] Creating layer bn2b_branch2b
I0529 15:55:54.936184 28727 net.cpp:91] Creating Layer bn2b_branch2b
I0529 15:55:54.936187 28727 net.cpp:425] bn2b_branch2b <- res2b_branch2b
I0529 15:55:54.936193 28727 net.cpp:386] bn2b_branch2b -> res2b_branch2b (in-place)
I0529 15:55:54.936353 28727 net.cpp:141] Setting up bn2b_branch2b
I0529 15:55:54.936360 28727 net.cpp:148] Top shape: 1 64 56 56 (200704)
I0529 15:55:54.936363 28727 net.cpp:156] Memory required for data: 59207684
I0529 15:55:54.936369 28727 layer_factory.hpp:77] Creating layer scale2b_branch2b
I0529 15:55:54.936374 28727 net.cpp:91] Creating Layer scale2b_branch2b
I0529 15:55:54.936378 28727 net.cpp:425] scale2b_branch2b <- res2b_branch2b
I0529 15:55:54.936383 28727 net.cpp:386] scale2b_branch2b -> res2b_branch2b (in-place)
I0529 15:55:54.936413 28727 layer_factory.hpp:77] Creating layer scale2b_branch2b
I0529 15:55:54.936512 28727 net.cpp:141] Setting up scale2b_branch2b
I0529 15:55:54.936519 28727 net.cpp:148] Top shape: 1 64 56 56 (200704)
I0529 15:55:54.936522 28727 net.cpp:156] Memory required for data: 60010500
I0529 15:55:54.936527 28727 layer_factory.hpp:77] Creating layer res2b_branch2b_relu
I0529 15:55:54.936532 28727 net.cpp:91] Creating Layer res2b_branch2b_relu
I0529 15:55:54.936534 28727 net.cpp:425] res2b_branch2b_relu <- res2b_branch2b
I0529 15:55:54.936538 28727 net.cpp:386] res2b_branch2b_relu -> res2b_branch2b (in-place)
I0529 15:55:54.936686 28727 net.cpp:141] Setting up res2b_branch2b_relu
I0529 15:55:54.936693 28727 net.cpp:148] Top shape: 1 64 56 56 (200704)
I0529 15:55:54.936697 28727 net.cpp:156] Memory required for data: 60813316
I0529 15:55:54.936699 28727 layer_factory.hpp:77] Creating layer res2b_branch2c
I0529 15:55:54.936709 28727 net.cpp:91] Creating Layer res2b_branch2c
I0529 15:55:54.936712 28727 net.cpp:425] res2b_branch2c <- res2b_branch2b
I0529 15:55:54.936718 28727 net.cpp:399] res2b_branch2c -> res2b_branch2c
I0529 15:55:54.937582 28727 net.cpp:141] Setting up res2b_branch2c
I0529 15:55:54.937594 28727 net.cpp:148] Top shape: 1 256 56 56 (802816)
I0529 15:55:54.937597 28727 net.cpp:156] Memory required for data: 64024580
I0529 15:55:54.937602 28727 layer_factory.hpp:77] Creating layer bn2b_branch2c
I0529 15:55:54.937608 28727 net.cpp:91] Creating Layer bn2b_branch2c
I0529 15:55:54.937611 28727 net.cpp:425] bn2b_branch2c <- res2b_branch2c
I0529 15:55:54.937615 28727 net.cpp:386] bn2b_branch2c -> res2b_branch2c (in-place)
I0529 15:55:54.937780 28727 net.cpp:141] Setting up bn2b_branch2c
I0529 15:55:54.937788 28727 net.cpp:148] Top shape: 1 256 56 56 (802816)
I0529 15:55:54.937790 28727 net.cpp:156] Memory required for data: 67235844
I0529 15:55:54.937798 28727 layer_factory.hpp:77] Creating layer scale2b_branch2c
I0529 15:55:54.937803 28727 net.cpp:91] Creating Layer scale2b_branch2c
I0529 15:55:54.937805 28727 net.cpp:425] scale2b_branch2c <- res2b_branch2c
I0529 15:55:54.937809 28727 net.cpp:386] scale2b_branch2c -> res2b_branch2c (in-place)
I0529 15:55:54.937841 28727 layer_factory.hpp:77] Creating layer scale2b_branch2c
I0529 15:55:54.937938 28727 net.cpp:141] Setting up scale2b_branch2c
I0529 15:55:54.937945 28727 net.cpp:148] Top shape: 1 256 56 56 (802816)
I0529 15:55:54.937947 28727 net.cpp:156] Memory required for data: 70447108
I0529 15:55:54.937952 28727 layer_factory.hpp:77] Creating layer res2b
I0529 15:55:54.937958 28727 net.cpp:91] Creating Layer res2b
I0529 15:55:54.937961 28727 net.cpp:425] res2b <- res2a_res2a_relu_0_split_1
I0529 15:55:54.937965 28727 net.cpp:425] res2b <- res2b_branch2c
I0529 15:55:54.937969 28727 net.cpp:399] res2b -> res2b
I0529 15:55:54.937993 28727 net.cpp:141] Setting up res2b
I0529 15:55:54.937999 28727 net.cpp:148] Top shape: 1 256 56 56 (802816)
I0529 15:55:54.938002 28727 net.cpp:156] Memory required for data: 73658372
I0529 15:55:54.938004 28727 layer_factory.hpp:77] Creating layer res2b_relu
I0529 15:55:54.938014 28727 net.cpp:91] Creating Layer res2b_relu
I0529 15:55:54.938015 28727 net.cpp:425] res2b_relu <- res2b
I0529 15:55:54.938019 28727 net.cpp:386] res2b_relu -> res2b (in-place)
I0529 15:55:54.938177 28727 net.cpp:141] Setting up res2b_relu
I0529 15:55:54.938186 28727 net.cpp:148] Top shape: 1 256 56 56 (802816)
I0529 15:55:54.938189 28727 net.cpp:156] Memory required for data: 76869636
I0529 15:55:54.938192 28727 layer_factory.hpp:77] Creating layer res2b_res2b_relu_0_split
I0529 15:55:54.938197 28727 net.cpp:91] Creating Layer res2b_res2b_relu_0_split
I0529 15:55:54.938200 28727 net.cpp:425] res2b_res2b_relu_0_split <- res2b
I0529 15:55:54.938205 28727 net.cpp:399] res2b_res2b_relu_0_split -> res2b_res2b_relu_0_split_0
I0529 15:55:54.938210 28727 net.cpp:399] res2b_res2b_relu_0_split -> res2b_res2b_relu_0_split_1
I0529 15:55:54.938244 28727 net.cpp:141] Setting up res2b_res2b_relu_0_split
I0529 15:55:54.938251 28727 net.cpp:148] Top shape: 1 256 56 56 (802816)
I0529 15:55:54.938254 28727 net.cpp:148] Top shape: 1 256 56 56 (802816)
I0529 15:55:54.938256 28727 net.cpp:156] Memory required for data: 83292164
I0529 15:55:54.938259 28727 layer_factory.hpp:77] Creating layer res2c_branch2a
I0529 15:55:54.938267 28727 net.cpp:91] Creating Layer res2c_branch2a
I0529 15:55:54.938271 28727 net.cpp:425] res2c_branch2a <- res2b_res2b_relu_0_split_0
I0529 15:55:54.938276 28727 net.cpp:399] res2c_branch2a -> res2c_branch2a
I0529 15:55:54.939137 28727 net.cpp:141] Setting up res2c_branch2a
I0529 15:55:54.939149 28727 net.cpp:148] Top shape: 1 64 56 56 (200704)
I0529 15:55:54.939157 28727 net.cpp:156] Memory required for data: 84094980
I0529 15:55:54.939160 28727 layer_factory.hpp:77] Creating layer bn2c_branch2a
I0529 15:55:54.939167 28727 net.cpp:91] Creating Layer bn2c_branch2a
I0529 15:55:54.939170 28727 net.cpp:425] bn2c_branch2a <- res2c_branch2a
I0529 15:55:54.939175 28727 net.cpp:386] bn2c_branch2a -> res2c_branch2a (in-place)
I0529 15:55:54.939337 28727 net.cpp:141] Setting up bn2c_branch2a
I0529 15:55:54.939343 28727 net.cpp:148] Top shape: 1 64 56 56 (200704)
I0529 15:55:54.939347 28727 net.cpp:156] Memory required for data: 84897796
I0529 15:55:54.939352 28727 layer_factory.hpp:77] Creating layer scale2c_branch2a
I0529 15:55:54.939357 28727 net.cpp:91] Creating Layer scale2c_branch2a
I0529 15:55:54.939360 28727 net.cpp:425] scale2c_branch2a <- res2c_branch2a
I0529 15:55:54.939365 28727 net.cpp:386] scale2c_branch2a -> res2c_branch2a (in-place)
I0529 15:55:54.939399 28727 layer_factory.hpp:77] Creating layer scale2c_branch2a
I0529 15:55:54.939499 28727 net.cpp:141] Setting up scale2c_branch2a
I0529 15:55:54.939517 28727 net.cpp:148] Top shape: 1 64 56 56 (200704)
I0529 15:55:54.939520 28727 net.cpp:156] Memory required for data: 85700612
I0529 15:55:54.939525 28727 layer_factory.hpp:77] Creating layer res2c_branch2a_relu
I0529 15:55:54.939530 28727 net.cpp:91] Creating Layer res2c_branch2a_relu
I0529 15:55:54.939533 28727 net.cpp:425] res2c_branch2a_relu <- res2c_branch2a
I0529 15:55:54.939537 28727 net.cpp:386] res2c_branch2a_relu -> res2c_branch2a (in-place)
I0529 15:55:54.939821 28727 net.cpp:141] Setting up res2c_branch2a_relu
I0529 15:55:54.939833 28727 net.cpp:148] Top shape: 1 64 56 56 (200704)
I0529 15:55:54.939836 28727 net.cpp:156] Memory required for data: 86503428
I0529 15:55:54.939839 28727 layer_factory.hpp:77] Creating layer res2c_branch2b
I0529 15:55:54.939847 28727 net.cpp:91] Creating Layer res2c_branch2b
I0529 15:55:54.939851 28727 net.cpp:425] res2c_branch2b <- res2c_branch2a
I0529 15:55:54.939856 28727 net.cpp:399] res2c_branch2b -> res2c_branch2b
I0529 15:55:54.940727 28727 net.cpp:141] Setting up res2c_branch2b
I0529 15:55:54.940739 28727 net.cpp:148] Top shape: 1 64 56 56 (200704)
I0529 15:55:54.940742 28727 net.cpp:156] Memory required for data: 87306244
I0529 15:55:54.940747 28727 layer_factory.hpp:77] Creating layer bn2c_branch2b
I0529 15:55:54.940753 28727 net.cpp:91] Creating Layer bn2c_branch2b
I0529 15:55:54.940757 28727 net.cpp:425] bn2c_branch2b <- res2c_branch2b
I0529 15:55:54.940762 28727 net.cpp:386] bn2c_branch2b -> res2c_branch2b (in-place)
I0529 15:55:54.940922 28727 net.cpp:141] Setting up bn2c_branch2b
I0529 15:55:54.940929 28727 net.cpp:148] Top shape: 1 64 56 56 (200704)
I0529 15:55:54.940932 28727 net.cpp:156] Memory required for data: 88109060
I0529 15:55:54.940938 28727 layer_factory.hpp:77] Creating layer scale2c_branch2b
I0529 15:55:54.940943 28727 net.cpp:91] Creating Layer scale2c_branch2b
I0529 15:55:54.940946 28727 net.cpp:425] scale2c_branch2b <- res2c_branch2b
I0529 15:55:54.940950 28727 net.cpp:386] scale2c_branch2b -> res2c_branch2b (in-place)
I0529 15:55:54.940984 28727 layer_factory.hpp:77] Creating layer scale2c_branch2b
I0529 15:55:54.941085 28727 net.cpp:141] Setting up scale2c_branch2b
I0529 15:55:54.941094 28727 net.cpp:148] Top shape: 1 64 56 56 (200704)
I0529 15:55:54.941097 28727 net.cpp:156] Memory required for data: 88911876
I0529 15:55:54.941102 28727 layer_factory.hpp:77] Creating layer res2c_branch2b_relu
I0529 15:55:54.941107 28727 net.cpp:91] Creating Layer res2c_branch2b_relu
I0529 15:55:54.941109 28727 net.cpp:425] res2c_branch2b_relu <- res2c_branch2b
I0529 15:55:54.941112 28727 net.cpp:386] res2c_branch2b_relu -> res2c_branch2b (in-place)
I0529 15:55:54.941263 28727 net.cpp:141] Setting up res2c_branch2b_relu
I0529 15:55:54.941272 28727 net.cpp:148] Top shape: 1 64 56 56 (200704)
I0529 15:55:54.941275 28727 net.cpp:156] Memory required for data: 89714692
I0529 15:55:54.941277 28727 layer_factory.hpp:77] Creating layer res2c_branch2c
I0529 15:55:54.941285 28727 net.cpp:91] Creating Layer res2c_branch2c
I0529 15:55:54.941290 28727 net.cpp:425] res2c_branch2c <- res2c_branch2b
I0529 15:55:54.941294 28727 net.cpp:399] res2c_branch2c -> res2c_branch2c
I0529 15:55:54.942298 28727 net.cpp:141] Setting up res2c_branch2c
I0529 15:55:54.942312 28727 net.cpp:148] Top shape: 1 256 56 56 (802816)
I0529 15:55:54.942314 28727 net.cpp:156] Memory required for data: 92925956
I0529 15:55:54.942319 28727 layer_factory.hpp:77] Creating layer bn2c_branch2c
I0529 15:55:54.942327 28727 net.cpp:91] Creating Layer bn2c_branch2c
I0529 15:55:54.942330 28727 net.cpp:425] bn2c_branch2c <- res2c_branch2c
I0529 15:55:54.942334 28727 net.cpp:386] bn2c_branch2c -> res2c_branch2c (in-place)
I0529 15:55:54.942494 28727 net.cpp:141] Setting up bn2c_branch2c
I0529 15:55:54.942502 28727 net.cpp:148] Top shape: 1 256 56 56 (802816)
I0529 15:55:54.942504 28727 net.cpp:156] Memory required for data: 96137220
I0529 15:55:54.942517 28727 layer_factory.hpp:77] Creating layer scale2c_branch2c
I0529 15:55:54.942524 28727 net.cpp:91] Creating Layer scale2c_branch2c
I0529 15:55:54.942528 28727 net.cpp:425] scale2c_branch2c <- res2c_branch2c
I0529 15:55:54.942543 28727 net.cpp:386] scale2c_branch2c -> res2c_branch2c (in-place)
I0529 15:55:54.942581 28727 layer_factory.hpp:77] Creating layer scale2c_branch2c
I0529 15:55:54.942682 28727 net.cpp:141] Setting up scale2c_branch2c
I0529 15:55:54.942689 28727 net.cpp:148] Top shape: 1 256 56 56 (802816)
I0529 15:55:54.942692 28727 net.cpp:156] Memory required for data: 99348484
I0529 15:55:54.942697 28727 layer_factory.hpp:77] Creating layer res2c
I0529 15:55:54.942701 28727 net.cpp:91] Creating Layer res2c
I0529 15:55:54.942704 28727 net.cpp:425] res2c <- res2b_res2b_relu_0_split_1
I0529 15:55:54.942708 28727 net.cpp:425] res2c <- res2c_branch2c
I0529 15:55:54.942713 28727 net.cpp:399] res2c -> res2c
I0529 15:55:54.942734 28727 net.cpp:141] Setting up res2c
I0529 15:55:54.942740 28727 net.cpp:148] Top shape: 1 256 56 56 (802816)
I0529 15:55:54.942744 28727 net.cpp:156] Memory required for data: 102559748
I0529 15:55:54.942745 28727 layer_factory.hpp:77] Creating layer res2c_relu
I0529 15:55:54.942749 28727 net.cpp:91] Creating Layer res2c_relu
I0529 15:55:54.942752 28727 net.cpp:425] res2c_relu <- res2c
I0529 15:55:54.942757 28727 net.cpp:386] res2c_relu -> res2c (in-place)
I0529 15:55:54.942916 28727 net.cpp:141] Setting up res2c_relu
I0529 15:55:54.942924 28727 net.cpp:148] Top shape: 1 256 56 56 (802816)
I0529 15:55:54.942929 28727 net.cpp:156] Memory required for data: 105771012
I0529 15:55:54.942931 28727 layer_factory.hpp:77] Creating layer res2c_res2c_relu_0_split
I0529 15:55:54.942936 28727 net.cpp:91] Creating Layer res2c_res2c_relu_0_split
I0529 15:55:54.942939 28727 net.cpp:425] res2c_res2c_relu_0_split <- res2c
I0529 15:55:54.942942 28727 net.cpp:399] res2c_res2c_relu_0_split -> res2c_res2c_relu_0_split_0
I0529 15:55:54.942947 28727 net.cpp:399] res2c_res2c_relu_0_split -> res2c_res2c_relu_0_split_1
I0529 15:55:54.942986 28727 net.cpp:141] Setting up res2c_res2c_relu_0_split
I0529 15:55:54.942991 28727 net.cpp:148] Top shape: 1 256 56 56 (802816)
I0529 15:55:54.942994 28727 net.cpp:148] Top shape: 1 256 56 56 (802816)
I0529 15:55:54.942996 28727 net.cpp:156] Memory required for data: 112193540
I0529 15:55:54.942999 28727 layer_factory.hpp:77] Creating layer res3a_branch1
I0529 15:55:54.943006 28727 net.cpp:91] Creating Layer res3a_branch1
I0529 15:55:54.943009 28727 net.cpp:425] res3a_branch1 <- res2c_res2c_relu_0_split_0
I0529 15:55:54.943013 28727 net.cpp:399] res3a_branch1 -> res3a_branch1
I0529 15:55:54.944486 28727 net.cpp:141] Setting up res3a_branch1
I0529 15:55:54.944499 28727 net.cpp:148] Top shape: 1 512 28 28 (401408)
I0529 15:55:54.944502 28727 net.cpp:156] Memory required for data: 113799172
I0529 15:55:54.944507 28727 layer_factory.hpp:77] Creating layer bn3a_branch1
I0529 15:55:54.944514 28727 net.cpp:91] Creating Layer bn3a_branch1
I0529 15:55:54.944519 28727 net.cpp:425] bn3a_branch1 <- res3a_branch1
I0529 15:55:54.944524 28727 net.cpp:386] bn3a_branch1 -> res3a_branch1 (in-place)
I0529 15:55:54.945111 28727 net.cpp:141] Setting up bn3a_branch1
I0529 15:55:54.945122 28727 net.cpp:148] Top shape: 1 512 28 28 (401408)
I0529 15:55:54.945124 28727 net.cpp:156] Memory required for data: 115404804
I0529 15:55:54.945132 28727 layer_factory.hpp:77] Creating layer scale3a_branch1
I0529 15:55:54.945138 28727 net.cpp:91] Creating Layer scale3a_branch1
I0529 15:55:54.945142 28727 net.cpp:425] scale3a_branch1 <- res3a_branch1
I0529 15:55:54.945145 28727 net.cpp:386] scale3a_branch1 -> res3a_branch1 (in-place)
I0529 15:55:54.945183 28727 layer_factory.hpp:77] Creating layer scale3a_branch1
I0529 15:55:54.945276 28727 net.cpp:141] Setting up scale3a_branch1
I0529 15:55:54.945282 28727 net.cpp:148] Top shape: 1 512 28 28 (401408)
I0529 15:55:54.945286 28727 net.cpp:156] Memory required for data: 117010436
I0529 15:55:54.945291 28727 layer_factory.hpp:77] Creating layer res3a_branch2a
I0529 15:55:54.945297 28727 net.cpp:91] Creating Layer res3a_branch2a
I0529 15:55:54.945302 28727 net.cpp:425] res3a_branch2a <- res2c_res2c_relu_0_split_1
I0529 15:55:54.945317 28727 net.cpp:399] res3a_branch2a -> res3a_branch2a
I0529 15:55:54.946228 28727 net.cpp:141] Setting up res3a_branch2a
I0529 15:55:54.946240 28727 net.cpp:148] Top shape: 1 128 28 28 (100352)
I0529 15:55:54.946244 28727 net.cpp:156] Memory required for data: 117411844
I0529 15:55:54.946247 28727 layer_factory.hpp:77] Creating layer bn3a_branch2a
I0529 15:55:54.946254 28727 net.cpp:91] Creating Layer bn3a_branch2a
I0529 15:55:54.946256 28727 net.cpp:425] bn3a_branch2a <- res3a_branch2a
I0529 15:55:54.946262 28727 net.cpp:386] bn3a_branch2a -> res3a_branch2a (in-place)
I0529 15:55:54.946424 28727 net.cpp:141] Setting up bn3a_branch2a
I0529 15:55:54.946432 28727 net.cpp:148] Top shape: 1 128 28 28 (100352)
I0529 15:55:54.946434 28727 net.cpp:156] Memory required for data: 117813252
I0529 15:55:54.946441 28727 layer_factory.hpp:77] Creating layer scale3a_branch2a
I0529 15:55:54.946446 28727 net.cpp:91] Creating Layer scale3a_branch2a
I0529 15:55:54.946449 28727 net.cpp:425] scale3a_branch2a <- res3a_branch2a
I0529 15:55:54.946454 28727 net.cpp:386] scale3a_branch2a -> res3a_branch2a (in-place)
I0529 15:55:54.946486 28727 layer_factory.hpp:77] Creating layer scale3a_branch2a
I0529 15:55:54.946578 28727 net.cpp:141] Setting up scale3a_branch2a
I0529 15:55:54.946585 28727 net.cpp:148] Top shape: 1 128 28 28 (100352)
I0529 15:55:54.946588 28727 net.cpp:156] Memory required for data: 118214660
I0529 15:55:54.946593 28727 layer_factory.hpp:77] Creating layer res3a_branch2a_relu
I0529 15:55:54.946597 28727 net.cpp:91] Creating Layer res3a_branch2a_relu
I0529 15:55:54.946600 28727 net.cpp:425] res3a_branch2a_relu <- res3a_branch2a
I0529 15:55:54.946604 28727 net.cpp:386] res3a_branch2a_relu -> res3a_branch2a (in-place)
I0529 15:55:54.946882 28727 net.cpp:141] Setting up res3a_branch2a_relu
I0529 15:55:54.946893 28727 net.cpp:148] Top shape: 1 128 28 28 (100352)
I0529 15:55:54.946897 28727 net.cpp:156] Memory required for data: 118616068
I0529 15:55:54.946899 28727 layer_factory.hpp:77] Creating layer res3a_branch2b
I0529 15:55:54.946909 28727 net.cpp:91] Creating Layer res3a_branch2b
I0529 15:55:54.946913 28727 net.cpp:425] res3a_branch2b <- res3a_branch2a
I0529 15:55:54.946918 28727 net.cpp:399] res3a_branch2b -> res3a_branch2b
I0529 15:55:54.948185 28727 net.cpp:141] Setting up res3a_branch2b
I0529 15:55:54.948199 28727 net.cpp:148] Top shape: 1 128 28 28 (100352)
I0529 15:55:54.948201 28727 net.cpp:156] Memory required for data: 119017476
I0529 15:55:54.948206 28727 layer_factory.hpp:77] Creating layer bn3a_branch2b
I0529 15:55:54.948213 28727 net.cpp:91] Creating Layer bn3a_branch2b
I0529 15:55:54.948216 28727 net.cpp:425] bn3a_branch2b <- res3a_branch2b
I0529 15:55:54.948220 28727 net.cpp:386] bn3a_branch2b -> res3a_branch2b (in-place)
I0529 15:55:54.948381 28727 net.cpp:141] Setting up bn3a_branch2b
I0529 15:55:54.948388 28727 net.cpp:148] Top shape: 1 128 28 28 (100352)
I0529 15:55:54.948391 28727 net.cpp:156] Memory required for data: 119418884
I0529 15:55:54.948397 28727 layer_factory.hpp:77] Creating layer scale3a_branch2b
I0529 15:55:54.948402 28727 net.cpp:91] Creating Layer scale3a_branch2b
I0529 15:55:54.948405 28727 net.cpp:425] scale3a_branch2b <- res3a_branch2b
I0529 15:55:54.948410 28727 net.cpp:386] scale3a_branch2b -> res3a_branch2b (in-place)
I0529 15:55:54.948442 28727 layer_factory.hpp:77] Creating layer scale3a_branch2b
I0529 15:55:54.948537 28727 net.cpp:141] Setting up scale3a_branch2b
I0529 15:55:54.948545 28727 net.cpp:148] Top shape: 1 128 28 28 (100352)
I0529 15:55:54.948547 28727 net.cpp:156] Memory required for data: 119820292
I0529 15:55:54.948552 28727 layer_factory.hpp:77] Creating layer res3a_branch2b_relu
I0529 15:55:54.948557 28727 net.cpp:91] Creating Layer res3a_branch2b_relu
I0529 15:55:54.948559 28727 net.cpp:425] res3a_branch2b_relu <- res3a_branch2b
I0529 15:55:54.948564 28727 net.cpp:386] res3a_branch2b_relu -> res3a_branch2b (in-place)
I0529 15:55:54.948851 28727 net.cpp:141] Setting up res3a_branch2b_relu
I0529 15:55:54.948863 28727 net.cpp:148] Top shape: 1 128 28 28 (100352)
I0529 15:55:54.948878 28727 net.cpp:156] Memory required for data: 120221700
I0529 15:55:54.948880 28727 layer_factory.hpp:77] Creating layer res3a_branch2c
I0529 15:55:54.948887 28727 net.cpp:91] Creating Layer res3a_branch2c
I0529 15:55:54.948890 28727 net.cpp:425] res3a_branch2c <- res3a_branch2b
I0529 15:55:54.948896 28727 net.cpp:399] res3a_branch2c -> res3a_branch2c
I0529 15:55:54.949826 28727 net.cpp:141] Setting up res3a_branch2c
I0529 15:55:54.949839 28727 net.cpp:148] Top shape: 1 512 28 28 (401408)
I0529 15:55:54.949841 28727 net.cpp:156] Memory required for data: 121827332
I0529 15:55:54.949846 28727 layer_factory.hpp:77] Creating layer bn3a_branch2c
I0529 15:55:54.949857 28727 net.cpp:91] Creating Layer bn3a_branch2c
I0529 15:55:54.949861 28727 net.cpp:425] bn3a_branch2c <- res3a_branch2c
I0529 15:55:54.949865 28727 net.cpp:386] bn3a_branch2c -> res3a_branch2c (in-place)
I0529 15:55:54.950029 28727 net.cpp:141] Setting up bn3a_branch2c
I0529 15:55:54.950037 28727 net.cpp:148] Top shape: 1 512 28 28 (401408)
I0529 15:55:54.950039 28727 net.cpp:156] Memory required for data: 123432964
I0529 15:55:54.950047 28727 layer_factory.hpp:77] Creating layer scale3a_branch2c
I0529 15:55:54.950052 28727 net.cpp:91] Creating Layer scale3a_branch2c
I0529 15:55:54.950054 28727 net.cpp:425] scale3a_branch2c <- res3a_branch2c
I0529 15:55:54.950057 28727 net.cpp:386] scale3a_branch2c -> res3a_branch2c (in-place)
I0529 15:55:54.950109 28727 layer_factory.hpp:77] Creating layer scale3a_branch2c
I0529 15:55:54.950201 28727 net.cpp:141] Setting up scale3a_branch2c
I0529 15:55:54.950207 28727 net.cpp:148] Top shape: 1 512 28 28 (401408)
I0529 15:55:54.950211 28727 net.cpp:156] Memory required for data: 125038596
I0529 15:55:54.950215 28727 layer_factory.hpp:77] Creating layer res3a
I0529 15:55:54.950219 28727 net.cpp:91] Creating Layer res3a
I0529 15:55:54.950222 28727 net.cpp:425] res3a <- res3a_branch1
I0529 15:55:54.950225 28727 net.cpp:425] res3a <- res3a_branch2c
I0529 15:55:54.950232 28727 net.cpp:399] res3a -> res3a
I0529 15:55:54.950253 28727 net.cpp:141] Setting up res3a
I0529 15:55:54.950258 28727 net.cpp:148] Top shape: 1 512 28 28 (401408)
I0529 15:55:54.950259 28727 net.cpp:156] Memory required for data: 126644228
I0529 15:55:54.950263 28727 layer_factory.hpp:77] Creating layer res3a_relu
I0529 15:55:54.950268 28727 net.cpp:91] Creating Layer res3a_relu
I0529 15:55:54.950270 28727 net.cpp:425] res3a_relu <- res3a
I0529 15:55:54.950273 28727 net.cpp:386] res3a_relu -> res3a (in-place)
I0529 15:55:54.950436 28727 net.cpp:141] Setting up res3a_relu
I0529 15:55:54.950445 28727 net.cpp:148] Top shape: 1 512 28 28 (401408)
I0529 15:55:54.950448 28727 net.cpp:156] Memory required for data: 128249860
I0529 15:55:54.950451 28727 layer_factory.hpp:77] Creating layer res3a_res3a_relu_0_split
I0529 15:55:54.950456 28727 net.cpp:91] Creating Layer res3a_res3a_relu_0_split
I0529 15:55:54.950459 28727 net.cpp:425] res3a_res3a_relu_0_split <- res3a
I0529 15:55:54.950464 28727 net.cpp:399] res3a_res3a_relu_0_split -> res3a_res3a_relu_0_split_0
I0529 15:55:54.950469 28727 net.cpp:399] res3a_res3a_relu_0_split -> res3a_res3a_relu_0_split_1
I0529 15:55:54.950505 28727 net.cpp:141] Setting up res3a_res3a_relu_0_split
I0529 15:55:54.950511 28727 net.cpp:148] Top shape: 1 512 28 28 (401408)
I0529 15:55:54.950515 28727 net.cpp:148] Top shape: 1 512 28 28 (401408)
I0529 15:55:54.950516 28727 net.cpp:156] Memory required for data: 131461124
I0529 15:55:54.950520 28727 layer_factory.hpp:77] Creating layer res3b_branch2a
I0529 15:55:54.950527 28727 net.cpp:91] Creating Layer res3b_branch2a
I0529 15:55:54.950531 28727 net.cpp:425] res3b_branch2a <- res3a_res3a_relu_0_split_0
I0529 15:55:54.950534 28727 net.cpp:399] res3b_branch2a -> res3b_branch2a
I0529 15:55:54.951866 28727 net.cpp:141] Setting up res3b_branch2a
I0529 15:55:54.951879 28727 net.cpp:148] Top shape: 1 128 28 28 (100352)
I0529 15:55:54.951882 28727 net.cpp:156] Memory required for data: 131862532
I0529 15:55:54.951886 28727 layer_factory.hpp:77] Creating layer bn3b_branch2a
I0529 15:55:54.951905 28727 net.cpp:91] Creating Layer bn3b_branch2a
I0529 15:55:54.951907 28727 net.cpp:425] bn3b_branch2a <- res3b_branch2a
I0529 15:55:54.951911 28727 net.cpp:386] bn3b_branch2a -> res3b_branch2a (in-place)
I0529 15:55:54.952082 28727 net.cpp:141] Setting up bn3b_branch2a
I0529 15:55:54.952090 28727 net.cpp:148] Top shape: 1 128 28 28 (100352)
I0529 15:55:54.952093 28727 net.cpp:156] Memory required for data: 132263940
I0529 15:55:54.952100 28727 layer_factory.hpp:77] Creating layer scale3b_branch2a
I0529 15:55:54.952106 28727 net.cpp:91] Creating Layer scale3b_branch2a
I0529 15:55:54.952110 28727 net.cpp:425] scale3b_branch2a <- res3b_branch2a
I0529 15:55:54.952113 28727 net.cpp:386] scale3b_branch2a -> res3b_branch2a (in-place)
I0529 15:55:54.952148 28727 layer_factory.hpp:77] Creating layer scale3b_branch2a
I0529 15:55:54.952245 28727 net.cpp:141] Setting up scale3b_branch2a
I0529 15:55:54.952252 28727 net.cpp:148] Top shape: 1 128 28 28 (100352)
I0529 15:55:54.952255 28727 net.cpp:156] Memory required for data: 132665348
I0529 15:55:54.952260 28727 layer_factory.hpp:77] Creating layer res3b_branch2a_relu
I0529 15:55:54.952267 28727 net.cpp:91] Creating Layer res3b_branch2a_relu
I0529 15:55:54.952270 28727 net.cpp:425] res3b_branch2a_relu <- res3b_branch2a
I0529 15:55:54.952273 28727 net.cpp:386] res3b_branch2a_relu -> res3b_branch2a (in-place)
I0529 15:55:54.952558 28727 net.cpp:141] Setting up res3b_branch2a_relu
I0529 15:55:54.952569 28727 net.cpp:148] Top shape: 1 128 28 28 (100352)
I0529 15:55:54.952572 28727 net.cpp:156] Memory required for data: 133066756
I0529 15:55:54.952575 28727 layer_factory.hpp:77] Creating layer res3b_branch2b
I0529 15:55:54.952584 28727 net.cpp:91] Creating Layer res3b_branch2b
I0529 15:55:54.952587 28727 net.cpp:425] res3b_branch2b <- res3b_branch2a
I0529 15:55:54.952591 28727 net.cpp:399] res3b_branch2b -> res3b_branch2b
I0529 15:55:54.953869 28727 net.cpp:141] Setting up res3b_branch2b
I0529 15:55:54.953882 28727 net.cpp:148] Top shape: 1 128 28 28 (100352)
I0529 15:55:54.953884 28727 net.cpp:156] Memory required for data: 133468164
I0529 15:55:54.953889 28727 layer_factory.hpp:77] Creating layer bn3b_branch2b
I0529 15:55:54.953896 28727 net.cpp:91] Creating Layer bn3b_branch2b
I0529 15:55:54.953898 28727 net.cpp:425] bn3b_branch2b <- res3b_branch2b
I0529 15:55:54.953904 28727 net.cpp:386] bn3b_branch2b -> res3b_branch2b (in-place)
I0529 15:55:54.954082 28727 net.cpp:141] Setting up bn3b_branch2b
I0529 15:55:54.954089 28727 net.cpp:148] Top shape: 1 128 28 28 (100352)
I0529 15:55:54.954092 28727 net.cpp:156] Memory required for data: 133869572
I0529 15:55:54.954098 28727 layer_factory.hpp:77] Creating layer scale3b_branch2b
I0529 15:55:54.954103 28727 net.cpp:91] Creating Layer scale3b_branch2b
I0529 15:55:54.954107 28727 net.cpp:425] scale3b_branch2b <- res3b_branch2b
I0529 15:55:54.954110 28727 net.cpp:386] scale3b_branch2b -> res3b_branch2b (in-place)
I0529 15:55:54.954146 28727 layer_factory.hpp:77] Creating layer scale3b_branch2b
I0529 15:55:54.954246 28727 net.cpp:141] Setting up scale3b_branch2b
I0529 15:55:54.954253 28727 net.cpp:148] Top shape: 1 128 28 28 (100352)
I0529 15:55:54.954257 28727 net.cpp:156] Memory required for data: 134270980
I0529 15:55:54.954260 28727 layer_factory.hpp:77] Creating layer res3b_branch2b_relu
I0529 15:55:54.954265 28727 net.cpp:91] Creating Layer res3b_branch2b_relu
I0529 15:55:54.954268 28727 net.cpp:425] res3b_branch2b_relu <- res3b_branch2b
I0529 15:55:54.954272 28727 net.cpp:386] res3b_branch2b_relu -> res3b_branch2b (in-place)
I0529 15:55:54.954656 28727 net.cpp:141] Setting up res3b_branch2b_relu
I0529 15:55:54.954668 28727 net.cpp:148] Top shape: 1 128 28 28 (100352)
I0529 15:55:54.954671 28727 net.cpp:156] Memory required for data: 134672388
I0529 15:55:54.954674 28727 layer_factory.hpp:77] Creating layer res3b_branch2c
I0529 15:55:54.954682 28727 net.cpp:91] Creating Layer res3b_branch2c
I0529 15:55:54.954685 28727 net.cpp:425] res3b_branch2c <- res3b_branch2b
I0529 15:55:54.954690 28727 net.cpp:399] res3b_branch2c -> res3b_branch2c
I0529 15:55:54.955639 28727 net.cpp:141] Setting up res3b_branch2c
I0529 15:55:54.955651 28727 net.cpp:148] Top shape: 1 512 28 28 (401408)
I0529 15:55:54.955654 28727 net.cpp:156] Memory required for data: 136278020
I0529 15:55:54.955659 28727 layer_factory.hpp:77] Creating layer bn3b_branch2c
I0529 15:55:54.955667 28727 net.cpp:91] Creating Layer bn3b_branch2c
I0529 15:55:54.955669 28727 net.cpp:425] bn3b_branch2c <- res3b_branch2c
I0529 15:55:54.955674 28727 net.cpp:386] bn3b_branch2c -> res3b_branch2c (in-place)
I0529 15:55:54.955842 28727 net.cpp:141] Setting up bn3b_branch2c
I0529 15:55:54.955848 28727 net.cpp:148] Top shape: 1 512 28 28 (401408)
I0529 15:55:54.955852 28727 net.cpp:156] Memory required for data: 137883652
I0529 15:55:54.955857 28727 layer_factory.hpp:77] Creating layer scale3b_branch2c
I0529 15:55:54.955862 28727 net.cpp:91] Creating Layer scale3b_branch2c
I0529 15:55:54.955865 28727 net.cpp:425] scale3b_branch2c <- res3b_branch2c
I0529 15:55:54.955871 28727 net.cpp:386] scale3b_branch2c -> res3b_branch2c (in-place)
I0529 15:55:54.955909 28727 layer_factory.hpp:77] Creating layer scale3b_branch2c
I0529 15:55:54.956007 28727 net.cpp:141] Setting up scale3b_branch2c
I0529 15:55:54.956014 28727 net.cpp:148] Top shape: 1 512 28 28 (401408)
I0529 15:55:54.956017 28727 net.cpp:156] Memory required for data: 139489284
I0529 15:55:54.956022 28727 layer_factory.hpp:77] Creating layer res3b
I0529 15:55:54.956027 28727 net.cpp:91] Creating Layer res3b
I0529 15:55:54.956029 28727 net.cpp:425] res3b <- res3a_res3a_relu_0_split_1
I0529 15:55:54.956032 28727 net.cpp:425] res3b <- res3b_branch2c
I0529 15:55:54.956037 28727 net.cpp:399] res3b -> res3b
I0529 15:55:54.956059 28727 net.cpp:141] Setting up res3b
I0529 15:55:54.956064 28727 net.cpp:148] Top shape: 1 512 28 28 (401408)
I0529 15:55:54.956068 28727 net.cpp:156] Memory required for data: 141094916
I0529 15:55:54.956070 28727 layer_factory.hpp:77] Creating layer res3b_relu
I0529 15:55:54.956074 28727 net.cpp:91] Creating Layer res3b_relu
I0529 15:55:54.956078 28727 net.cpp:425] res3b_relu <- res3b
I0529 15:55:54.956080 28727 net.cpp:386] res3b_relu -> res3b (in-place)
I0529 15:55:54.956233 28727 net.cpp:141] Setting up res3b_relu
I0529 15:55:54.956241 28727 net.cpp:148] Top shape: 1 512 28 28 (401408)
I0529 15:55:54.956244 28727 net.cpp:156] Memory required for data: 142700548
I0529 15:55:54.956248 28727 layer_factory.hpp:77] Creating layer res3b_res3b_relu_0_split
I0529 15:55:54.956251 28727 net.cpp:91] Creating Layer res3b_res3b_relu_0_split
I0529 15:55:54.956254 28727 net.cpp:425] res3b_res3b_relu_0_split <- res3b
I0529 15:55:54.956260 28727 net.cpp:399] res3b_res3b_relu_0_split -> res3b_res3b_relu_0_split_0
I0529 15:55:54.956265 28727 net.cpp:399] res3b_res3b_relu_0_split -> res3b_res3b_relu_0_split_1
I0529 15:55:54.956302 28727 net.cpp:141] Setting up res3b_res3b_relu_0_split
I0529 15:55:54.956310 28727 net.cpp:148] Top shape: 1 512 28 28 (401408)
I0529 15:55:54.956313 28727 net.cpp:148] Top shape: 1 512 28 28 (401408)
I0529 15:55:54.956315 28727 net.cpp:156] Memory required for data: 145911812
I0529 15:55:54.956318 28727 layer_factory.hpp:77] Creating layer res3c_branch2a
I0529 15:55:54.956323 28727 net.cpp:91] Creating Layer res3c_branch2a
I0529 15:55:54.956327 28727 net.cpp:425] res3c_branch2a <- res3b_res3b_relu_0_split_0
I0529 15:55:54.956332 28727 net.cpp:399] res3c_branch2a -> res3c_branch2a
I0529 15:55:54.958093 28727 net.cpp:141] Setting up res3c_branch2a
I0529 15:55:54.958106 28727 net.cpp:148] Top shape: 1 128 28 28 (100352)
I0529 15:55:54.958112 28727 net.cpp:156] Memory required for data: 146313220
I0529 15:55:54.958117 28727 layer_factory.hpp:77] Creating layer bn3c_branch2a
I0529 15:55:54.958122 28727 net.cpp:91] Creating Layer bn3c_branch2a
I0529 15:55:54.958125 28727 net.cpp:425] bn3c_branch2a <- res3c_branch2a
I0529 15:55:54.958129 28727 net.cpp:386] bn3c_branch2a -> res3c_branch2a (in-place)
I0529 15:55:54.958302 28727 net.cpp:141] Setting up bn3c_branch2a
I0529 15:55:54.958309 28727 net.cpp:148] Top shape: 1 128 28 28 (100352)
I0529 15:55:54.958323 28727 net.cpp:156] Memory required for data: 146714628
I0529 15:55:54.958328 28727 layer_factory.hpp:77] Creating layer scale3c_branch2a
I0529 15:55:54.958334 28727 net.cpp:91] Creating Layer scale3c_branch2a
I0529 15:55:54.958338 28727 net.cpp:425] scale3c_branch2a <- res3c_branch2a
I0529 15:55:54.958341 28727 net.cpp:386] scale3c_branch2a -> res3c_branch2a (in-place)
I0529 15:55:54.958384 28727 layer_factory.hpp:77] Creating layer scale3c_branch2a
I0529 15:55:54.958484 28727 net.cpp:141] Setting up scale3c_branch2a
I0529 15:55:54.958492 28727 net.cpp:148] Top shape: 1 128 28 28 (100352)
I0529 15:55:54.958493 28727 net.cpp:156] Memory required for data: 147116036
I0529 15:55:54.958498 28727 layer_factory.hpp:77] Creating layer res3c_branch2a_relu
I0529 15:55:54.958503 28727 net.cpp:91] Creating Layer res3c_branch2a_relu
I0529 15:55:54.958506 28727 net.cpp:425] res3c_branch2a_relu <- res3c_branch2a
I0529 15:55:54.958510 28727 net.cpp:386] res3c_branch2a_relu -> res3c_branch2a (in-place)
I0529 15:55:54.958861 28727 net.cpp:141] Setting up res3c_branch2a_relu
I0529 15:55:54.958873 28727 net.cpp:148] Top shape: 1 128 28 28 (100352)
I0529 15:55:54.958876 28727 net.cpp:156] Memory required for data: 147517444
I0529 15:55:54.958879 28727 layer_factory.hpp:77] Creating layer res3c_branch2b
I0529 15:55:54.958887 28727 net.cpp:91] Creating Layer res3c_branch2b
I0529 15:55:54.958891 28727 net.cpp:425] res3c_branch2b <- res3c_branch2a
I0529 15:55:54.958895 28727 net.cpp:399] res3c_branch2b -> res3c_branch2b
I0529 15:55:54.960191 28727 net.cpp:141] Setting up res3c_branch2b
I0529 15:55:54.960203 28727 net.cpp:148] Top shape: 1 128 28 28 (100352)
I0529 15:55:54.960206 28727 net.cpp:156] Memory required for data: 147918852
I0529 15:55:54.960211 28727 layer_factory.hpp:77] Creating layer bn3c_branch2b
I0529 15:55:54.960217 28727 net.cpp:91] Creating Layer bn3c_branch2b
I0529 15:55:54.960222 28727 net.cpp:425] bn3c_branch2b <- res3c_branch2b
I0529 15:55:54.960225 28727 net.cpp:386] bn3c_branch2b -> res3c_branch2b (in-place)
I0529 15:55:54.960402 28727 net.cpp:141] Setting up bn3c_branch2b
I0529 15:55:54.960409 28727 net.cpp:148] Top shape: 1 128 28 28 (100352)
I0529 15:55:54.960412 28727 net.cpp:156] Memory required for data: 148320260
I0529 15:55:54.960418 28727 layer_factory.hpp:77] Creating layer scale3c_branch2b
I0529 15:55:54.960423 28727 net.cpp:91] Creating Layer scale3c_branch2b
I0529 15:55:54.960427 28727 net.cpp:425] scale3c_branch2b <- res3c_branch2b
I0529 15:55:54.960432 28727 net.cpp:386] scale3c_branch2b -> res3c_branch2b (in-place)
I0529 15:55:54.960466 28727 layer_factory.hpp:77] Creating layer scale3c_branch2b
I0529 15:55:54.960567 28727 net.cpp:141] Setting up scale3c_branch2b
I0529 15:55:54.960575 28727 net.cpp:148] Top shape: 1 128 28 28 (100352)
I0529 15:55:54.960578 28727 net.cpp:156] Memory required for data: 148721668
I0529 15:55:54.960583 28727 layer_factory.hpp:77] Creating layer res3c_branch2b_relu
I0529 15:55:54.960587 28727 net.cpp:91] Creating Layer res3c_branch2b_relu
I0529 15:55:54.960590 28727 net.cpp:425] res3c_branch2b_relu <- res3c_branch2b
I0529 15:55:54.960593 28727 net.cpp:386] res3c_branch2b_relu -> res3c_branch2b (in-place)
I0529 15:55:54.961194 28727 net.cpp:141] Setting up res3c_branch2b_relu
I0529 15:55:54.961227 28727 net.cpp:148] Top shape: 1 128 28 28 (100352)
I0529 15:55:54.961236 28727 net.cpp:156] Memory required for data: 149123076
I0529 15:55:54.961242 28727 layer_factory.hpp:77] Creating layer res3c_branch2c
I0529 15:55:54.961266 28727 net.cpp:91] Creating Layer res3c_branch2c
I0529 15:55:54.961273 28727 net.cpp:425] res3c_branch2c <- res3c_branch2b
I0529 15:55:54.961290 28727 net.cpp:399] res3c_branch2c -> res3c_branch2c
I0529 15:55:54.963371 28727 net.cpp:141] Setting up res3c_branch2c
I0529 15:55:54.963398 28727 net.cpp:148] Top shape: 1 512 28 28 (401408)
I0529 15:55:54.963405 28727 net.cpp:156] Memory required for data: 150728708
I0529 15:55:54.963418 28727 layer_factory.hpp:77] Creating layer bn3c_branch2c
I0529 15:55:54.963433 28727 net.cpp:91] Creating Layer bn3c_branch2c
I0529 15:55:54.963469 28727 net.cpp:425] bn3c_branch2c <- res3c_branch2c
I0529 15:55:54.963484 28727 net.cpp:386] bn3c_branch2c -> res3c_branch2c (in-place)
I0529 15:55:54.963896 28727 net.cpp:141] Setting up bn3c_branch2c
I0529 15:55:54.963912 28727 net.cpp:148] Top shape: 1 512 28 28 (401408)
I0529 15:55:54.963917 28727 net.cpp:156] Memory required for data: 152334340
I0529 15:55:54.963932 28727 layer_factory.hpp:77] Creating layer scale3c_branch2c
I0529 15:55:54.963943 28727 net.cpp:91] Creating Layer scale3c_branch2c
I0529 15:55:54.963950 28727 net.cpp:425] scale3c_branch2c <- res3c_branch2c
I0529 15:55:54.963961 28727 net.cpp:386] scale3c_branch2c -> res3c_branch2c (in-place)
I0529 15:55:54.964041 28727 layer_factory.hpp:77] Creating layer scale3c_branch2c
I0529 15:55:54.964272 28727 net.cpp:141] Setting up scale3c_branch2c
I0529 15:55:54.964284 28727 net.cpp:148] Top shape: 1 512 28 28 (401408)
I0529 15:55:54.964290 28727 net.cpp:156] Memory required for data: 153939972
I0529 15:55:54.964301 28727 layer_factory.hpp:77] Creating layer res3c
I0529 15:55:54.964311 28727 net.cpp:91] Creating Layer res3c
I0529 15:55:54.964318 28727 net.cpp:425] res3c <- res3b_res3b_relu_0_split_1
I0529 15:55:54.964326 28727 net.cpp:425] res3c <- res3c_branch2c
I0529 15:55:54.964335 28727 net.cpp:399] res3c -> res3c
I0529 15:55:54.964385 28727 net.cpp:141] Setting up res3c
I0529 15:55:54.964398 28727 net.cpp:148] Top shape: 1 512 28 28 (401408)
I0529 15:55:54.964407 28727 net.cpp:156] Memory required for data: 155545604
I0529 15:55:54.964413 28727 layer_factory.hpp:77] Creating layer res3c_relu
I0529 15:55:54.964421 28727 net.cpp:91] Creating Layer res3c_relu
I0529 15:55:54.964428 28727 net.cpp:425] res3c_relu <- res3c
I0529 15:55:54.964437 28727 net.cpp:386] res3c_relu -> res3c (in-place)
I0529 15:55:54.964794 28727 net.cpp:141] Setting up res3c_relu
I0529 15:55:54.964812 28727 net.cpp:148] Top shape: 1 512 28 28 (401408)
I0529 15:55:54.964818 28727 net.cpp:156] Memory required for data: 157151236
I0529 15:55:54.964823 28727 layer_factory.hpp:77] Creating layer res3c_res3c_relu_0_split
I0529 15:55:54.964833 28727 net.cpp:91] Creating Layer res3c_res3c_relu_0_split
I0529 15:55:54.964839 28727 net.cpp:425] res3c_res3c_relu_0_split <- res3c
I0529 15:55:54.964851 28727 net.cpp:399] res3c_res3c_relu_0_split -> res3c_res3c_relu_0_split_0
I0529 15:55:54.964862 28727 net.cpp:399] res3c_res3c_relu_0_split -> res3c_res3c_relu_0_split_1
I0529 15:55:54.964946 28727 net.cpp:141] Setting up res3c_res3c_relu_0_split
I0529 15:55:54.964961 28727 net.cpp:148] Top shape: 1 512 28 28 (401408)
I0529 15:55:54.964968 28727 net.cpp:148] Top shape: 1 512 28 28 (401408)
I0529 15:55:54.964973 28727 net.cpp:156] Memory required for data: 160362500
I0529 15:55:54.964980 28727 layer_factory.hpp:77] Creating layer res3d_branch2a
I0529 15:55:54.964993 28727 net.cpp:91] Creating Layer res3d_branch2a
I0529 15:55:54.965000 28727 net.cpp:425] res3d_branch2a <- res3c_res3c_relu_0_split_0
I0529 15:55:54.965011 28727 net.cpp:399] res3d_branch2a -> res3d_branch2a
I0529 15:55:54.968371 28727 net.cpp:141] Setting up res3d_branch2a
I0529 15:55:54.968408 28727 net.cpp:148] Top shape: 1 128 28 28 (100352)
I0529 15:55:54.968415 28727 net.cpp:156] Memory required for data: 160763908
I0529 15:55:54.968427 28727 layer_factory.hpp:77] Creating layer bn3d_branch2a
I0529 15:55:54.968444 28727 net.cpp:91] Creating Layer bn3d_branch2a
I0529 15:55:54.968452 28727 net.cpp:425] bn3d_branch2a <- res3d_branch2a
I0529 15:55:54.968462 28727 net.cpp:386] bn3d_branch2a -> res3d_branch2a (in-place)
I0529 15:55:54.968885 28727 net.cpp:141] Setting up bn3d_branch2a
I0529 15:55:54.968900 28727 net.cpp:148] Top shape: 1 128 28 28 (100352)
I0529 15:55:54.968906 28727 net.cpp:156] Memory required for data: 161165316
I0529 15:55:54.968955 28727 layer_factory.hpp:77] Creating layer scale3d_branch2a
I0529 15:55:54.968971 28727 net.cpp:91] Creating Layer scale3d_branch2a
I0529 15:55:54.968979 28727 net.cpp:425] scale3d_branch2a <- res3d_branch2a
I0529 15:55:54.968987 28727 net.cpp:386] scale3d_branch2a -> res3d_branch2a (in-place)
I0529 15:55:54.969116 28727 layer_factory.hpp:77] Creating layer scale3d_branch2a
I0529 15:55:54.969354 28727 net.cpp:141] Setting up scale3d_branch2a
I0529 15:55:54.969368 28727 net.cpp:148] Top shape: 1 128 28 28 (100352)
I0529 15:55:54.969374 28727 net.cpp:156] Memory required for data: 161566724
I0529 15:55:54.969386 28727 layer_factory.hpp:77] Creating layer res3d_branch2a_relu
I0529 15:55:54.969396 28727 net.cpp:91] Creating Layer res3d_branch2a_relu
I0529 15:55:54.969404 28727 net.cpp:425] res3d_branch2a_relu <- res3d_branch2a
I0529 15:55:54.969413 28727 net.cpp:386] res3d_branch2a_relu -> res3d_branch2a (in-place)
I0529 15:55:54.969998 28727 net.cpp:141] Setting up res3d_branch2a_relu
I0529 15:55:54.970022 28727 net.cpp:148] Top shape: 1 128 28 28 (100352)
I0529 15:55:54.970028 28727 net.cpp:156] Memory required for data: 161968132
I0529 15:55:54.970036 28727 layer_factory.hpp:77] Creating layer res3d_branch2b
I0529 15:55:54.970055 28727 net.cpp:91] Creating Layer res3d_branch2b
I0529 15:55:54.970085 28727 net.cpp:425] res3d_branch2b <- res3d_branch2a
I0529 15:55:54.970103 28727 net.cpp:399] res3d_branch2b -> res3d_branch2b
I0529 15:55:54.973093 28727 net.cpp:141] Setting up res3d_branch2b
I0529 15:55:54.973126 28727 net.cpp:148] Top shape: 1 128 28 28 (100352)
I0529 15:55:54.973137 28727 net.cpp:156] Memory required for data: 162369540
I0529 15:55:54.973155 28727 layer_factory.hpp:77] Creating layer bn3d_branch2b
I0529 15:55:54.973173 28727 net.cpp:91] Creating Layer bn3d_branch2b
I0529 15:55:54.973191 28727 net.cpp:425] bn3d_branch2b <- res3d_branch2b
I0529 15:55:54.973215 28727 net.cpp:386] bn3d_branch2b -> res3d_branch2b (in-place)
I0529 15:55:54.973664 28727 net.cpp:141] Setting up bn3d_branch2b
I0529 15:55:54.973685 28727 net.cpp:148] Top shape: 1 128 28 28 (100352)
I0529 15:55:54.973695 28727 net.cpp:156] Memory required for data: 162770948
I0529 15:55:54.973721 28727 layer_factory.hpp:77] Creating layer scale3d_branch2b
I0529 15:55:54.973742 28727 net.cpp:91] Creating Layer scale3d_branch2b
I0529 15:55:54.973758 28727 net.cpp:425] scale3d_branch2b <- res3d_branch2b
I0529 15:55:54.973769 28727 net.cpp:386] scale3d_branch2b -> res3d_branch2b (in-place)
I0529 15:55:54.973860 28727 layer_factory.hpp:77] Creating layer scale3d_branch2b
I0529 15:55:54.974128 28727 net.cpp:141] Setting up scale3d_branch2b
I0529 15:55:54.974143 28727 net.cpp:148] Top shape: 1 128 28 28 (100352)
I0529 15:55:54.974150 28727 net.cpp:156] Memory required for data: 163172356
I0529 15:55:54.974164 28727 layer_factory.hpp:77] Creating layer res3d_branch2b_relu
I0529 15:55:54.974176 28727 net.cpp:91] Creating Layer res3d_branch2b_relu
I0529 15:55:54.974185 28727 net.cpp:425] res3d_branch2b_relu <- res3d_branch2b
I0529 15:55:54.974196 28727 net.cpp:386] res3d_branch2b_relu -> res3d_branch2b (in-place)
I0529 15:55:54.974853 28727 net.cpp:141] Setting up res3d_branch2b_relu
I0529 15:55:54.974874 28727 net.cpp:148] Top shape: 1 128 28 28 (100352)
I0529 15:55:54.974880 28727 net.cpp:156] Memory required for data: 163573764
I0529 15:55:54.974887 28727 layer_factory.hpp:77] Creating layer res3d_branch2c
I0529 15:55:54.974903 28727 net.cpp:91] Creating Layer res3d_branch2c
I0529 15:55:54.974912 28727 net.cpp:425] res3d_branch2c <- res3d_branch2b
I0529 15:55:54.974923 28727 net.cpp:399] res3d_branch2c -> res3d_branch2c
I0529 15:55:54.976855 28727 net.cpp:141] Setting up res3d_branch2c
I0529 15:55:54.976878 28727 net.cpp:148] Top shape: 1 512 28 28 (401408)
I0529 15:55:54.976884 28727 net.cpp:156] Memory required for data: 165179396
I0529 15:55:54.976894 28727 layer_factory.hpp:77] Creating layer bn3d_branch2c
I0529 15:55:54.976908 28727 net.cpp:91] Creating Layer bn3d_branch2c
I0529 15:55:54.976922 28727 net.cpp:425] bn3d_branch2c <- res3d_branch2c
I0529 15:55:54.976936 28727 net.cpp:386] bn3d_branch2c -> res3d_branch2c (in-place)
I0529 15:55:54.977366 28727 net.cpp:141] Setting up bn3d_branch2c
I0529 15:55:54.977386 28727 net.cpp:148] Top shape: 1 512 28 28 (401408)
I0529 15:55:54.977396 28727 net.cpp:156] Memory required for data: 166785028
I0529 15:55:54.977443 28727 layer_factory.hpp:77] Creating layer scale3d_branch2c
I0529 15:55:54.977457 28727 net.cpp:91] Creating Layer scale3d_branch2c
I0529 15:55:54.977463 28727 net.cpp:425] scale3d_branch2c <- res3d_branch2c
I0529 15:55:54.977476 28727 net.cpp:386] scale3d_branch2c -> res3d_branch2c (in-place)
I0529 15:55:54.977563 28727 layer_factory.hpp:77] Creating layer scale3d_branch2c
I0529 15:55:54.977783 28727 net.cpp:141] Setting up scale3d_branch2c
I0529 15:55:54.977797 28727 net.cpp:148] Top shape: 1 512 28 28 (401408)
I0529 15:55:54.977807 28727 net.cpp:156] Memory required for data: 168390660
I0529 15:55:54.977818 28727 layer_factory.hpp:77] Creating layer res3d
I0529 15:55:54.977828 28727 net.cpp:91] Creating Layer res3d
I0529 15:55:54.977834 28727 net.cpp:425] res3d <- res3c_res3c_relu_0_split_1
I0529 15:55:54.977841 28727 net.cpp:425] res3d <- res3d_branch2c
I0529 15:55:54.977850 28727 net.cpp:399] res3d -> res3d
I0529 15:55:54.977902 28727 net.cpp:141] Setting up res3d
I0529 15:55:54.977916 28727 net.cpp:148] Top shape: 1 512 28 28 (401408)
I0529 15:55:54.977922 28727 net.cpp:156] Memory required for data: 169996292
I0529 15:55:54.977928 28727 layer_factory.hpp:77] Creating layer res3d_relu
I0529 15:55:54.977941 28727 net.cpp:91] Creating Layer res3d_relu
I0529 15:55:54.977948 28727 net.cpp:425] res3d_relu <- res3d
I0529 15:55:54.977957 28727 net.cpp:386] res3d_relu -> res3d (in-place)
I0529 15:55:54.978317 28727 net.cpp:141] Setting up res3d_relu
I0529 15:55:54.978338 28727 net.cpp:148] Top shape: 1 512 28 28 (401408)
I0529 15:55:54.978343 28727 net.cpp:156] Memory required for data: 171601924
I0529 15:55:54.978349 28727 layer_factory.hpp:77] Creating layer res3d_res3d_relu_0_split
I0529 15:55:54.978361 28727 net.cpp:91] Creating Layer res3d_res3d_relu_0_split
I0529 15:55:54.978369 28727 net.cpp:425] res3d_res3d_relu_0_split <- res3d
I0529 15:55:54.978382 28727 net.cpp:399] res3d_res3d_relu_0_split -> res3d_res3d_relu_0_split_0
I0529 15:55:54.978395 28727 net.cpp:399] res3d_res3d_relu_0_split -> res3d_res3d_relu_0_split_1
I0529 15:55:54.978480 28727 net.cpp:141] Setting up res3d_res3d_relu_0_split
I0529 15:55:54.978492 28727 net.cpp:148] Top shape: 1 512 28 28 (401408)
I0529 15:55:54.978502 28727 net.cpp:148] Top shape: 1 512 28 28 (401408)
I0529 15:55:54.978507 28727 net.cpp:156] Memory required for data: 174813188
I0529 15:55:54.978513 28727 layer_factory.hpp:77] Creating layer res4a_branch1
I0529 15:55:54.978524 28727 net.cpp:91] Creating Layer res4a_branch1
I0529 15:55:54.978536 28727 net.cpp:425] res4a_branch1 <- res3d_res3d_relu_0_split_0
I0529 15:55:54.978548 28727 net.cpp:399] res4a_branch1 -> res4a_branch1
I0529 15:55:54.982429 28727 net.cpp:141] Setting up res4a_branch1
I0529 15:55:54.982455 28727 net.cpp:148] Top shape: 1 1024 14 14 (200704)
I0529 15:55:54.982462 28727 net.cpp:156] Memory required for data: 175616004
I0529 15:55:54.982472 28727 layer_factory.hpp:77] Creating layer bn4a_branch1
I0529 15:55:54.982484 28727 net.cpp:91] Creating Layer bn4a_branch1
I0529 15:55:54.982494 28727 net.cpp:425] bn4a_branch1 <- res4a_branch1
I0529 15:55:54.982507 28727 net.cpp:386] bn4a_branch1 -> res4a_branch1 (in-place)
I0529 15:55:54.982933 28727 net.cpp:141] Setting up bn4a_branch1
I0529 15:55:54.982946 28727 net.cpp:148] Top shape: 1 1024 14 14 (200704)
I0529 15:55:54.982952 28727 net.cpp:156] Memory required for data: 176418820
I0529 15:55:54.982966 28727 layer_factory.hpp:77] Creating layer scale4a_branch1
I0529 15:55:54.982978 28727 net.cpp:91] Creating Layer scale4a_branch1
I0529 15:55:54.982986 28727 net.cpp:425] scale4a_branch1 <- res4a_branch1
I0529 15:55:54.982995 28727 net.cpp:386] scale4a_branch1 -> res4a_branch1 (in-place)
I0529 15:55:54.983068 28727 layer_factory.hpp:77] Creating layer scale4a_branch1
I0529 15:55:54.983299 28727 net.cpp:141] Setting up scale4a_branch1
I0529 15:55:54.983314 28727 net.cpp:148] Top shape: 1 1024 14 14 (200704)
I0529 15:55:54.983319 28727 net.cpp:156] Memory required for data: 177221636
I0529 15:55:54.983330 28727 layer_factory.hpp:77] Creating layer res4a_branch2a
I0529 15:55:54.983366 28727 net.cpp:91] Creating Layer res4a_branch2a
I0529 15:55:54.983374 28727 net.cpp:425] res4a_branch2a <- res3d_res3d_relu_0_split_1
I0529 15:55:54.983386 28727 net.cpp:399] res4a_branch2a -> res4a_branch2a
I0529 15:55:54.985425 28727 net.cpp:141] Setting up res4a_branch2a
I0529 15:55:54.985450 28727 net.cpp:148] Top shape: 1 256 14 14 (50176)
I0529 15:55:54.985456 28727 net.cpp:156] Memory required for data: 177422340
I0529 15:55:54.985466 28727 layer_factory.hpp:77] Creating layer bn4a_branch2a
I0529 15:55:54.985481 28727 net.cpp:91] Creating Layer bn4a_branch2a
I0529 15:55:54.985491 28727 net.cpp:425] bn4a_branch2a <- res4a_branch2a
I0529 15:55:54.985501 28727 net.cpp:386] bn4a_branch2a -> res4a_branch2a (in-place)
I0529 15:55:54.985893 28727 net.cpp:141] Setting up bn4a_branch2a
I0529 15:55:54.985905 28727 net.cpp:148] Top shape: 1 256 14 14 (50176)
I0529 15:55:54.985911 28727 net.cpp:156] Memory required for data: 177623044
I0529 15:55:54.985924 28727 layer_factory.hpp:77] Creating layer scale4a_branch2a
I0529 15:55:54.985934 28727 net.cpp:91] Creating Layer scale4a_branch2a
I0529 15:55:54.985944 28727 net.cpp:425] scale4a_branch2a <- res4a_branch2a
I0529 15:55:54.985958 28727 net.cpp:386] scale4a_branch2a -> res4a_branch2a (in-place)
I0529 15:55:54.986032 28727 layer_factory.hpp:77] Creating layer scale4a_branch2a
I0529 15:55:54.986274 28727 net.cpp:141] Setting up scale4a_branch2a
I0529 15:55:54.986301 28727 net.cpp:148] Top shape: 1 256 14 14 (50176)
I0529 15:55:54.986306 28727 net.cpp:156] Memory required for data: 177823748
I0529 15:55:54.986315 28727 layer_factory.hpp:77] Creating layer res4a_branch2a_relu
I0529 15:55:54.986325 28727 net.cpp:91] Creating Layer res4a_branch2a_relu
I0529 15:55:54.986330 28727 net.cpp:425] res4a_branch2a_relu <- res4a_branch2a
I0529 15:55:54.986337 28727 net.cpp:386] res4a_branch2a_relu -> res4a_branch2a (in-place)
I0529 15:55:54.986656 28727 net.cpp:141] Setting up res4a_branch2a_relu
I0529 15:55:54.986671 28727 net.cpp:148] Top shape: 1 256 14 14 (50176)
I0529 15:55:54.986676 28727 net.cpp:156] Memory required for data: 178024452
I0529 15:55:54.986682 28727 layer_factory.hpp:77] Creating layer res4a_branch2b
I0529 15:55:54.986696 28727 net.cpp:91] Creating Layer res4a_branch2b
I0529 15:55:54.986703 28727 net.cpp:425] res4a_branch2b <- res4a_branch2a
I0529 15:55:54.986712 28727 net.cpp:399] res4a_branch2b -> res4a_branch2b
I0529 15:55:54.990609 28727 net.cpp:141] Setting up res4a_branch2b
I0529 15:55:54.990633 28727 net.cpp:148] Top shape: 1 256 14 14 (50176)
I0529 15:55:54.990638 28727 net.cpp:156] Memory required for data: 178225156
I0529 15:55:54.990648 28727 layer_factory.hpp:77] Creating layer bn4a_branch2b
I0529 15:55:54.990658 28727 net.cpp:91] Creating Layer bn4a_branch2b
I0529 15:55:54.990665 28727 net.cpp:425] bn4a_branch2b <- res4a_branch2b
I0529 15:55:54.990676 28727 net.cpp:386] bn4a_branch2b -> res4a_branch2b (in-place)
I0529 15:55:54.991045 28727 net.cpp:141] Setting up bn4a_branch2b
I0529 15:55:54.991058 28727 net.cpp:148] Top shape: 1 256 14 14 (50176)
I0529 15:55:54.991063 28727 net.cpp:156] Memory required for data: 178425860
I0529 15:55:54.991075 28727 layer_factory.hpp:77] Creating layer scale4a_branch2b
I0529 15:55:54.991085 28727 net.cpp:91] Creating Layer scale4a_branch2b
I0529 15:55:54.991091 28727 net.cpp:425] scale4a_branch2b <- res4a_branch2b
I0529 15:55:54.991098 28727 net.cpp:386] scale4a_branch2b -> res4a_branch2b (in-place)
I0529 15:55:54.991175 28727 layer_factory.hpp:77] Creating layer scale4a_branch2b
I0529 15:55:54.991389 28727 net.cpp:141] Setting up scale4a_branch2b
I0529 15:55:54.991403 28727 net.cpp:148] Top shape: 1 256 14 14 (50176)
I0529 15:55:54.991408 28727 net.cpp:156] Memory required for data: 178626564
I0529 15:55:54.991418 28727 layer_factory.hpp:77] Creating layer res4a_branch2b_relu
I0529 15:55:54.991428 28727 net.cpp:91] Creating Layer res4a_branch2b_relu
I0529 15:55:54.991436 28727 net.cpp:425] res4a_branch2b_relu <- res4a_branch2b
I0529 15:55:54.991466 28727 net.cpp:386] res4a_branch2b_relu -> res4a_branch2b (in-place)
I0529 15:55:54.991998 28727 net.cpp:141] Setting up res4a_branch2b_relu
I0529 15:55:54.992018 28727 net.cpp:148] Top shape: 1 256 14 14 (50176)
I0529 15:55:54.992024 28727 net.cpp:156] Memory required for data: 178827268
I0529 15:55:54.992030 28727 layer_factory.hpp:77] Creating layer res4a_branch2c
I0529 15:55:54.992044 28727 net.cpp:91] Creating Layer res4a_branch2c
I0529 15:55:54.992056 28727 net.cpp:425] res4a_branch2c <- res4a_branch2b
I0529 15:55:54.992066 28727 net.cpp:399] res4a_branch2c -> res4a_branch2c
I0529 15:55:54.994711 28727 net.cpp:141] Setting up res4a_branch2c
I0529 15:55:54.994735 28727 net.cpp:148] Top shape: 1 1024 14 14 (200704)
I0529 15:55:54.994742 28727 net.cpp:156] Memory required for data: 179630084
I0529 15:55:54.994753 28727 layer_factory.hpp:77] Creating layer bn4a_branch2c
I0529 15:55:54.994765 28727 net.cpp:91] Creating Layer bn4a_branch2c
I0529 15:55:54.994774 28727 net.cpp:425] bn4a_branch2c <- res4a_branch2c
I0529 15:55:54.994786 28727 net.cpp:386] bn4a_branch2c -> res4a_branch2c (in-place)
I0529 15:55:54.995170 28727 net.cpp:141] Setting up bn4a_branch2c
I0529 15:55:54.995183 28727 net.cpp:148] Top shape: 1 1024 14 14 (200704)
I0529 15:55:54.995189 28727 net.cpp:156] Memory required for data: 180432900
I0529 15:55:54.995203 28727 layer_factory.hpp:77] Creating layer scale4a_branch2c
I0529 15:55:54.995215 28727 net.cpp:91] Creating Layer scale4a_branch2c
I0529 15:55:54.995223 28727 net.cpp:425] scale4a_branch2c <- res4a_branch2c
I0529 15:55:54.995231 28727 net.cpp:386] scale4a_branch2c -> res4a_branch2c (in-place)
I0529 15:55:54.995301 28727 layer_factory.hpp:77] Creating layer scale4a_branch2c
I0529 15:55:54.995519 28727 net.cpp:141] Setting up scale4a_branch2c
I0529 15:55:54.995532 28727 net.cpp:148] Top shape: 1 1024 14 14 (200704)
I0529 15:55:54.995537 28727 net.cpp:156] Memory required for data: 181235716
I0529 15:55:54.995549 28727 layer_factory.hpp:77] Creating layer res4a
I0529 15:55:54.995563 28727 net.cpp:91] Creating Layer res4a
I0529 15:55:54.995570 28727 net.cpp:425] res4a <- res4a_branch1
I0529 15:55:54.995579 28727 net.cpp:425] res4a <- res4a_branch2c
I0529 15:55:54.995587 28727 net.cpp:399] res4a -> res4a
I0529 15:55:54.995635 28727 net.cpp:141] Setting up res4a
I0529 15:55:54.995647 28727 net.cpp:148] Top shape: 1 1024 14 14 (200704)
I0529 15:55:54.995653 28727 net.cpp:156] Memory required for data: 182038532
I0529 15:55:54.995661 28727 layer_factory.hpp:77] Creating layer res4a_relu
I0529 15:55:54.995669 28727 net.cpp:91] Creating Layer res4a_relu
I0529 15:55:54.995677 28727 net.cpp:425] res4a_relu <- res4a
I0529 15:55:54.995687 28727 net.cpp:386] res4a_relu -> res4a (in-place)
I0529 15:55:54.996255 28727 net.cpp:141] Setting up res4a_relu
I0529 15:55:54.996276 28727 net.cpp:148] Top shape: 1 1024 14 14 (200704)
I0529 15:55:54.996284 28727 net.cpp:156] Memory required for data: 182841348
I0529 15:55:54.996291 28727 layer_factory.hpp:77] Creating layer res4a_res4a_relu_0_split
I0529 15:55:54.996302 28727 net.cpp:91] Creating Layer res4a_res4a_relu_0_split
I0529 15:55:54.996310 28727 net.cpp:425] res4a_res4a_relu_0_split <- res4a
I0529 15:55:54.996323 28727 net.cpp:399] res4a_res4a_relu_0_split -> res4a_res4a_relu_0_split_0
I0529 15:55:54.996336 28727 net.cpp:399] res4a_res4a_relu_0_split -> res4a_res4a_relu_0_split_1
I0529 15:55:54.996422 28727 net.cpp:141] Setting up res4a_res4a_relu_0_split
I0529 15:55:54.996435 28727 net.cpp:148] Top shape: 1 1024 14 14 (200704)
I0529 15:55:54.996444 28727 net.cpp:148] Top shape: 1 1024 14 14 (200704)
I0529 15:55:54.996450 28727 net.cpp:156] Memory required for data: 184446980
I0529 15:55:54.996457 28727 layer_factory.hpp:77] Creating layer res4b_branch2a
I0529 15:55:54.996490 28727 net.cpp:91] Creating Layer res4b_branch2a
I0529 15:55:54.996498 28727 net.cpp:425] res4b_branch2a <- res4a_res4a_relu_0_split_0
I0529 15:55:54.996510 28727 net.cpp:399] res4b_branch2a -> res4b_branch2a
I0529 15:55:54.999343 28727 net.cpp:141] Setting up res4b_branch2a
I0529 15:55:54.999384 28727 net.cpp:148] Top shape: 1 256 14 14 (50176)
I0529 15:55:54.999392 28727 net.cpp:156] Memory required for data: 184647684
I0529 15:55:54.999404 28727 layer_factory.hpp:77] Creating layer bn4b_branch2a
I0529 15:55:54.999416 28727 net.cpp:91] Creating Layer bn4b_branch2a
I0529 15:55:54.999424 28727 net.cpp:425] bn4b_branch2a <- res4b_branch2a
I0529 15:55:54.999433 28727 net.cpp:386] bn4b_branch2a -> res4b_branch2a (in-place)
I0529 15:55:54.999796 28727 net.cpp:141] Setting up bn4b_branch2a
I0529 15:55:54.999809 28727 net.cpp:148] Top shape: 1 256 14 14 (50176)
I0529 15:55:54.999815 28727 net.cpp:156] Memory required for data: 184848388
I0529 15:55:54.999828 28727 layer_factory.hpp:77] Creating layer scale4b_branch2a
I0529 15:55:54.999840 28727 net.cpp:91] Creating Layer scale4b_branch2a
I0529 15:55:54.999846 28727 net.cpp:425] scale4b_branch2a <- res4b_branch2a
I0529 15:55:54.999855 28727 net.cpp:386] scale4b_branch2a -> res4b_branch2a (in-place)
I0529 15:55:54.999928 28727 layer_factory.hpp:77] Creating layer scale4b_branch2a
I0529 15:55:55.000125 28727 net.cpp:141] Setting up scale4b_branch2a
I0529 15:55:55.000138 28727 net.cpp:148] Top shape: 1 256 14 14 (50176)
I0529 15:55:55.000144 28727 net.cpp:156] Memory required for data: 185049092
I0529 15:55:55.000154 28727 layer_factory.hpp:77] Creating layer res4b_branch2a_relu
I0529 15:55:55.000164 28727 net.cpp:91] Creating Layer res4b_branch2a_relu
I0529 15:55:55.000169 28727 net.cpp:425] res4b_branch2a_relu <- res4b_branch2a
I0529 15:55:55.000180 28727 net.cpp:386] res4b_branch2a_relu -> res4b_branch2a (in-place)
I0529 15:55:55.000505 28727 net.cpp:141] Setting up res4b_branch2a_relu
I0529 15:55:55.000520 28727 net.cpp:148] Top shape: 1 256 14 14 (50176)
I0529 15:55:55.000526 28727 net.cpp:156] Memory required for data: 185249796
I0529 15:55:55.000533 28727 layer_factory.hpp:77] Creating layer res4b_branch2b
I0529 15:55:55.000548 28727 net.cpp:91] Creating Layer res4b_branch2b
I0529 15:55:55.000555 28727 net.cpp:425] res4b_branch2b <- res4b_branch2a
I0529 15:55:55.000567 28727 net.cpp:399] res4b_branch2b -> res4b_branch2b
I0529 15:55:55.004211 28727 net.cpp:141] Setting up res4b_branch2b
I0529 15:55:55.004243 28727 net.cpp:148] Top shape: 1 256 14 14 (50176)
I0529 15:55:55.004253 28727 net.cpp:156] Memory required for data: 185450500
I0529 15:55:55.004263 28727 layer_factory.hpp:77] Creating layer bn4b_branch2b
I0529 15:55:55.004276 28727 net.cpp:91] Creating Layer bn4b_branch2b
I0529 15:55:55.004284 28727 net.cpp:425] bn4b_branch2b <- res4b_branch2b
I0529 15:55:55.004293 28727 net.cpp:386] bn4b_branch2b -> res4b_branch2b (in-place)
I0529 15:55:55.004647 28727 net.cpp:141] Setting up bn4b_branch2b
I0529 15:55:55.004659 28727 net.cpp:148] Top shape: 1 256 14 14 (50176)
I0529 15:55:55.004664 28727 net.cpp:156] Memory required for data: 185651204
I0529 15:55:55.004679 28727 layer_factory.hpp:77] Creating layer scale4b_branch2b
I0529 15:55:55.004690 28727 net.cpp:91] Creating Layer scale4b_branch2b
I0529 15:55:55.004696 28727 net.cpp:425] scale4b_branch2b <- res4b_branch2b
I0529 15:55:55.004703 28727 net.cpp:386] scale4b_branch2b -> res4b_branch2b (in-place)
I0529 15:55:55.004777 28727 layer_factory.hpp:77] Creating layer scale4b_branch2b
I0529 15:55:55.004976 28727 net.cpp:141] Setting up scale4b_branch2b
I0529 15:55:55.004987 28727 net.cpp:148] Top shape: 1 256 14 14 (50176)
I0529 15:55:55.004992 28727 net.cpp:156] Memory required for data: 185851908
I0529 15:55:55.005002 28727 layer_factory.hpp:77] Creating layer res4b_branch2b_relu
I0529 15:55:55.005012 28727 net.cpp:91] Creating Layer res4b_branch2b_relu
I0529 15:55:55.005019 28727 net.cpp:425] res4b_branch2b_relu <- res4b_branch2b
I0529 15:55:55.005028 28727 net.cpp:386] res4b_branch2b_relu -> res4b_branch2b (in-place)
I0529 15:55:55.005542 28727 net.cpp:141] Setting up res4b_branch2b_relu
I0529 15:55:55.005560 28727 net.cpp:148] Top shape: 1 256 14 14 (50176)
I0529 15:55:55.005566 28727 net.cpp:156] Memory required for data: 186052612
I0529 15:55:55.005573 28727 layer_factory.hpp:77] Creating layer res4b_branch2c
I0529 15:55:55.005610 28727 net.cpp:91] Creating Layer res4b_branch2c
I0529 15:55:55.005619 28727 net.cpp:425] res4b_branch2c <- res4b_branch2b
I0529 15:55:55.005627 28727 net.cpp:399] res4b_branch2c -> res4b_branch2c
I0529 15:55:55.008261 28727 net.cpp:141] Setting up res4b_branch2c
I0529 15:55:55.008285 28727 net.cpp:148] Top shape: 1 1024 14 14 (200704)
I0529 15:55:55.008291 28727 net.cpp:156] Memory required for data: 186855428
I0529 15:55:55.008301 28727 layer_factory.hpp:77] Creating layer bn4b_branch2c
I0529 15:55:55.008313 28727 net.cpp:91] Creating Layer bn4b_branch2c
I0529 15:55:55.008322 28727 net.cpp:425] bn4b_branch2c <- res4b_branch2c
I0529 15:55:55.008332 28727 net.cpp:386] bn4b_branch2c -> res4b_branch2c (in-place)
I0529 15:55:55.008702 28727 net.cpp:141] Setting up bn4b_branch2c
I0529 15:55:55.008713 28727 net.cpp:148] Top shape: 1 1024 14 14 (200704)
I0529 15:55:55.008718 28727 net.cpp:156] Memory required for data: 187658244
I0529 15:55:55.008729 28727 layer_factory.hpp:77] Creating layer scale4b_branch2c
I0529 15:55:55.008739 28727 net.cpp:91] Creating Layer scale4b_branch2c
I0529 15:55:55.008745 28727 net.cpp:425] scale4b_branch2c <- res4b_branch2c
I0529 15:55:55.008755 28727 net.cpp:386] scale4b_branch2c -> res4b_branch2c (in-place)
I0529 15:55:55.008823 28727 layer_factory.hpp:77] Creating layer scale4b_branch2c
I0529 15:55:55.009034 28727 net.cpp:141] Setting up scale4b_branch2c
I0529 15:55:55.009047 28727 net.cpp:148] Top shape: 1 1024 14 14 (200704)
I0529 15:55:55.009052 28727 net.cpp:156] Memory required for data: 188461060
I0529 15:55:55.009060 28727 layer_factory.hpp:77] Creating layer res4b
I0529 15:55:55.009070 28727 net.cpp:91] Creating Layer res4b
I0529 15:55:55.009078 28727 net.cpp:425] res4b <- res4a_res4a_relu_0_split_1
I0529 15:55:55.009083 28727 net.cpp:425] res4b <- res4b_branch2c
I0529 15:55:55.009091 28727 net.cpp:399] res4b -> res4b
I0529 15:55:55.009140 28727 net.cpp:141] Setting up res4b
I0529 15:55:55.009152 28727 net.cpp:148] Top shape: 1 1024 14 14 (200704)
I0529 15:55:55.009157 28727 net.cpp:156] Memory required for data: 189263876
I0529 15:55:55.009162 28727 layer_factory.hpp:77] Creating layer res4b_relu
I0529 15:55:55.009171 28727 net.cpp:91] Creating Layer res4b_relu
I0529 15:55:55.009179 28727 net.cpp:425] res4b_relu <- res4b
I0529 15:55:55.009186 28727 net.cpp:386] res4b_relu -> res4b (in-place)
I0529 15:55:55.009688 28727 net.cpp:141] Setting up res4b_relu
I0529 15:55:55.009717 28727 net.cpp:148] Top shape: 1 1024 14 14 (200704)
I0529 15:55:55.009727 28727 net.cpp:156] Memory required for data: 190066692
I0529 15:55:55.009735 28727 layer_factory.hpp:77] Creating layer res4b_res4b_relu_0_split
I0529 15:55:55.009753 28727 net.cpp:91] Creating Layer res4b_res4b_relu_0_split
I0529 15:55:55.009798 28727 net.cpp:425] res4b_res4b_relu_0_split <- res4b
I0529 15:55:55.009814 28727 net.cpp:399] res4b_res4b_relu_0_split -> res4b_res4b_relu_0_split_0
I0529 15:55:55.009832 28727 net.cpp:399] res4b_res4b_relu_0_split -> res4b_res4b_relu_0_split_1
I0529 15:55:55.009938 28727 net.cpp:141] Setting up res4b_res4b_relu_0_split
I0529 15:55:55.009956 28727 net.cpp:148] Top shape: 1 1024 14 14 (200704)
I0529 15:55:55.009968 28727 net.cpp:148] Top shape: 1 1024 14 14 (200704)
I0529 15:55:55.009980 28727 net.cpp:156] Memory required for data: 191672324
I0529 15:55:55.009989 28727 layer_factory.hpp:77] Creating layer res4c_branch2a
I0529 15:55:55.010013 28727 net.cpp:91] Creating Layer res4c_branch2a
I0529 15:55:55.010025 28727 net.cpp:425] res4c_branch2a <- res4b_res4b_relu_0_split_0
I0529 15:55:55.010040 28727 net.cpp:399] res4c_branch2a -> res4c_branch2a
I0529 15:55:55.012795 28727 net.cpp:141] Setting up res4c_branch2a
I0529 15:55:55.012821 28727 net.cpp:148] Top shape: 1 256 14 14 (50176)
I0529 15:55:55.012830 28727 net.cpp:156] Memory required for data: 191873028
I0529 15:55:55.012845 28727 layer_factory.hpp:77] Creating layer bn4c_branch2a
I0529 15:55:55.012867 28727 net.cpp:91] Creating Layer bn4c_branch2a
I0529 15:55:55.012874 28727 net.cpp:425] bn4c_branch2a <- res4c_branch2a
I0529 15:55:55.012904 28727 net.cpp:386] bn4c_branch2a -> res4c_branch2a (in-place)
I0529 15:55:55.013257 28727 net.cpp:141] Setting up bn4c_branch2a
I0529 15:55:55.013270 28727 net.cpp:148] Top shape: 1 256 14 14 (50176)
I0529 15:55:55.013275 28727 net.cpp:156] Memory required for data: 192073732
I0529 15:55:55.013286 28727 layer_factory.hpp:77] Creating layer scale4c_branch2a
I0529 15:55:55.013296 28727 net.cpp:91] Creating Layer scale4c_branch2a
I0529 15:55:55.013303 28727 net.cpp:425] scale4c_branch2a <- res4c_branch2a
I0529 15:55:55.013312 28727 net.cpp:386] scale4c_branch2a -> res4c_branch2a (in-place)
I0529 15:55:55.013381 28727 layer_factory.hpp:77] Creating layer scale4c_branch2a
I0529 15:55:55.013577 28727 net.cpp:141] Setting up scale4c_branch2a
I0529 15:55:55.013588 28727 net.cpp:148] Top shape: 1 256 14 14 (50176)
I0529 15:55:55.013593 28727 net.cpp:156] Memory required for data: 192274436
I0529 15:55:55.013602 28727 layer_factory.hpp:77] Creating layer res4c_branch2a_relu
I0529 15:55:55.013612 28727 net.cpp:91] Creating Layer res4c_branch2a_relu
I0529 15:55:55.013618 28727 net.cpp:425] res4c_branch2a_relu <- res4c_branch2a
I0529 15:55:55.013624 28727 net.cpp:386] res4c_branch2a_relu -> res4c_branch2a (in-place)
I0529 15:55:55.013931 28727 net.cpp:141] Setting up res4c_branch2a_relu
I0529 15:55:55.013945 28727 net.cpp:148] Top shape: 1 256 14 14 (50176)
I0529 15:55:55.013950 28727 net.cpp:156] Memory required for data: 192475140
I0529 15:55:55.013955 28727 layer_factory.hpp:77] Creating layer res4c_branch2b
I0529 15:55:55.013968 28727 net.cpp:91] Creating Layer res4c_branch2b
I0529 15:55:55.013973 28727 net.cpp:425] res4c_branch2b <- res4c_branch2a
I0529 15:55:55.013981 28727 net.cpp:399] res4c_branch2b -> res4c_branch2b
I0529 15:55:55.017457 28727 net.cpp:141] Setting up res4c_branch2b
I0529 15:55:55.017485 28727 net.cpp:148] Top shape: 1 256 14 14 (50176)
I0529 15:55:55.017495 28727 net.cpp:156] Memory required for data: 192675844
I0529 15:55:55.017508 28727 layer_factory.hpp:77] Creating layer bn4c_branch2b
I0529 15:55:55.017527 28727 net.cpp:91] Creating Layer bn4c_branch2b
I0529 15:55:55.017540 28727 net.cpp:425] bn4c_branch2b <- res4c_branch2b
I0529 15:55:55.017582 28727 net.cpp:386] bn4c_branch2b -> res4c_branch2b (in-place)
I0529 15:55:55.017958 28727 net.cpp:141] Setting up bn4c_branch2b
I0529 15:55:55.017976 28727 net.cpp:148] Top shape: 1 256 14 14 (50176)
I0529 15:55:55.017985 28727 net.cpp:156] Memory required for data: 192876548
I0529 15:55:55.018004 28727 layer_factory.hpp:77] Creating layer scale4c_branch2b
I0529 15:55:55.018021 28727 net.cpp:91] Creating Layer scale4c_branch2b
I0529 15:55:55.018034 28727 net.cpp:425] scale4c_branch2b <- res4c_branch2b
I0529 15:55:55.018051 28727 net.cpp:386] scale4c_branch2b -> res4c_branch2b (in-place)
I0529 15:55:55.018162 28727 layer_factory.hpp:77] Creating layer scale4c_branch2b
I0529 15:55:55.018381 28727 net.cpp:141] Setting up scale4c_branch2b
I0529 15:55:55.018399 28727 net.cpp:148] Top shape: 1 256 14 14 (50176)
I0529 15:55:55.018406 28727 net.cpp:156] Memory required for data: 193077252
I0529 15:55:55.018421 28727 layer_factory.hpp:77] Creating layer res4c_branch2b_relu
I0529 15:55:55.018435 28727 net.cpp:91] Creating Layer res4c_branch2b_relu
I0529 15:55:55.018448 28727 net.cpp:425] res4c_branch2b_relu <- res4c_branch2b
I0529 15:55:55.018467 28727 net.cpp:386] res4c_branch2b_relu -> res4c_branch2b (in-place)
I0529 15:55:55.018966 28727 net.cpp:141] Setting up res4c_branch2b_relu
I0529 15:55:55.018988 28727 net.cpp:148] Top shape: 1 256 14 14 (50176)
I0529 15:55:55.018997 28727 net.cpp:156] Memory required for data: 193277956
I0529 15:55:55.019006 28727 layer_factory.hpp:77] Creating layer res4c_branch2c
I0529 15:55:55.019031 28727 net.cpp:91] Creating Layer res4c_branch2c
I0529 15:55:55.019042 28727 net.cpp:425] res4c_branch2c <- res4c_branch2b
I0529 15:55:55.019055 28727 net.cpp:399] res4c_branch2c -> res4c_branch2c
I0529 15:55:55.021442 28727 net.cpp:141] Setting up res4c_branch2c
I0529 15:55:55.021466 28727 net.cpp:148] Top shape: 1 1024 14 14 (200704)
I0529 15:55:55.021497 28727 net.cpp:156] Memory required for data: 194080772
I0529 15:55:55.021515 28727 layer_factory.hpp:77] Creating layer bn4c_branch2c
I0529 15:55:55.021538 28727 net.cpp:91] Creating Layer bn4c_branch2c
I0529 15:55:55.021549 28727 net.cpp:425] bn4c_branch2c <- res4c_branch2c
I0529 15:55:55.021564 28727 net.cpp:386] bn4c_branch2c -> res4c_branch2c (in-place)
I0529 15:55:55.021931 28727 net.cpp:141] Setting up bn4c_branch2c
I0529 15:55:55.021949 28727 net.cpp:148] Top shape: 1 1024 14 14 (200704)
I0529 15:55:55.021957 28727 net.cpp:156] Memory required for data: 194883588
I0529 15:55:55.021976 28727 layer_factory.hpp:77] Creating layer scale4c_branch2c
I0529 15:55:55.021991 28727 net.cpp:91] Creating Layer scale4c_branch2c
I0529 15:55:55.022003 28727 net.cpp:425] scale4c_branch2c <- res4c_branch2c
I0529 15:55:55.022012 28727 net.cpp:386] scale4c_branch2c -> res4c_branch2c (in-place)
I0529 15:55:55.022109 28727 layer_factory.hpp:77] Creating layer scale4c_branch2c
I0529 15:55:55.022336 28727 net.cpp:141] Setting up scale4c_branch2c
I0529 15:55:55.022348 28727 net.cpp:148] Top shape: 1 1024 14 14 (200704)
I0529 15:55:55.022354 28727 net.cpp:156] Memory required for data: 195686404
I0529 15:55:55.022364 28727 layer_factory.hpp:77] Creating layer res4c
I0529 15:55:55.022377 28727 net.cpp:91] Creating Layer res4c
I0529 15:55:55.022383 28727 net.cpp:425] res4c <- res4b_res4b_relu_0_split_1
I0529 15:55:55.022392 28727 net.cpp:425] res4c <- res4c_branch2c
I0529 15:55:55.022399 28727 net.cpp:399] res4c -> res4c
I0529 15:55:55.022447 28727 net.cpp:141] Setting up res4c
I0529 15:55:55.022457 28727 net.cpp:148] Top shape: 1 1024 14 14 (200704)
I0529 15:55:55.022464 28727 net.cpp:156] Memory required for data: 196489220
I0529 15:55:55.022469 28727 layer_factory.hpp:77] Creating layer res4c_relu
I0529 15:55:55.022478 28727 net.cpp:91] Creating Layer res4c_relu
I0529 15:55:55.022485 28727 net.cpp:425] res4c_relu <- res4c
I0529 15:55:55.022495 28727 net.cpp:386] res4c_relu -> res4c (in-place)
I0529 15:55:55.022960 28727 net.cpp:141] Setting up res4c_relu
I0529 15:55:55.022981 28727 net.cpp:148] Top shape: 1 1024 14 14 (200704)
I0529 15:55:55.022989 28727 net.cpp:156] Memory required for data: 197292036
I0529 15:55:55.022999 28727 layer_factory.hpp:77] Creating layer res4c_res4c_relu_0_split
I0529 15:55:55.023011 28727 net.cpp:91] Creating Layer res4c_res4c_relu_0_split
I0529 15:55:55.023027 28727 net.cpp:425] res4c_res4c_relu_0_split <- res4c
I0529 15:55:55.023041 28727 net.cpp:399] res4c_res4c_relu_0_split -> res4c_res4c_relu_0_split_0
I0529 15:55:55.023057 28727 net.cpp:399] res4c_res4c_relu_0_split -> res4c_res4c_relu_0_split_1
I0529 15:55:55.023149 28727 net.cpp:141] Setting up res4c_res4c_relu_0_split
I0529 15:55:55.023164 28727 net.cpp:148] Top shape: 1 1024 14 14 (200704)
I0529 15:55:55.023175 28727 net.cpp:148] Top shape: 1 1024 14 14 (200704)
I0529 15:55:55.023185 28727 net.cpp:156] Memory required for data: 198897668
I0529 15:55:55.023193 28727 layer_factory.hpp:77] Creating layer res4d_branch2a
I0529 15:55:55.023213 28727 net.cpp:91] Creating Layer res4d_branch2a
I0529 15:55:55.023224 28727 net.cpp:425] res4d_branch2a <- res4c_res4c_relu_0_split_0
I0529 15:55:55.023236 28727 net.cpp:399] res4d_branch2a -> res4d_branch2a
I0529 15:55:55.025984 28727 net.cpp:141] Setting up res4d_branch2a
I0529 15:55:55.026006 28727 net.cpp:148] Top shape: 1 256 14 14 (50176)
I0529 15:55:55.026015 28727 net.cpp:156] Memory required for data: 199098372
I0529 15:55:55.026031 28727 layer_factory.hpp:77] Creating layer bn4d_branch2a
I0529 15:55:55.026048 28727 net.cpp:91] Creating Layer bn4d_branch2a
I0529 15:55:55.026085 28727 net.cpp:425] bn4d_branch2a <- res4d_branch2a
I0529 15:55:55.026108 28727 net.cpp:386] bn4d_branch2a -> res4d_branch2a (in-place)
I0529 15:55:55.026513 28727 net.cpp:141] Setting up bn4d_branch2a
I0529 15:55:55.026530 28727 net.cpp:148] Top shape: 1 256 14 14 (50176)
I0529 15:55:55.026536 28727 net.cpp:156] Memory required for data: 199299076
I0529 15:55:55.026553 28727 layer_factory.hpp:77] Creating layer scale4d_branch2a
I0529 15:55:55.026587 28727 net.cpp:91] Creating Layer scale4d_branch2a
I0529 15:55:55.026598 28727 net.cpp:425] scale4d_branch2a <- res4d_branch2a
I0529 15:55:55.026609 28727 net.cpp:386] scale4d_branch2a -> res4d_branch2a (in-place)
I0529 15:55:55.026689 28727 layer_factory.hpp:77] Creating layer scale4d_branch2a
I0529 15:55:55.026870 28727 net.cpp:141] Setting up scale4d_branch2a
I0529 15:55:55.026883 28727 net.cpp:148] Top shape: 1 256 14 14 (50176)
I0529 15:55:55.026890 28727 net.cpp:156] Memory required for data: 199499780
I0529 15:55:55.026903 28727 layer_factory.hpp:77] Creating layer res4d_branch2a_relu
I0529 15:55:55.026916 28727 net.cpp:91] Creating Layer res4d_branch2a_relu
I0529 15:55:55.026926 28727 net.cpp:425] res4d_branch2a_relu <- res4d_branch2a
I0529 15:55:55.026960 28727 net.cpp:386] res4d_branch2a_relu -> res4d_branch2a (in-place)
I0529 15:55:55.027233 28727 net.cpp:141] Setting up res4d_branch2a_relu
I0529 15:55:55.027254 28727 net.cpp:148] Top shape: 1 256 14 14 (50176)
I0529 15:55:55.027283 28727 net.cpp:156] Memory required for data: 199700484
I0529 15:55:55.027292 28727 layer_factory.hpp:77] Creating layer res4d_branch2b
I0529 15:55:55.027307 28727 net.cpp:91] Creating Layer res4d_branch2b
I0529 15:55:55.027315 28727 net.cpp:425] res4d_branch2b <- res4d_branch2a
I0529 15:55:55.027331 28727 net.cpp:399] res4d_branch2b -> res4d_branch2b
I0529 15:55:55.030340 28727 net.cpp:141] Setting up res4d_branch2b
I0529 15:55:55.030362 28727 net.cpp:148] Top shape: 1 256 14 14 (50176)
I0529 15:55:55.030369 28727 net.cpp:156] Memory required for data: 199901188
I0529 15:55:55.030380 28727 layer_factory.hpp:77] Creating layer bn4d_branch2b
I0529 15:55:55.030398 28727 net.cpp:91] Creating Layer bn4d_branch2b
I0529 15:55:55.030405 28727 net.cpp:425] bn4d_branch2b <- res4d_branch2b
I0529 15:55:55.030411 28727 net.cpp:386] bn4d_branch2b -> res4d_branch2b (in-place)
I0529 15:55:55.030710 28727 net.cpp:141] Setting up bn4d_branch2b
I0529 15:55:55.030721 28727 net.cpp:148] Top shape: 1 256 14 14 (50176)
I0529 15:55:55.030725 28727 net.cpp:156] Memory required for data: 200101892
I0529 15:55:55.030735 28727 layer_factory.hpp:77] Creating layer scale4d_branch2b
I0529 15:55:55.030747 28727 net.cpp:91] Creating Layer scale4d_branch2b
I0529 15:55:55.030752 28727 net.cpp:425] scale4d_branch2b <- res4d_branch2b
I0529 15:55:55.030758 28727 net.cpp:386] scale4d_branch2b -> res4d_branch2b (in-place)
I0529 15:55:55.030822 28727 layer_factory.hpp:77] Creating layer scale4d_branch2b
I0529 15:55:55.030989 28727 net.cpp:141] Setting up scale4d_branch2b
I0529 15:55:55.030999 28727 net.cpp:148] Top shape: 1 256 14 14 (50176)
I0529 15:55:55.031004 28727 net.cpp:156] Memory required for data: 200302596
I0529 15:55:55.031011 28727 layer_factory.hpp:77] Creating layer res4d_branch2b_relu
I0529 15:55:55.031020 28727 net.cpp:91] Creating Layer res4d_branch2b_relu
I0529 15:55:55.031025 28727 net.cpp:425] res4d_branch2b_relu <- res4d_branch2b
I0529 15:55:55.031033 28727 net.cpp:386] res4d_branch2b_relu -> res4d_branch2b (in-place)
I0529 15:55:55.031455 28727 net.cpp:141] Setting up res4d_branch2b_relu
I0529 15:55:55.031471 28727 net.cpp:148] Top shape: 1 256 14 14 (50176)
I0529 15:55:55.031477 28727 net.cpp:156] Memory required for data: 200503300
I0529 15:55:55.031482 28727 layer_factory.hpp:77] Creating layer res4d_branch2c
I0529 15:55:55.031494 28727 net.cpp:91] Creating Layer res4d_branch2c
I0529 15:55:55.031502 28727 net.cpp:425] res4d_branch2c <- res4d_branch2b
I0529 15:55:55.031512 28727 net.cpp:399] res4d_branch2c -> res4d_branch2c
I0529 15:55:55.033540 28727 net.cpp:141] Setting up res4d_branch2c
I0529 15:55:55.033560 28727 net.cpp:148] Top shape: 1 1024 14 14 (200704)
I0529 15:55:55.033565 28727 net.cpp:156] Memory required for data: 201306116
I0529 15:55:55.033571 28727 layer_factory.hpp:77] Creating layer bn4d_branch2c
I0529 15:55:55.033579 28727 net.cpp:91] Creating Layer bn4d_branch2c
I0529 15:55:55.033584 28727 net.cpp:425] bn4d_branch2c <- res4d_branch2c
I0529 15:55:55.033591 28727 net.cpp:386] bn4d_branch2c -> res4d_branch2c (in-place)
I0529 15:55:55.033916 28727 net.cpp:141] Setting up bn4d_branch2c
I0529 15:55:55.033927 28727 net.cpp:148] Top shape: 1 1024 14 14 (200704)
I0529 15:55:55.033931 28727 net.cpp:156] Memory required for data: 202108932
I0529 15:55:55.033941 28727 layer_factory.hpp:77] Creating layer scale4d_branch2c
I0529 15:55:55.033948 28727 net.cpp:91] Creating Layer scale4d_branch2c
I0529 15:55:55.033954 28727 net.cpp:425] scale4d_branch2c <- res4d_branch2c
I0529 15:55:55.033960 28727 net.cpp:386] scale4d_branch2c -> res4d_branch2c (in-place)
I0529 15:55:55.034019 28727 layer_factory.hpp:77] Creating layer scale4d_branch2c
I0529 15:55:55.034234 28727 net.cpp:141] Setting up scale4d_branch2c
I0529 15:55:55.034245 28727 net.cpp:148] Top shape: 1 1024 14 14 (200704)
I0529 15:55:55.034251 28727 net.cpp:156] Memory required for data: 202911748
I0529 15:55:55.034260 28727 layer_factory.hpp:77] Creating layer res4d
I0529 15:55:55.034268 28727 net.cpp:91] Creating Layer res4d
I0529 15:55:55.034274 28727 net.cpp:425] res4d <- res4c_res4c_relu_0_split_1
I0529 15:55:55.034288 28727 net.cpp:425] res4d <- res4d_branch2c
I0529 15:55:55.034297 28727 net.cpp:399] res4d -> res4d
I0529 15:55:55.034338 28727 net.cpp:141] Setting up res4d
I0529 15:55:55.034348 28727 net.cpp:148] Top shape: 1 1024 14 14 (200704)
I0529 15:55:55.034353 28727 net.cpp:156] Memory required for data: 203714564
I0529 15:55:55.034358 28727 layer_factory.hpp:77] Creating layer res4d_relu
I0529 15:55:55.034368 28727 net.cpp:91] Creating Layer res4d_relu
I0529 15:55:55.034373 28727 net.cpp:425] res4d_relu <- res4d
I0529 15:55:55.034379 28727 net.cpp:386] res4d_relu -> res4d (in-place)
I0529 15:55:55.034800 28727 net.cpp:141] Setting up res4d_relu
I0529 15:55:55.034816 28727 net.cpp:148] Top shape: 1 1024 14 14 (200704)
I0529 15:55:55.034821 28727 net.cpp:156] Memory required for data: 204517380
I0529 15:55:55.034824 28727 layer_factory.hpp:77] Creating layer res4d_res4d_relu_0_split
I0529 15:55:55.034833 28727 net.cpp:91] Creating Layer res4d_res4d_relu_0_split
I0529 15:55:55.034840 28727 net.cpp:425] res4d_res4d_relu_0_split <- res4d
I0529 15:55:55.034847 28727 net.cpp:399] res4d_res4d_relu_0_split -> res4d_res4d_relu_0_split_0
I0529 15:55:55.034862 28727 net.cpp:399] res4d_res4d_relu_0_split -> res4d_res4d_relu_0_split_1
I0529 15:55:55.034927 28727 net.cpp:141] Setting up res4d_res4d_relu_0_split
I0529 15:55:55.034937 28727 net.cpp:148] Top shape: 1 1024 14 14 (200704)
I0529 15:55:55.034942 28727 net.cpp:148] Top shape: 1 1024 14 14 (200704)
I0529 15:55:55.034945 28727 net.cpp:156] Memory required for data: 206123012
I0529 15:55:55.034950 28727 layer_factory.hpp:77] Creating layer res4e_branch2a
I0529 15:55:55.034960 28727 net.cpp:91] Creating Layer res4e_branch2a
I0529 15:55:55.034967 28727 net.cpp:425] res4e_branch2a <- res4d_res4d_relu_0_split_0
I0529 15:55:55.034978 28727 net.cpp:399] res4e_branch2a -> res4e_branch2a
I0529 15:55:55.037266 28727 net.cpp:141] Setting up res4e_branch2a
I0529 15:55:55.037284 28727 net.cpp:148] Top shape: 1 256 14 14 (50176)
I0529 15:55:55.037289 28727 net.cpp:156] Memory required for data: 206323716
I0529 15:55:55.037297 28727 layer_factory.hpp:77] Creating layer bn4e_branch2a
I0529 15:55:55.037308 28727 net.cpp:91] Creating Layer bn4e_branch2a
I0529 15:55:55.037315 28727 net.cpp:425] bn4e_branch2a <- res4e_branch2a
I0529 15:55:55.037323 28727 net.cpp:386] bn4e_branch2a -> res4e_branch2a (in-place)
I0529 15:55:55.037631 28727 net.cpp:141] Setting up bn4e_branch2a
I0529 15:55:55.037642 28727 net.cpp:148] Top shape: 1 256 14 14 (50176)
I0529 15:55:55.037647 28727 net.cpp:156] Memory required for data: 206524420
I0529 15:55:55.037657 28727 layer_factory.hpp:77] Creating layer scale4e_branch2a
I0529 15:55:55.037665 28727 net.cpp:91] Creating Layer scale4e_branch2a
I0529 15:55:55.037674 28727 net.cpp:425] scale4e_branch2a <- res4e_branch2a
I0529 15:55:55.037679 28727 net.cpp:386] scale4e_branch2a -> res4e_branch2a (in-place)
I0529 15:55:55.037741 28727 layer_factory.hpp:77] Creating layer scale4e_branch2a
I0529 15:55:55.037932 28727 net.cpp:141] Setting up scale4e_branch2a
I0529 15:55:55.037943 28727 net.cpp:148] Top shape: 1 256 14 14 (50176)
I0529 15:55:55.037947 28727 net.cpp:156] Memory required for data: 206725124
I0529 15:55:55.037955 28727 layer_factory.hpp:77] Creating layer res4e_branch2a_relu
I0529 15:55:55.037964 28727 net.cpp:91] Creating Layer res4e_branch2a_relu
I0529 15:55:55.037971 28727 net.cpp:425] res4e_branch2a_relu <- res4e_branch2a
I0529 15:55:55.037976 28727 net.cpp:386] res4e_branch2a_relu -> res4e_branch2a (in-place)
I0529 15:55:55.038257 28727 net.cpp:141] Setting up res4e_branch2a_relu
I0529 15:55:55.038271 28727 net.cpp:148] Top shape: 1 256 14 14 (50176)
I0529 15:55:55.038275 28727 net.cpp:156] Memory required for data: 206925828
I0529 15:55:55.038280 28727 layer_factory.hpp:77] Creating layer res4e_branch2b
I0529 15:55:55.038290 28727 net.cpp:91] Creating Layer res4e_branch2b
I0529 15:55:55.038295 28727 net.cpp:425] res4e_branch2b <- res4e_branch2a
I0529 15:55:55.038302 28727 net.cpp:399] res4e_branch2b -> res4e_branch2b
I0529 15:55:55.041285 28727 net.cpp:141] Setting up res4e_branch2b
I0529 15:55:55.041303 28727 net.cpp:148] Top shape: 1 256 14 14 (50176)
I0529 15:55:55.041308 28727 net.cpp:156] Memory required for data: 207126532
I0529 15:55:55.041316 28727 layer_factory.hpp:77] Creating layer bn4e_branch2b
I0529 15:55:55.041323 28727 net.cpp:91] Creating Layer bn4e_branch2b
I0529 15:55:55.041329 28727 net.cpp:425] bn4e_branch2b <- res4e_branch2b
I0529 15:55:55.041337 28727 net.cpp:386] bn4e_branch2b -> res4e_branch2b (in-place)
I0529 15:55:55.041637 28727 net.cpp:141] Setting up bn4e_branch2b
I0529 15:55:55.041647 28727 net.cpp:148] Top shape: 1 256 14 14 (50176)
I0529 15:55:55.041651 28727 net.cpp:156] Memory required for data: 207327236
I0529 15:55:55.041661 28727 layer_factory.hpp:77] Creating layer scale4e_branch2b
I0529 15:55:55.041668 28727 net.cpp:91] Creating Layer scale4e_branch2b
I0529 15:55:55.041672 28727 net.cpp:425] scale4e_branch2b <- res4e_branch2b
I0529 15:55:55.041678 28727 net.cpp:386] scale4e_branch2b -> res4e_branch2b (in-place)
I0529 15:55:55.041743 28727 layer_factory.hpp:77] Creating layer scale4e_branch2b
I0529 15:55:55.041918 28727 net.cpp:141] Setting up scale4e_branch2b
I0529 15:55:55.041929 28727 net.cpp:148] Top shape: 1 256 14 14 (50176)
I0529 15:55:55.041932 28727 net.cpp:156] Memory required for data: 207527940
I0529 15:55:55.041939 28727 layer_factory.hpp:77] Creating layer res4e_branch2b_relu
I0529 15:55:55.041950 28727 net.cpp:91] Creating Layer res4e_branch2b_relu
I0529 15:55:55.041957 28727 net.cpp:425] res4e_branch2b_relu <- res4e_branch2b
I0529 15:55:55.041962 28727 net.cpp:386] res4e_branch2b_relu -> res4e_branch2b (in-place)
I0529 15:55:55.042419 28727 net.cpp:141] Setting up res4e_branch2b_relu
I0529 15:55:55.042436 28727 net.cpp:148] Top shape: 1 256 14 14 (50176)
I0529 15:55:55.042440 28727 net.cpp:156] Memory required for data: 207728644
I0529 15:55:55.042445 28727 layer_factory.hpp:77] Creating layer res4e_branch2c
I0529 15:55:55.042457 28727 net.cpp:91] Creating Layer res4e_branch2c
I0529 15:55:55.042462 28727 net.cpp:425] res4e_branch2c <- res4e_branch2b
I0529 15:55:55.042470 28727 net.cpp:399] res4e_branch2c -> res4e_branch2c
I0529 15:55:55.044559 28727 net.cpp:141] Setting up res4e_branch2c
I0529 15:55:55.044584 28727 net.cpp:148] Top shape: 1 1024 14 14 (200704)
I0529 15:55:55.044589 28727 net.cpp:156] Memory required for data: 208531460
I0529 15:55:55.044597 28727 layer_factory.hpp:77] Creating layer bn4e_branch2c
I0529 15:55:55.044610 28727 net.cpp:91] Creating Layer bn4e_branch2c
I0529 15:55:55.044620 28727 net.cpp:425] bn4e_branch2c <- res4e_branch2c
I0529 15:55:55.044628 28727 net.cpp:386] bn4e_branch2c -> res4e_branch2c (in-place)
I0529 15:55:55.044955 28727 net.cpp:141] Setting up bn4e_branch2c
I0529 15:55:55.044966 28727 net.cpp:148] Top shape: 1 1024 14 14 (200704)
I0529 15:55:55.044970 28727 net.cpp:156] Memory required for data: 209334276
I0529 15:55:55.044981 28727 layer_factory.hpp:77] Creating layer scale4e_branch2c
I0529 15:55:55.045011 28727 net.cpp:91] Creating Layer scale4e_branch2c
I0529 15:55:55.045017 28727 net.cpp:425] scale4e_branch2c <- res4e_branch2c
I0529 15:55:55.045027 28727 net.cpp:386] scale4e_branch2c -> res4e_branch2c (in-place)
I0529 15:55:55.045090 28727 layer_factory.hpp:77] Creating layer scale4e_branch2c
I0529 15:55:55.045281 28727 net.cpp:141] Setting up scale4e_branch2c
I0529 15:55:55.045292 28727 net.cpp:148] Top shape: 1 1024 14 14 (200704)
I0529 15:55:55.045296 28727 net.cpp:156] Memory required for data: 210137092
I0529 15:55:55.045303 28727 layer_factory.hpp:77] Creating layer res4e
I0529 15:55:55.045313 28727 net.cpp:91] Creating Layer res4e
I0529 15:55:55.045320 28727 net.cpp:425] res4e <- res4d_res4d_relu_0_split_1
I0529 15:55:55.045325 28727 net.cpp:425] res4e <- res4e_branch2c
I0529 15:55:55.045331 28727 net.cpp:399] res4e -> res4e
I0529 15:55:55.045373 28727 net.cpp:141] Setting up res4e
I0529 15:55:55.045383 28727 net.cpp:148] Top shape: 1 1024 14 14 (200704)
I0529 15:55:55.045389 28727 net.cpp:156] Memory required for data: 210939908
I0529 15:55:55.045393 28727 layer_factory.hpp:77] Creating layer res4e_relu
I0529 15:55:55.045400 28727 net.cpp:91] Creating Layer res4e_relu
I0529 15:55:55.045406 28727 net.cpp:425] res4e_relu <- res4e
I0529 15:55:55.045411 28727 net.cpp:386] res4e_relu -> res4e (in-place)
I0529 15:55:55.045846 28727 net.cpp:141] Setting up res4e_relu
I0529 15:55:55.045866 28727 net.cpp:148] Top shape: 1 1024 14 14 (200704)
I0529 15:55:55.045871 28727 net.cpp:156] Memory required for data: 211742724
I0529 15:55:55.045874 28727 layer_factory.hpp:77] Creating layer res4e_res4e_relu_0_split
I0529 15:55:55.045882 28727 net.cpp:91] Creating Layer res4e_res4e_relu_0_split
I0529 15:55:55.045887 28727 net.cpp:425] res4e_res4e_relu_0_split <- res4e
I0529 15:55:55.045893 28727 net.cpp:399] res4e_res4e_relu_0_split -> res4e_res4e_relu_0_split_0
I0529 15:55:55.045902 28727 net.cpp:399] res4e_res4e_relu_0_split -> res4e_res4e_relu_0_split_1
I0529 15:55:55.045974 28727 net.cpp:141] Setting up res4e_res4e_relu_0_split
I0529 15:55:55.045984 28727 net.cpp:148] Top shape: 1 1024 14 14 (200704)
I0529 15:55:55.045989 28727 net.cpp:148] Top shape: 1 1024 14 14 (200704)
I0529 15:55:55.045994 28727 net.cpp:156] Memory required for data: 213348356
I0529 15:55:55.045997 28727 layer_factory.hpp:77] Creating layer res4f_branch2a
I0529 15:55:55.046008 28727 net.cpp:91] Creating Layer res4f_branch2a
I0529 15:55:55.046015 28727 net.cpp:425] res4f_branch2a <- res4e_res4e_relu_0_split_0
I0529 15:55:55.046023 28727 net.cpp:399] res4f_branch2a -> res4f_branch2a
I0529 15:55:55.048363 28727 net.cpp:141] Setting up res4f_branch2a
I0529 15:55:55.048382 28727 net.cpp:148] Top shape: 1 256 14 14 (50176)
I0529 15:55:55.048387 28727 net.cpp:156] Memory required for data: 213549060
I0529 15:55:55.048393 28727 layer_factory.hpp:77] Creating layer bn4f_branch2a
I0529 15:55:55.048403 28727 net.cpp:91] Creating Layer bn4f_branch2a
I0529 15:55:55.048408 28727 net.cpp:425] bn4f_branch2a <- res4f_branch2a
I0529 15:55:55.048415 28727 net.cpp:386] bn4f_branch2a -> res4f_branch2a (in-place)
I0529 15:55:55.048714 28727 net.cpp:141] Setting up bn4f_branch2a
I0529 15:55:55.048725 28727 net.cpp:148] Top shape: 1 256 14 14 (50176)
I0529 15:55:55.048728 28727 net.cpp:156] Memory required for data: 213749764
I0529 15:55:55.048738 28727 layer_factory.hpp:77] Creating layer scale4f_branch2a
I0529 15:55:55.048745 28727 net.cpp:91] Creating Layer scale4f_branch2a
I0529 15:55:55.048749 28727 net.cpp:425] scale4f_branch2a <- res4f_branch2a
I0529 15:55:55.048758 28727 net.cpp:386] scale4f_branch2a -> res4f_branch2a (in-place)
I0529 15:55:55.048815 28727 layer_factory.hpp:77] Creating layer scale4f_branch2a
I0529 15:55:55.048980 28727 net.cpp:141] Setting up scale4f_branch2a
I0529 15:55:55.048991 28727 net.cpp:148] Top shape: 1 256 14 14 (50176)
I0529 15:55:55.048995 28727 net.cpp:156] Memory required for data: 213950468
I0529 15:55:55.049002 28727 layer_factory.hpp:77] Creating layer res4f_branch2a_relu
I0529 15:55:55.049010 28727 net.cpp:91] Creating Layer res4f_branch2a_relu
I0529 15:55:55.049031 28727 net.cpp:425] res4f_branch2a_relu <- res4f_branch2a
I0529 15:55:55.049037 28727 net.cpp:386] res4f_branch2a_relu -> res4f_branch2a (in-place)
I0529 15:55:55.049293 28727 net.cpp:141] Setting up res4f_branch2a_relu
I0529 15:55:55.049305 28727 net.cpp:148] Top shape: 1 256 14 14 (50176)
I0529 15:55:55.049309 28727 net.cpp:156] Memory required for data: 214151172
I0529 15:55:55.049314 28727 layer_factory.hpp:77] Creating layer res4f_branch2b
I0529 15:55:55.049325 28727 net.cpp:91] Creating Layer res4f_branch2b
I0529 15:55:55.049329 28727 net.cpp:425] res4f_branch2b <- res4f_branch2a
I0529 15:55:55.049336 28727 net.cpp:399] res4f_branch2b -> res4f_branch2b
I0529 15:55:55.052176 28727 net.cpp:141] Setting up res4f_branch2b
I0529 15:55:55.052199 28727 net.cpp:148] Top shape: 1 256 14 14 (50176)
I0529 15:55:55.052206 28727 net.cpp:156] Memory required for data: 214351876
I0529 15:55:55.052217 28727 layer_factory.hpp:77] Creating layer bn4f_branch2b
I0529 15:55:55.052232 28727 net.cpp:91] Creating Layer bn4f_branch2b
I0529 15:55:55.052243 28727 net.cpp:425] bn4f_branch2b <- res4f_branch2b
I0529 15:55:55.052283 28727 net.cpp:386] bn4f_branch2b -> res4f_branch2b (in-place)
I0529 15:55:55.052609 28727 net.cpp:141] Setting up bn4f_branch2b
I0529 15:55:55.052621 28727 net.cpp:148] Top shape: 1 256 14 14 (50176)
I0529 15:55:55.052625 28727 net.cpp:156] Memory required for data: 214552580
I0529 15:55:55.052635 28727 layer_factory.hpp:77] Creating layer scale4f_branch2b
I0529 15:55:55.052644 28727 net.cpp:91] Creating Layer scale4f_branch2b
I0529 15:55:55.052649 28727 net.cpp:425] scale4f_branch2b <- res4f_branch2b
I0529 15:55:55.052654 28727 net.cpp:386] scale4f_branch2b -> res4f_branch2b (in-place)
I0529 15:55:55.052718 28727 layer_factory.hpp:77] Creating layer scale4f_branch2b
I0529 15:55:55.052887 28727 net.cpp:141] Setting up scale4f_branch2b
I0529 15:55:55.052897 28727 net.cpp:148] Top shape: 1 256 14 14 (50176)
I0529 15:55:55.052901 28727 net.cpp:156] Memory required for data: 214753284
I0529 15:55:55.052908 28727 layer_factory.hpp:77] Creating layer res4f_branch2b_relu
I0529 15:55:55.052918 28727 net.cpp:91] Creating Layer res4f_branch2b_relu
I0529 15:55:55.052923 28727 net.cpp:425] res4f_branch2b_relu <- res4f_branch2b
I0529 15:55:55.052930 28727 net.cpp:386] res4f_branch2b_relu -> res4f_branch2b (in-place)
I0529 15:55:55.053356 28727 net.cpp:141] Setting up res4f_branch2b_relu
I0529 15:55:55.053372 28727 net.cpp:148] Top shape: 1 256 14 14 (50176)
I0529 15:55:55.053377 28727 net.cpp:156] Memory required for data: 214953988
I0529 15:55:55.053381 28727 layer_factory.hpp:77] Creating layer res4f_branch2c
I0529 15:55:55.053392 28727 net.cpp:91] Creating Layer res4f_branch2c
I0529 15:55:55.053397 28727 net.cpp:425] res4f_branch2c <- res4f_branch2b
I0529 15:55:55.053406 28727 net.cpp:399] res4f_branch2c -> res4f_branch2c
I0529 15:55:55.055706 28727 net.cpp:141] Setting up res4f_branch2c
I0529 15:55:55.055727 28727 net.cpp:148] Top shape: 1 1024 14 14 (200704)
I0529 15:55:55.055732 28727 net.cpp:156] Memory required for data: 215756804
I0529 15:55:55.055738 28727 layer_factory.hpp:77] Creating layer bn4f_branch2c
I0529 15:55:55.055747 28727 net.cpp:91] Creating Layer bn4f_branch2c
I0529 15:55:55.055752 28727 net.cpp:425] bn4f_branch2c <- res4f_branch2c
I0529 15:55:55.055760 28727 net.cpp:386] bn4f_branch2c -> res4f_branch2c (in-place)
I0529 15:55:55.056067 28727 net.cpp:141] Setting up bn4f_branch2c
I0529 15:55:55.056078 28727 net.cpp:148] Top shape: 1 1024 14 14 (200704)
I0529 15:55:55.056082 28727 net.cpp:156] Memory required for data: 216559620
I0529 15:55:55.056133 28727 layer_factory.hpp:77] Creating layer scale4f_branch2c
I0529 15:55:55.056144 28727 net.cpp:91] Creating Layer scale4f_branch2c
I0529 15:55:55.056149 28727 net.cpp:425] scale4f_branch2c <- res4f_branch2c
I0529 15:55:55.056155 28727 net.cpp:386] scale4f_branch2c -> res4f_branch2c (in-place)
I0529 15:55:55.056224 28727 layer_factory.hpp:77] Creating layer scale4f_branch2c
I0529 15:55:55.056399 28727 net.cpp:141] Setting up scale4f_branch2c
I0529 15:55:55.056427 28727 net.cpp:148] Top shape: 1 1024 14 14 (200704)
I0529 15:55:55.056432 28727 net.cpp:156] Memory required for data: 217362436
I0529 15:55:55.056438 28727 layer_factory.hpp:77] Creating layer res4f
I0529 15:55:55.056452 28727 net.cpp:91] Creating Layer res4f
I0529 15:55:55.056459 28727 net.cpp:425] res4f <- res4e_res4e_relu_0_split_1
I0529 15:55:55.056465 28727 net.cpp:425] res4f <- res4f_branch2c
I0529 15:55:55.056470 28727 net.cpp:399] res4f -> res4f
I0529 15:55:55.056519 28727 net.cpp:141] Setting up res4f
I0529 15:55:55.056529 28727 net.cpp:148] Top shape: 1 1024 14 14 (200704)
I0529 15:55:55.056532 28727 net.cpp:156] Memory required for data: 218165252
I0529 15:55:55.056536 28727 layer_factory.hpp:77] Creating layer res4f_relu
I0529 15:55:55.056542 28727 net.cpp:91] Creating Layer res4f_relu
I0529 15:55:55.056550 28727 net.cpp:425] res4f_relu <- res4f
I0529 15:55:55.056557 28727 net.cpp:386] res4f_relu -> res4f (in-place)
I0529 15:55:55.056972 28727 net.cpp:141] Setting up res4f_relu
I0529 15:55:55.056988 28727 net.cpp:148] Top shape: 1 1024 14 14 (200704)
I0529 15:55:55.056993 28727 net.cpp:156] Memory required for data: 218968068
I0529 15:55:55.056996 28727 layer_factory.hpp:77] Creating layer res4f_res4f_relu_0_split
I0529 15:55:55.057004 28727 net.cpp:91] Creating Layer res4f_res4f_relu_0_split
I0529 15:55:55.057009 28727 net.cpp:425] res4f_res4f_relu_0_split <- res4f
I0529 15:55:55.057020 28727 net.cpp:399] res4f_res4f_relu_0_split -> res4f_res4f_relu_0_split_0
I0529 15:55:55.057029 28727 net.cpp:399] res4f_res4f_relu_0_split -> res4f_res4f_relu_0_split_1
I0529 15:55:55.057101 28727 net.cpp:141] Setting up res4f_res4f_relu_0_split
I0529 15:55:55.057111 28727 net.cpp:148] Top shape: 1 1024 14 14 (200704)
I0529 15:55:55.057116 28727 net.cpp:148] Top shape: 1 1024 14 14 (200704)
I0529 15:55:55.057121 28727 net.cpp:156] Memory required for data: 220573700
I0529 15:55:55.057126 28727 layer_factory.hpp:77] Creating layer res5a_branch1
I0529 15:55:55.057139 28727 net.cpp:91] Creating Layer res5a_branch1
I0529 15:55:55.057145 28727 net.cpp:425] res5a_branch1 <- res4f_res4f_relu_0_split_0
I0529 15:55:55.057152 28727 net.cpp:399] res5a_branch1 -> res5a_branch1
I0529 15:55:55.063419 28727 net.cpp:141] Setting up res5a_branch1
I0529 15:55:55.063437 28727 net.cpp:148] Top shape: 1 2048 7 7 (100352)
I0529 15:55:55.063443 28727 net.cpp:156] Memory required for data: 220975108
I0529 15:55:55.063452 28727 layer_factory.hpp:77] Creating layer bn5a_branch1
I0529 15:55:55.063462 28727 net.cpp:91] Creating Layer bn5a_branch1
I0529 15:55:55.063468 28727 net.cpp:425] bn5a_branch1 <- res5a_branch1
I0529 15:55:55.063479 28727 net.cpp:386] bn5a_branch1 -> res5a_branch1 (in-place)
I0529 15:55:55.063798 28727 net.cpp:141] Setting up bn5a_branch1
I0529 15:55:55.063808 28727 net.cpp:148] Top shape: 1 2048 7 7 (100352)
I0529 15:55:55.063812 28727 net.cpp:156] Memory required for data: 221376516
I0529 15:55:55.063820 28727 layer_factory.hpp:77] Creating layer scale5a_branch1
I0529 15:55:55.063829 28727 net.cpp:91] Creating Layer scale5a_branch1
I0529 15:55:55.063833 28727 net.cpp:425] scale5a_branch1 <- res5a_branch1
I0529 15:55:55.063839 28727 net.cpp:386] scale5a_branch1 -> res5a_branch1 (in-place)
I0529 15:55:55.063900 28727 layer_factory.hpp:77] Creating layer scale5a_branch1
I0529 15:55:55.064075 28727 net.cpp:141] Setting up scale5a_branch1
I0529 15:55:55.064085 28727 net.cpp:148] Top shape: 1 2048 7 7 (100352)
I0529 15:55:55.064090 28727 net.cpp:156] Memory required for data: 221777924
I0529 15:55:55.064096 28727 layer_factory.hpp:77] Creating layer res5a_branch2a
I0529 15:55:55.064106 28727 net.cpp:91] Creating Layer res5a_branch2a
I0529 15:55:55.064113 28727 net.cpp:425] res5a_branch2a <- res4f_res4f_relu_0_split_1
I0529 15:55:55.064121 28727 net.cpp:399] res5a_branch2a -> res5a_branch2a
I0529 15:55:55.066900 28727 net.cpp:141] Setting up res5a_branch2a
I0529 15:55:55.066920 28727 net.cpp:148] Top shape: 1 512 7 7 (25088)
I0529 15:55:55.066923 28727 net.cpp:156] Memory required for data: 221878276
I0529 15:55:55.066946 28727 layer_factory.hpp:77] Creating layer bn5a_branch2a
I0529 15:55:55.066954 28727 net.cpp:91] Creating Layer bn5a_branch2a
I0529 15:55:55.066964 28727 net.cpp:425] bn5a_branch2a <- res5a_branch2a
I0529 15:55:55.066970 28727 net.cpp:386] bn5a_branch2a -> res5a_branch2a (in-place)
I0529 15:55:55.067276 28727 net.cpp:141] Setting up bn5a_branch2a
I0529 15:55:55.067287 28727 net.cpp:148] Top shape: 1 512 7 7 (25088)
I0529 15:55:55.067291 28727 net.cpp:156] Memory required for data: 221978628
I0529 15:55:55.067301 28727 layer_factory.hpp:77] Creating layer scale5a_branch2a
I0529 15:55:55.067312 28727 net.cpp:91] Creating Layer scale5a_branch2a
I0529 15:55:55.067317 28727 net.cpp:425] scale5a_branch2a <- res5a_branch2a
I0529 15:55:55.067322 28727 net.cpp:386] scale5a_branch2a -> res5a_branch2a (in-place)
I0529 15:55:55.067379 28727 layer_factory.hpp:77] Creating layer scale5a_branch2a
I0529 15:55:55.067559 28727 net.cpp:141] Setting up scale5a_branch2a
I0529 15:55:55.067570 28727 net.cpp:148] Top shape: 1 512 7 7 (25088)
I0529 15:55:55.067574 28727 net.cpp:156] Memory required for data: 222078980
I0529 15:55:55.067580 28727 layer_factory.hpp:77] Creating layer res5a_branch2a_relu
I0529 15:55:55.067589 28727 net.cpp:91] Creating Layer res5a_branch2a_relu
I0529 15:55:55.067594 28727 net.cpp:425] res5a_branch2a_relu <- res5a_branch2a
I0529 15:55:55.067600 28727 net.cpp:386] res5a_branch2a_relu -> res5a_branch2a (in-place)
I0529 15:55:55.067843 28727 net.cpp:141] Setting up res5a_branch2a_relu
I0529 15:55:55.067857 28727 net.cpp:148] Top shape: 1 512 7 7 (25088)
I0529 15:55:55.067862 28727 net.cpp:156] Memory required for data: 222179332
I0529 15:55:55.067865 28727 layer_factory.hpp:77] Creating layer res5a_branch2b
I0529 15:55:55.067873 28727 net.cpp:91] Creating Layer res5a_branch2b
I0529 15:55:55.067878 28727 net.cpp:425] res5a_branch2b <- res5a_branch2a
I0529 15:55:55.067885 28727 net.cpp:399] res5a_branch2b -> res5a_branch2b
I0529 15:55:55.074561 28727 net.cpp:141] Setting up res5a_branch2b
I0529 15:55:55.074584 28727 net.cpp:148] Top shape: 1 512 7 7 (25088)
I0529 15:55:55.074587 28727 net.cpp:156] Memory required for data: 222279684
I0529 15:55:55.074594 28727 layer_factory.hpp:77] Creating layer bn5a_branch2b
I0529 15:55:55.074605 28727 net.cpp:91] Creating Layer bn5a_branch2b
I0529 15:55:55.074610 28727 net.cpp:425] bn5a_branch2b <- res5a_branch2b
I0529 15:55:55.074618 28727 net.cpp:386] bn5a_branch2b -> res5a_branch2b (in-place)
I0529 15:55:55.074913 28727 net.cpp:141] Setting up bn5a_branch2b
I0529 15:55:55.074924 28727 net.cpp:148] Top shape: 1 512 7 7 (25088)
I0529 15:55:55.074928 28727 net.cpp:156] Memory required for data: 222380036
I0529 15:55:55.074936 28727 layer_factory.hpp:77] Creating layer scale5a_branch2b
I0529 15:55:55.074944 28727 net.cpp:91] Creating Layer scale5a_branch2b
I0529 15:55:55.074949 28727 net.cpp:425] scale5a_branch2b <- res5a_branch2b
I0529 15:55:55.074952 28727 net.cpp:386] scale5a_branch2b -> res5a_branch2b (in-place)
I0529 15:55:55.075011 28727 layer_factory.hpp:77] Creating layer scale5a_branch2b
I0529 15:55:55.075189 28727 net.cpp:141] Setting up scale5a_branch2b
I0529 15:55:55.075201 28727 net.cpp:148] Top shape: 1 512 7 7 (25088)
I0529 15:55:55.075203 28727 net.cpp:156] Memory required for data: 222480388
I0529 15:55:55.075211 28727 layer_factory.hpp:77] Creating layer res5a_branch2b_relu
I0529 15:55:55.075219 28727 net.cpp:91] Creating Layer res5a_branch2b_relu
I0529 15:55:55.075223 28727 net.cpp:425] res5a_branch2b_relu <- res5a_branch2b
I0529 15:55:55.075229 28727 net.cpp:386] res5a_branch2b_relu -> res5a_branch2b (in-place)
I0529 15:55:55.075469 28727 net.cpp:141] Setting up res5a_branch2b_relu
I0529 15:55:55.075480 28727 net.cpp:148] Top shape: 1 512 7 7 (25088)
I0529 15:55:55.075484 28727 net.cpp:156] Memory required for data: 222580740
I0529 15:55:55.075487 28727 layer_factory.hpp:77] Creating layer res5a_branch2c
I0529 15:55:55.075497 28727 net.cpp:91] Creating Layer res5a_branch2c
I0529 15:55:55.075502 28727 net.cpp:425] res5a_branch2c <- res5a_branch2b
I0529 15:55:55.075525 28727 net.cpp:399] res5a_branch2c -> res5a_branch2c
I0529 15:55:55.079167 28727 net.cpp:141] Setting up res5a_branch2c
I0529 15:55:55.079185 28727 net.cpp:148] Top shape: 1 2048 7 7 (100352)
I0529 15:55:55.079190 28727 net.cpp:156] Memory required for data: 222982148
I0529 15:55:55.079196 28727 layer_factory.hpp:77] Creating layer bn5a_branch2c
I0529 15:55:55.079205 28727 net.cpp:91] Creating Layer bn5a_branch2c
I0529 15:55:55.079210 28727 net.cpp:425] bn5a_branch2c <- res5a_branch2c
I0529 15:55:55.079216 28727 net.cpp:386] bn5a_branch2c -> res5a_branch2c (in-place)
I0529 15:55:55.079514 28727 net.cpp:141] Setting up bn5a_branch2c
I0529 15:55:55.079525 28727 net.cpp:148] Top shape: 1 2048 7 7 (100352)
I0529 15:55:55.079530 28727 net.cpp:156] Memory required for data: 223383556
I0529 15:55:55.079537 28727 layer_factory.hpp:77] Creating layer scale5a_branch2c
I0529 15:55:55.079545 28727 net.cpp:91] Creating Layer scale5a_branch2c
I0529 15:55:55.079548 28727 net.cpp:425] scale5a_branch2c <- res5a_branch2c
I0529 15:55:55.079555 28727 net.cpp:386] scale5a_branch2c -> res5a_branch2c (in-place)
I0529 15:55:55.079613 28727 layer_factory.hpp:77] Creating layer scale5a_branch2c
I0529 15:55:55.079790 28727 net.cpp:141] Setting up scale5a_branch2c
I0529 15:55:55.079803 28727 net.cpp:148] Top shape: 1 2048 7 7 (100352)
I0529 15:55:55.079807 28727 net.cpp:156] Memory required for data: 223784964
I0529 15:55:55.079813 28727 layer_factory.hpp:77] Creating layer res5a
I0529 15:55:55.079820 28727 net.cpp:91] Creating Layer res5a
I0529 15:55:55.079824 28727 net.cpp:425] res5a <- res5a_branch1
I0529 15:55:55.079829 28727 net.cpp:425] res5a <- res5a_branch2c
I0529 15:55:55.079835 28727 net.cpp:399] res5a -> res5a
I0529 15:55:55.079877 28727 net.cpp:141] Setting up res5a
I0529 15:55:55.079886 28727 net.cpp:148] Top shape: 1 2048 7 7 (100352)
I0529 15:55:55.079890 28727 net.cpp:156] Memory required for data: 224186372
I0529 15:55:55.079893 28727 layer_factory.hpp:77] Creating layer res5a_relu
I0529 15:55:55.079900 28727 net.cpp:91] Creating Layer res5a_relu
I0529 15:55:55.079905 28727 net.cpp:425] res5a_relu <- res5a
I0529 15:55:55.079910 28727 net.cpp:386] res5a_relu -> res5a (in-place)
I0529 15:55:55.080314 28727 net.cpp:141] Setting up res5a_relu
I0529 15:55:55.080329 28727 net.cpp:148] Top shape: 1 2048 7 7 (100352)
I0529 15:55:55.080333 28727 net.cpp:156] Memory required for data: 224587780
I0529 15:55:55.080338 28727 layer_factory.hpp:77] Creating layer res5a_res5a_relu_0_split
I0529 15:55:55.080348 28727 net.cpp:91] Creating Layer res5a_res5a_relu_0_split
I0529 15:55:55.080353 28727 net.cpp:425] res5a_res5a_relu_0_split <- res5a
I0529 15:55:55.080359 28727 net.cpp:399] res5a_res5a_relu_0_split -> res5a_res5a_relu_0_split_0
I0529 15:55:55.080366 28727 net.cpp:399] res5a_res5a_relu_0_split -> res5a_res5a_relu_0_split_1
I0529 15:55:55.080436 28727 net.cpp:141] Setting up res5a_res5a_relu_0_split
I0529 15:55:55.080446 28727 net.cpp:148] Top shape: 1 2048 7 7 (100352)
I0529 15:55:55.080451 28727 net.cpp:148] Top shape: 1 2048 7 7 (100352)
…
I0529 15:55:55.212517 28727 net.cpp:91] Creating Layer res4c_res4c_relu_0_split
I0529 15:55:55.212519 28727 net.cpp:425] res4c_res4c_relu_0_split <- res4c
I0529 15:55:55.212525 28727 net.cpp:399] res4c_res4c_relu_0_split -> res4c_res4c_relu_0_split_0
I0529 15:55:55.212530 28727 net.cpp:399] res4c_res4c_relu_0_split -> res4c_res4c_relu_0_split_1
I0529 15:55:55.212575 28727 net.cpp:141] Setting up res4c_res4c_relu_0_split
I0529 15:55:55.212580 28727 net.cpp:148] Top shape: 10 1024 14 14 (2007040)
I0529 15:55:55.212584 28727 net.cpp:148] Top shape: 10 1024 14 14 (2007040)
I0529 15:55:55.212586 28727 net.cpp:156] Memory required for data: 1988976680
I0529 15:55:55.212589 28727 layer_factory.hpp:77] Creating layer res4d_branch2a
I0529 15:55:55.212595 28727 net.cpp:91] Creating Layer res4d_branch2a
I0529 15:55:55.212599 28727 net.cpp:425] res4d_branch2a <- res4c_res4c_relu_0_split_0
I0529 15:55:55.212604 28727 net.cpp:399] res4d_branch2a -> res4d_branch2a
I0529 15:55:55.214238 28727 net.cpp:141] Setting up res4d_branch2a
I0529 15:55:55.214249 28727 net.cpp:148] Top shape: 10 256 14 14 (501760)
I0529 15:55:55.214252 28727 net.cpp:156] Memory required for data: 1990983720
I0529 15:55:55.214257 28727 layer_factory.hpp:77] Creating layer bn4d_branch2a
I0529 15:55:55.214264 28727 net.cpp:91] Creating Layer bn4d_branch2a
I0529 15:55:55.214267 28727 net.cpp:425] bn4d_branch2a <- res4d_branch2a
I0529 15:55:55.214272 28727 net.cpp:386] bn4d_branch2a -> res4d_branch2a (in-place)
I0529 15:55:55.214470 28727 net.cpp:141] Setting up bn4d_branch2a
I0529 15:55:55.214476 28727 net.cpp:148] Top shape: 10 256 14 14 (501760)
I0529 15:55:55.214478 28727 net.cpp:156] Memory required for data: 1992990760
I0529 15:55:55.214484 28727 layer_factory.hpp:77] Creating layer scale4d_branch2a
I0529 15:55:55.214490 28727 net.cpp:91] Creating Layer scale4d_branch2a
I0529 15:55:55.214493 28727 net.cpp:425] scale4d_branch2a <- res4d_branch2a
I0529 15:55:55.214500 28727 net.cpp:386] scale4d_branch2a -> res4d_branch2a (in-place)
I0529 15:55:55.214541 28727 layer_factory.hpp:77] Creating layer scale4d_branch2a
I0529 15:55:55.214648 28727 net.cpp:141] Setting up scale4d_branch2a
I0529 15:55:55.214654 28727 net.cpp:148] Top shape: 10 256 14 14 (501760)
I0529 15:55:55.214656 28727 net.cpp:156] Memory required for data: 1994997800
I0529 15:55:55.214671 28727 layer_factory.hpp:77] Creating layer res4d_branch2a_relu
I0529 15:55:55.214676 28727 net.cpp:91] Creating Layer res4d_branch2a_relu
I0529 15:55:55.214679 28727 net.cpp:425] res4d_branch2a_relu <- res4d_branch2a
I0529 15:55:55.214684 28727 net.cpp:386] res4d_branch2a_relu -> res4d_branch2a (in-place)
I0529 15:55:55.215024 28727 net.cpp:141] Setting up res4d_branch2a_relu
I0529 15:55:55.215034 28727 net.cpp:148] Top shape: 10 256 14 14 (501760)
I0529 15:55:55.215036 28727 net.cpp:156] Memory required for data: 1997004840
I0529 15:55:55.215039 28727 layer_factory.hpp:77] Creating layer res4d_branch2b
I0529 15:55:55.215046 28727 net.cpp:91] Creating Layer res4d_branch2b
I0529 15:55:55.215049 28727 net.cpp:425] res4d_branch2b <- res4d_branch2a
I0529 15:55:55.215055 28727 net.cpp:399] res4d_branch2b -> res4d_branch2b
I0529 15:55:55.217195 28727 net.cpp:141] Setting up res4d_branch2b
I0529 15:55:55.217206 28727 net.cpp:148] Top shape: 10 256 14 14 (501760)
I0529 15:55:55.217208 28727 net.cpp:156] Memory required for data: 1999011880
I0529 15:55:55.217213 28727 layer_factory.hpp:77] Creating layer bn4d_branch2b
I0529 15:55:55.217221 28727 net.cpp:91] Creating Layer bn4d_branch2b
I0529 15:55:55.217223 28727 net.cpp:425] bn4d_branch2b <- res4d_branch2b
I0529 15:55:55.217227 28727 net.cpp:386] bn4d_branch2b -> res4d_branch2b (in-place)
I0529 15:55:55.217427 28727 net.cpp:141] Setting up bn4d_branch2b
I0529 15:55:55.217432 28727 net.cpp:148] Top shape: 10 256 14 14 (501760)
I0529 15:55:55.217434 28727 net.cpp:156] Memory required for data: 2001018920
I0529 15:55:55.217442 28727 layer_factory.hpp:77] Creating layer scale4d_branch2b
I0529 15:55:55.217447 28727 net.cpp:91] Creating Layer scale4d_branch2b
I0529 15:55:55.217450 28727 net.cpp:425] scale4d_branch2b <- res4d_branch2b
I0529 15:55:55.217454 28727 net.cpp:386] scale4d_branch2b -> res4d_branch2b (in-place)
I0529 15:55:55.217495 28727 layer_factory.hpp:77] Creating layer scale4d_branch2b
I0529 15:55:55.217604 28727 net.cpp:141] Setting up scale4d_branch2b
I0529 15:55:55.217609 28727 net.cpp:148] Top shape: 10 256 14 14 (501760)
I0529 15:55:55.217612 28727 net.cpp:156] Memory required for data: 2003025960
I0529 15:55:55.217617 28727 layer_factory.hpp:77] Creating layer res4d_branch2b_relu
I0529 15:55:55.217622 28727 net.cpp:91] Creating Layer res4d_branch2b_relu
I0529 15:55:55.217624 28727 net.cpp:425] res4d_branch2b_relu <- res4d_branch2b
I0529 15:55:55.217628 28727 net.cpp:386] res4d_branch2b_relu -> res4d_branch2b (in-place)
I0529 15:55:55.217854 28727 net.cpp:141] Setting up res4d_branch2b_relu
I0529 15:55:55.217861 28727 net.cpp:148] Top shape: 10 256 14 14 (501760)
I0529 15:55:55.217864 28727 net.cpp:156] Memory required for data: 2005033000
I0529 15:55:55.217867 28727 layer_factory.hpp:77] Creating layer res4d_branch2c
I0529 15:55:55.217875 28727 net.cpp:91] Creating Layer res4d_branch2c
I0529 15:55:55.217877 28727 net.cpp:425] res4d_branch2c <- res4d_branch2b
I0529 15:55:55.217882 28727 net.cpp:399] res4d_branch2c -> res4d_branch2c
I0529 15:55:55.219552 28727 net.cpp:141] Setting up res4d_branch2c
I0529 15:55:55.219563 28727 net.cpp:148] Top shape: 10 1024 14 14 (2007040)
I0529 15:55:55.219566 28727 net.cpp:156] Memory required for data: 2013061160
I0529 15:55:55.219571 28727 layer_factory.hpp:77] Creating layer bn4d_branch2c
I0529 15:55:55.219576 28727 net.cpp:91] Creating Layer bn4d_branch2c
I0529 15:55:55.219580 28727 net.cpp:425] bn4d_branch2c <- res4d_branch2c
I0529 15:55:55.219585 28727 net.cpp:386] bn4d_branch2c -> res4d_branch2c (in-place)
I0529 15:55:55.219807 28727 net.cpp:141] Setting up bn4d_branch2c
I0529 15:55:55.219813 28727 net.cpp:148] Top shape: 10 1024 14 14 (2007040)
I0529 15:55:55.219815 28727 net.cpp:156] Memory required for data: 2021089320
I0529 15:55:55.219821 28727 layer_factory.hpp:77] Creating layer scale4d_branch2c
I0529 15:55:55.219826 28727 net.cpp:91] Creating Layer scale4d_branch2c
I0529 15:55:55.219830 28727 net.cpp:425] scale4d_branch2c <- res4d_branch2c
I0529 15:55:55.219833 28727 net.cpp:386] scale4d_branch2c -> res4d_branch2c (in-place)
I0529 15:55:55.219899 28727 layer_factory.hpp:77] Creating layer scale4d_branch2c
I0529 15:55:55.220031 28727 net.cpp:141] Setting up scale4d_branch2c
I0529 15:55:55.220036 28727 net.cpp:148] Top shape: 10 1024 14 14 (2007040)
I0529 15:55:55.220038 28727 net.cpp:156] Memory required for data: 2029117480
I0529 15:55:55.220043 28727 layer_factory.hpp:77] Creating layer res4d
I0529 15:55:55.220048 28727 net.cpp:91] Creating Layer res4d
I0529 15:55:55.220052 28727 net.cpp:425] res4d <- res4c_res4c_relu_0_split_1
I0529 15:55:55.220054 28727 net.cpp:425] res4d <- res4d_branch2c
I0529 15:55:55.220062 28727 net.cpp:399] res4d -> res4d
I0529 15:55:55.220087 28727 net.cpp:141] Setting up res4d
I0529 15:55:55.220091 28727 net.cpp:148] Top shape: 10 1024 14 14 (2007040)
I0529 15:55:55.220093 28727 net.cpp:156] Memory required for data: 2037145640
I0529 15:55:55.220096 28727 layer_factory.hpp:77] Creating layer res4d_relu
I0529 15:55:55.220101 28727 net.cpp:91] Creating Layer res4d_relu
I0529 15:55:55.220104 28727 net.cpp:425] res4d_relu <- res4d
I0529 15:55:55.220108 28727 net.cpp:386] res4d_relu -> res4d (in-place)
I0529 15:55:55.220458 28727 net.cpp:141] Setting up res4d_relu
I0529 15:55:55.220468 28727 net.cpp:148] Top shape: 10 1024 14 14 (2007040)
I0529 15:55:55.220469 28727 net.cpp:156] Memory required for data: 2045173800
I0529 15:55:55.220474 28727 layer_factory.hpp:77] Creating layer res4d_res4d_relu_0_split
I0529 15:55:55.220481 28727 net.cpp:91] Creating Layer res4d_res4d_relu_0_split
I0529 15:55:55.220484 28727 net.cpp:425] res4d_res4d_relu_0_split <- res4d
I0529 15:55:55.220489 28727 net.cpp:399] res4d_res4d_relu_0_split -> res4d_res4d_relu_0_split_0
I0529 15:55:55.220495 28727 net.cpp:399] res4d_res4d_relu_0_split -> res4d_res4d_relu_0_split_1
I0529 15:55:55.220541 28727 net.cpp:141] Setting up res4d_res4d_relu_0_split
I0529 15:55:55.220547 28727 net.cpp:148] Top shape: 10 1024 14 14 (2007040)
I0529 15:55:55.220551 28727 net.cpp:148] Top shape: 10 1024 14 14 (2007040)
I0529 15:55:55.220553 28727 net.cpp:156] Memory required for data: 2061230120
I0529 15:55:55.220556 28727 layer_factory.hpp:77] Creating layer res4e_branch2a
I0529 15:55:55.220561 28727 net.cpp:91] Creating Layer res4e_branch2a
I0529 15:55:55.220564 28727 net.cpp:425] res4e_branch2a <- res4d_res4d_relu_0_split_0
I0529 15:55:55.220569 28727 net.cpp:399] res4e_branch2a -> res4e_branch2a
I0529 15:55:55.222218 28727 net.cpp:141] Setting up res4e_branch2a
I0529 15:55:55.222229 28727 net.cpp:148] Top shape: 10 256 14 14 (501760)
I0529 15:55:55.222232 28727 net.cpp:156] Memory required for data: 2063237160
I0529 15:55:55.222239 28727 layer_factory.hpp:77] Creating layer bn4e_branch2a
I0529 15:55:55.222244 28727 net.cpp:91] Creating Layer bn4e_branch2a
I0529 15:55:55.222247 28727 net.cpp:425] bn4e_branch2a <- res4e_branch2a
I0529 15:55:55.222252 28727 net.cpp:386] bn4e_branch2a -> res4e_branch2a (in-place)
I0529 15:55:55.222451 28727 net.cpp:141] Setting up bn4e_branch2a
I0529 15:55:55.222457 28727 net.cpp:148] Top shape: 10 256 14 14 (501760)
I0529 15:55:55.222460 28727 net.cpp:156] Memory required for data: 2065244200
I0529 15:55:55.222466 28727 layer_factory.hpp:77] Creating layer scale4e_branch2a
I0529 15:55:55.222475 28727 net.cpp:91] Creating Layer scale4e_branch2a
I0529 15:55:55.222477 28727 net.cpp:425] scale4e_branch2a <- res4e_branch2a
I0529 15:55:55.222481 28727 net.cpp:386] scale4e_branch2a -> res4e_branch2a (in-place)
I0529 15:55:55.222525 28727 layer_factory.hpp:77] Creating layer scale4e_branch2a
I0529 15:55:55.222635 28727 net.cpp:141] Setting up scale4e_branch2a
I0529 15:55:55.222640 28727 net.cpp:148] Top shape: 10 256 14 14 (501760)
I0529 15:55:55.222643 28727 net.cpp:156] Memory required for data: 2067251240
I0529 15:55:55.222648 28727 layer_factory.hpp:77] Creating layer res4e_branch2a_relu
I0529 15:55:55.222652 28727 net.cpp:91] Creating Layer res4e_branch2a_relu
I0529 15:55:55.222656 28727 net.cpp:425] res4e_branch2a_relu <- res4e_branch2a
I0529 15:55:55.222659 28727 net.cpp:386] res4e_branch2a_relu -> res4e_branch2a (in-place)
I0529 15:55:55.223014 28727 net.cpp:141] Setting up res4e_branch2a_relu
I0529 15:55:55.223024 28727 net.cpp:148] Top shape: 10 256 14 14 (501760)
I0529 15:55:55.223027 28727 net.cpp:156] Memory required for data: 2069258280
I0529 15:55:55.223031 28727 layer_factory.hpp:77] Creating layer res4e_branch2b
I0529 15:55:55.223038 28727 net.cpp:91] Creating Layer res4e_branch2b
I0529 15:55:55.223042 28727 net.cpp:425] res4e_branch2b <- res4e_branch2a
I0529 15:55:55.223047 28727 net.cpp:399] res4e_branch2b -> res4e_branch2b
I0529 15:55:55.225250 28727 net.cpp:141] Setting up res4e_branch2b
I0529 15:55:55.225260 28727 net.cpp:148] Top shape: 10 256 14 14 (501760)
I0529 15:55:55.225263 28727 net.cpp:156] Memory required for data: 2071265320
I0529 15:55:55.225268 28727 layer_factory.hpp:77] Creating layer bn4e_branch2b
I0529 15:55:55.225275 28727 net.cpp:91] Creating Layer bn4e_branch2b
I0529 15:55:55.225278 28727 net.cpp:425] bn4e_branch2b <- res4e_branch2b
I0529 15:55:55.225283 28727 net.cpp:386] bn4e_branch2b -> res4e_branch2b (in-place)
I0529 15:55:55.225486 28727 net.cpp:141] Setting up bn4e_branch2b
I0529 15:55:55.225492 28727 net.cpp:148] Top shape: 10 256 14 14 (501760)
I0529 15:55:55.225495 28727 net.cpp:156] Memory required for data: 2073272360
I0529 15:55:55.225502 28727 layer_factory.hpp:77] Creating layer scale4e_branch2b
I0529 15:55:55.225507 28727 net.cpp:91] Creating Layer scale4e_branch2b
I0529 15:55:55.225509 28727 net.cpp:425] scale4e_branch2b <- res4e_branch2b
I0529 15:55:55.225512 28727 net.cpp:386] scale4e_branch2b -> res4e_branch2b (in-place)
I0529 15:55:55.225554 28727 layer_factory.hpp:77] Creating layer scale4e_branch2b
I0529 15:55:55.225664 28727 net.cpp:141] Setting up scale4e_branch2b
I0529 15:55:55.225669 28727 net.cpp:148] Top shape: 10 256 14 14 (501760)
I0529 15:55:55.225672 28727 net.cpp:156] Memory required for data: 2075279400
I0529 15:55:55.225677 28727 layer_factory.hpp:77] Creating layer res4e_branch2b_relu
I0529 15:55:55.225682 28727 net.cpp:91] Creating Layer res4e_branch2b_relu
I0529 15:55:55.225685 28727 net.cpp:425] res4e_branch2b_relu <- res4e_branch2b
I0529 15:55:55.225688 28727 net.cpp:386] res4e_branch2b_relu -> res4e_branch2b (in-place)
I0529 15:55:55.225878 28727 net.cpp:141] Setting up res4e_branch2b_relu
I0529 15:55:55.225884 28727 net.cpp:148] Top shape: 10 256 14 14 (501760)
I0529 15:55:55.225888 28727 net.cpp:156] Memory required for data: 2077286440
I0529 15:55:55.225889 28727 layer_factory.hpp:77] Creating layer res4e_branch2c
I0529 15:55:55.225898 28727 net.cpp:91] Creating Layer res4e_branch2c
I0529 15:55:55.225900 28727 net.cpp:425] res4e_branch2c <- res4e_branch2b
I0529 15:55:55.225905 28727 net.cpp:399] res4e_branch2c -> res4e_branch2c
I0529 15:55:55.227722 28727 net.cpp:141] Setting up res4e_branch2c
I0529 15:55:55.227733 28727 net.cpp:148] Top shape: 10 1024 14 14 (2007040)
I0529 15:55:55.227736 28727 net.cpp:156] Memory required for data: 2085314600
I0529 15:55:55.227741 28727 layer_factory.hpp:77] Creating layer bn4e_branch2c
I0529 15:55:55.227747 28727 net.cpp:91] Creating Layer bn4e_branch2c
I0529 15:55:55.227751 28727 net.cpp:425] bn4e_branch2c <- res4e_branch2c
I0529 15:55:55.227756 28727 net.cpp:386] bn4e_branch2c -> res4e_branch2c (in-place)
I0529 15:55:55.227984 28727 net.cpp:141] Setting up bn4e_branch2c
I0529 15:55:55.227990 28727 net.cpp:148] Top shape: 10 1024 14 14 (2007040)
I0529 15:55:55.227993 28727 net.cpp:156] Memory required for data: 2093342760
I0529 15:55:55.228000 28727 layer_factory.hpp:77] Creating layer scale4e_branch2c
I0529 15:55:55.228005 28727 net.cpp:91] Creating Layer scale4e_branch2c
I0529 15:55:55.228008 28727 net.cpp:425] scale4e_branch2c <- res4e_branch2c
I0529 15:55:55.228013 28727 net.cpp:386] scale4e_branch2c -> res4e_branch2c (in-place)
I0529 15:55:55.228065 28727 layer_factory.hpp:77] Creating layer scale4e_branch2c
I0529 15:55:55.228195 28727 net.cpp:141] Setting up scale4e_branch2c
I0529 15:55:55.228201 28727 net.cpp:148] Top shape: 10 1024 14 14 (2007040)
I0529 15:55:55.228204 28727 net.cpp:156] Memory required for data: 2101370920
I0529 15:55:55.228219 28727 layer_factory.hpp:77] Creating layer res4e
I0529 15:55:55.228225 28727 net.cpp:91] Creating Layer res4e
I0529 15:55:55.228229 28727 net.cpp:425] res4e <- res4d_res4d_relu_0_split_1
I0529 15:55:55.228231 28727 net.cpp:425] res4e <- res4e_branch2c
I0529 15:55:55.228235 28727 net.cpp:399] res4e -> res4e
I0529 15:55:55.228266 28727 net.cpp:141] Setting up res4e
I0529 15:55:55.228271 28727 net.cpp:148] Top shape: 10 1024 14 14 (2007040)
I0529 15:55:55.228273 28727 net.cpp:156] Memory required for data: 2109399080
I0529 15:55:55.228276 28727 layer_factory.hpp:77] Creating layer res4e_relu
I0529 15:55:55.228279 28727 net.cpp:91] Creating Layer res4e_relu
I0529 15:55:55.228282 28727 net.cpp:425] res4e_relu <- res4e
I0529 15:55:55.228286 28727 net.cpp:386] res4e_relu -> res4e (in-place)
I0529 15:55:55.228634 28727 net.cpp:141] Setting up res4e_relu
I0529 15:55:55.228643 28727 net.cpp:148] Top shape: 10 1024 14 14 (2007040)
I0529 15:55:55.228646 28727 net.cpp:156] Memory required for data: 2117427240
I0529 15:55:55.228649 28727 layer_factory.hpp:77] Creating layer res4e_res4e_relu_0_split
I0529 15:55:55.228655 28727 net.cpp:91] Creating Layer res4e_res4e_relu_0_split
I0529 15:55:55.228658 28727 net.cpp:425] res4e_res4e_relu_0_split <- res4e
I0529 15:55:55.228664 28727 net.cpp:399] res4e_res4e_relu_0_split -> res4e_res4e_relu_0_split_0
I0529 15:55:55.228669 28727 net.cpp:399] res4e_res4e_relu_0_split -> res4e_res4e_relu_0_split_1
I0529 15:55:55.228719 28727 net.cpp:141] Setting up res4e_res4e_relu_0_split
I0529 15:55:55.228724 28727 net.cpp:148] Top shape: 10 1024 14 14 (2007040)
I0529 15:55:55.228727 28727 net.cpp:148] Top shape: 10 1024 14 14 (2007040)
I0529 15:55:55.228729 28727 net.cpp:156] Memory required for data: 2133483560
I0529 15:55:55.228732 28727 layer_factory.hpp:77] Creating layer res4f_branch2a
I0529 15:55:55.228739 28727 net.cpp:91] Creating Layer res4f_branch2a
I0529 15:55:55.228741 28727 net.cpp:425] res4f_branch2a <- res4e_res4e_relu_0_split_0
I0529 15:55:55.228745 28727 net.cpp:399] res4f_branch2a -> res4f_branch2a
I0529 15:55:55.230398 28727 net.cpp:141] Setting up res4f_branch2a
I0529 15:55:55.230409 28727 net.cpp:148] Top shape: 10 256 14 14 (501760)
I0529 15:55:55.230412 28727 net.cpp:156] Memory required for data: 2135490600
I0529 15:55:55.230417 28727 layer_factory.hpp:77] Creating layer bn4f_branch2a
I0529 15:55:55.230424 28727 net.cpp:91] Creating Layer bn4f_branch2a
I0529 15:55:55.230427 28727 net.cpp:425] bn4f_branch2a <- res4f_branch2a
I0529 15:55:55.230432 28727 net.cpp:386] bn4f_branch2a -> res4f_branch2a (in-place)
I0529 15:55:55.230639 28727 net.cpp:141] Setting up bn4f_branch2a
I0529 15:55:55.230645 28727 net.cpp:148] Top shape: 10 256 14 14 (501760)
I0529 15:55:55.230648 28727 net.cpp:156] Memory required for data: 2137497640
I0529 15:55:55.230654 28727 layer_factory.hpp:77] Creating layer scale4f_branch2a
I0529 15:55:55.230659 28727 net.cpp:91] Creating Layer scale4f_branch2a
I0529 15:55:55.230662 28727 net.cpp:425] scale4f_branch2a <- res4f_branch2a
I0529 15:55:55.230669 28727 net.cpp:386] scale4f_branch2a -> res4f_branch2a (in-place)
I0529 15:55:55.230712 28727 layer_factory.hpp:77] Creating layer scale4f_branch2a
I0529 15:55:55.230829 28727 net.cpp:141] Setting up scale4f_branch2a
I0529 15:55:55.230835 28727 net.cpp:148] Top shape: 10 256 14 14 (501760)
I0529 15:55:55.230837 28727 net.cpp:156] Memory required for data: 2139504680
I0529 15:55:55.230842 28727 layer_factory.hpp:77] Creating layer res4f_branch2a_relu
I0529 15:55:55.230846 28727 net.cpp:91] Creating Layer res4f_branch2a_relu
I0529 15:55:55.230849 28727 net.cpp:425] res4f_branch2a_relu <- res4f_branch2a
I0529 15:55:55.230852 28727 net.cpp:386] res4f_branch2a_relu -> res4f_branch2a (in-place)
I0529 15:55:55.231194 28727 net.cpp:141] Setting up res4f_branch2a_relu
I0529 15:55:55.231204 28727 net.cpp:148] Top shape: 10 256 14 14 (501760)
I0529 15:55:55.231207 28727 net.cpp:156] Memory required for data: 2141511720
I0529 15:55:55.231210 28727 layer_factory.hpp:77] Creating layer res4f_branch2b
I0529 15:55:55.231227 28727 net.cpp:91] Creating Layer res4f_branch2b
I0529 15:55:55.231231 28727 net.cpp:425] res4f_branch2b <- res4f_branch2a
I0529 15:55:55.231237 28727 net.cpp:399] res4f_branch2b -> res4f_branch2b
I0529 15:55:55.233403 28727 net.cpp:141] Setting up res4f_branch2b
I0529 15:55:55.233415 28727 net.cpp:148] Top shape: 10 256 14 14 (501760)
I0529 15:55:55.233418 28727 net.cpp:156] Memory required for data: 2143518760
I0529 15:55:55.233423 28727 layer_factory.hpp:77] Creating layer bn4f_branch2b
I0529 15:55:55.233429 28727 net.cpp:91] Creating Layer bn4f_branch2b
I0529 15:55:55.233433 28727 net.cpp:425] bn4f_branch2b <- res4f_branch2b
I0529 15:55:55.233436 28727 net.cpp:386] bn4f_branch2b -> res4f_branch2b (in-place)
I0529 15:55:55.233640 28727 net.cpp:141] Setting up bn4f_branch2b
I0529 15:55:55.233646 28727 net.cpp:148] Top shape: 10 256 14 14 (501760)
I0529 15:55:55.233649 28727 net.cpp:156] Memory required for data: 2145525800
I0529 15:55:55.233655 28727 layer_factory.hpp:77] Creating layer scale4f_branch2b
I0529 15:55:55.233660 28727 net.cpp:91] Creating Layer scale4f_branch2b
I0529 15:55:55.233664 28727 net.cpp:425] scale4f_branch2b <- res4f_branch2b
I0529 15:55:55.233667 28727 net.cpp:386] scale4f_branch2b -> res4f_branch2b (in-place)
I0529 15:55:55.233712 28727 layer_factory.hpp:77] Creating layer scale4f_branch2b
I0529 15:55:55.233826 28727 net.cpp:141] Setting up scale4f_branch2b
I0529 15:55:55.233832 28727 net.cpp:148] Top shape: 10 256 14 14 (501760)
I0529 15:55:55.233834 28727 net.cpp:156] Memory required for data: 2147532840
I0529 15:55:55.233839 28727 layer_factory.hpp:77] Creating layer res4f_branch2b_relu
I0529 15:55:55.233844 28727 net.cpp:91] Creating Layer res4f_branch2b_relu
I0529 15:55:55.233846 28727 net.cpp:425] res4f_branch2b_relu <- res4f_branch2b
I0529 15:55:55.233852 28727 net.cpp:386] res4f_branch2b_relu -> res4f_branch2b (in-place)
I0529 15:55:55.234043 28727 net.cpp:141] Setting up res4f_branch2b_relu
I0529 15:55:55.234051 28727 net.cpp:148] Top shape: 10 256 14 14 (501760)
I0529 15:55:55.234053 28727 net.cpp:156] Memory required for data: 2149539880
I0529 15:55:55.234056 28727 layer_factory.hpp:77] Creating layer res4f_branch2c
I0529 15:55:55.234068 28727 net.cpp:91] Creating Layer res4f_branch2c
I0529 15:55:55.234072 28727 net.cpp:425] res4f_branch2c <- res4f_branch2b
I0529 15:55:55.234078 28727 net.cpp:399] res4f_branch2c -> res4f_branch2c
I0529 15:55:55.235774 28727 net.cpp:141] Setting up res4f_branch2c
I0529 15:55:55.235785 28727 net.cpp:148] Top shape: 10 1024 14 14 (2007040)
I0529 15:55:55.235786 28727 net.cpp:156] Memory required for data: 2157568040
I0529 15:55:55.235791 28727 layer_factory.hpp:77] Creating layer bn4f_branch2c
I0529 15:55:55.235798 28727 net.cpp:91] Creating Layer bn4f_branch2c
I0529 15:55:55.235802 28727 net.cpp:425] bn4f_branch2c <- res4f_branch2c
I0529 15:55:55.235806 28727 net.cpp:386] bn4f_branch2c -> res4f_branch2c (in-place)
I0529 15:55:55.236037 28727 net.cpp:141] Setting up bn4f_branch2c
I0529 15:55:55.236042 28727 net.cpp:148] Top shape: 10 1024 14 14 (2007040)
I0529 15:55:55.236044 28727 net.cpp:156] Memory required for data: 2165596200
I0529 15:55:55.236079 28727 layer_factory.hpp:77] Creating layer scale4f_branch2c
I0529 15:55:55.236085 28727 net.cpp:91] Creating Layer scale4f_branch2c
I0529 15:55:55.236088 28727 net.cpp:425] scale4f_branch2c <- res4f_branch2c
I0529 15:55:55.236091 28727 net.cpp:386] scale4f_branch2c -> res4f_branch2c (in-place)
I0529 15:55:55.236148 28727 layer_factory.hpp:77] Creating layer scale4f_branch2c
I0529 15:55:55.236282 28727 net.cpp:141] Setting up scale4f_branch2c
I0529 15:55:55.236289 28727 net.cpp:148] Top shape: 10 1024 14 14 (2007040)
I0529 15:55:55.236290 28727 net.cpp:156] Memory required for data: 2173624360
I0529 15:55:55.236295 28727 layer_factory.hpp:77] Creating layer res4f
I0529 15:55:55.236301 28727 net.cpp:91] Creating Layer res4f
I0529 15:55:55.236304 28727 net.cpp:425] res4f <- res4e_res4e_relu_0_split_1
I0529 15:55:55.236309 28727 net.cpp:425] res4f <- res4f_branch2c
I0529 15:55:55.236322 28727 net.cpp:399] res4f -> res4f
I0529 15:55:55.236353 28727 net.cpp:141] Setting up res4f
I0529 15:55:55.236358 28727 net.cpp:148] Top shape: 10 1024 14 14 (2007040)
I0529 15:55:55.236361 28727 net.cpp:156] Memory required for data: 2181652520
I0529 15:55:55.236363 28727 layer_factory.hpp:77] Creating layer res4f_relu
I0529 15:55:55.236367 28727 net.cpp:91] Creating Layer res4f_relu
I0529 15:55:55.236371 28727 net.cpp:425] res4f_relu <- res4f
I0529 15:55:55.236376 28727 net.cpp:386] res4f_relu -> res4f (in-place)
I0529 15:55:55.236729 28727 net.cpp:141] Setting up res4f_relu
I0529 15:55:55.236739 28727 net.cpp:148] Top shape: 10 1024 14 14 (2007040)
I0529 15:55:55.236742 28727 net.cpp:156] Memory required for data: 2189680680
I0529 15:55:55.236745 28727 layer_factory.hpp:77] Creating layer res4f_res4f_relu_0_split
I0529 15:55:55.236750 28727 net.cpp:91] Creating Layer res4f_res4f_relu_0_split
I0529 15:55:55.236753 28727 net.cpp:425] res4f_res4f_relu_0_split <- res4f
I0529 15:55:55.236759 28727 net.cpp:399] res4f_res4f_relu_0_split -> res4f_res4f_relu_0_split_0
I0529 15:55:55.236764 28727 net.cpp:399] res4f_res4f_relu_0_split -> res4f_res4f_relu_0_split_1
I0529 15:55:55.236814 28727 net.cpp:141] Setting up res4f_res4f_relu_0_split
I0529 15:55:55.236819 28727 net.cpp:148] Top shape: 10 1024 14 14 (2007040)
I0529 15:55:55.236822 28727 net.cpp:148] Top shape: 10 1024 14 14 (2007040)
I0529 15:55:55.236824 28727 net.cpp:156] Memory required for data: 2205737000
I0529 15:55:55.236827 28727 layer_factory.hpp:77] Creating layer res5a_branch1
I0529 15:55:55.236835 28727 net.cpp:91] Creating Layer res5a_branch1
I0529 15:55:55.236837 28727 net.cpp:425] res5a_branch1 <- res4f_res4f_relu_0_split_0
I0529 15:55:55.236841 28727 net.cpp:399] res5a_branch1 -> res5a_branch1
I0529 15:55:55.241695 28727 net.cpp:141] Setting up res5a_branch1
I0529 15:55:55.241719 28727 net.cpp:148] Top shape: 10 2048 7 7 (1003520)
I0529 15:55:55.241722 28727 net.cpp:156] Memory required for data: 2209751080
I0529 15:55:55.241730 28727 layer_factory.hpp:77] Creating layer bn5a_branch1
I0529 15:55:55.241745 28727 net.cpp:91] Creating Layer bn5a_branch1
I0529 15:55:55.241750 28727 net.cpp:425] bn5a_branch1 <- res5a_branch1
I0529 15:55:55.241756 28727 net.cpp:386] bn5a_branch1 -> res5a_branch1 (in-place)
I0529 15:55:55.242041 28727 net.cpp:141] Setting up bn5a_branch1
I0529 15:55:55.242048 28727 net.cpp:148] Top shape: 10 2048 7 7 (1003520)
I0529 15:55:55.242050 28727 net.cpp:156] Memory required for data: 2213765160
I0529 15:55:55.242058 28727 layer_factory.hpp:77] Creating layer scale5a_branch1
I0529 15:55:55.242072 28727 net.cpp:91] Creating Layer scale5a_branch1
I0529 15:55:55.242076 28727 net.cpp:425] scale5a_branch1 <- res5a_branch1
I0529 15:55:55.242081 28727 net.cpp:386] scale5a_branch1 -> res5a_branch1 (in-place)
I0529 15:55:55.242146 28727 layer_factory.hpp:77] Creating layer scale5a_branch1
I0529 15:55:55.242291 28727 net.cpp:141] Setting up scale5a_branch1
I0529 15:55:55.242297 28727 net.cpp:148] Top shape: 10 2048 7 7 (1003520)
I0529 15:55:55.242300 28727 net.cpp:156] Memory required for data: 2217779240
I0529 15:55:55.242305 28727 layer_factory.hpp:77] Creating layer res5a_branch2a
I0529 15:55:55.242313 28727 net.cpp:91] Creating Layer res5a_branch2a
I0529 15:55:55.242317 28727 net.cpp:425] res5a_branch2a <- res4f_res4f_relu_0_split_1
I0529 15:55:55.242321 28727 net.cpp:399] res5a_branch2a -> res5a_branch2a
I0529 15:55:55.244777 28727 net.cpp:141] Setting up res5a_branch2a
I0529 15:55:55.244793 28727 net.cpp:148] Top shape: 10 512 7 7 (250880)
I0529 15:55:55.244797 28727 net.cpp:156] Memory required for data: 2218782760
I0529 15:55:55.244802 28727 layer_factory.hpp:77] Creating layer bn5a_branch2a
I0529 15:55:55.244812 28727 net.cpp:91] Creating Layer bn5a_branch2a
I0529 15:55:55.244817 28727 net.cpp:425] bn5a_branch2a <- res5a_branch2a
I0529 15:55:55.244820 28727 net.cpp:386] bn5a_branch2a -> res5a_branch2a (in-place)
I0529 15:55:55.245070 28727 net.cpp:141] Setting up bn5a_branch2a
I0529 15:55:55.245076 28727 net.cpp:148] Top shape: 10 512 7 7 (250880)
I0529 15:55:55.245100 28727 net.cpp:156] Memory required for data: 2219786280
I0529 15:55:55.245106 28727 layer_factory.hpp:77] Creating layer scale5a_branch2a
I0529 15:55:55.245113 28727 net.cpp:91] Creating Layer scale5a_branch2a
I0529 15:55:55.245116 28727 net.cpp:425] scale5a_branch2a <- res5a_branch2a
I0529 15:55:55.245121 28727 net.cpp:386] scale5a_branch2a -> res5a_branch2a (in-place)
I0529 15:55:55.245183 28727 layer_factory.hpp:77] Creating layer scale5a_branch2a
I0529 15:55:55.245321 28727 net.cpp:141] Setting up scale5a_branch2a
I0529 15:55:55.245329 28727 net.cpp:148] Top shape: 10 512 7 7 (250880)
I0529 15:55:55.245332 28727 net.cpp:156] Memory required for data: 2220789800
I0529 15:55:55.245337 28727 layer_factory.hpp:77] Creating layer res5a_branch2a_relu
I0529 15:55:55.245342 28727 net.cpp:91] Creating Layer res5a_branch2a_relu
I0529 15:55:55.245344 28727 net.cpp:425] res5a_branch2a_relu <- res5a_branch2a
I0529 15:55:55.245348 28727 net.cpp:386] res5a_branch2a_relu -> res5a_branch2a (in-place)
I0529 15:55:55.245713 28727 net.cpp:141] Setting up res5a_branch2a_relu
I0529 15:55:55.245724 28727 net.cpp:148] Top shape: 10 512 7 7 (250880)
I0529 15:55:55.245726 28727 net.cpp:156] Memory required for data: 2221793320
I0529 15:55:55.245729 28727 layer_factory.hpp:77] Creating layer res5a_branch2b
I0529 15:55:55.245738 28727 net.cpp:91] Creating Layer res5a_branch2b
I0529 15:55:55.245740 28727 net.cpp:425] res5a_branch2b <- res5a_branch2a
I0529 15:55:55.245746 28727 net.cpp:399] res5a_branch2b -> res5a_branch2b
I0529 15:55:55.250622 28727 net.cpp:141] Setting up res5a_branch2b
I0529 15:55:55.250635 28727 net.cpp:148] Top shape: 10 512 7 7 (250880)
I0529 15:55:55.250638 28727 net.cpp:156] Memory required for data: 2222796840
I0529 15:55:55.250643 28727 layer_factory.hpp:77] Creating layer bn5a_branch2b
I0529 15:55:55.250649 28727 net.cpp:91] Creating Layer bn5a_branch2b
I0529 15:55:55.250654 28727 net.cpp:425] bn5a_branch2b <- res5a_branch2b
I0529 15:55:55.250659 28727 net.cpp:386] bn5a_branch2b -> res5a_branch2b (in-place)
I0529 15:55:55.250896 28727 net.cpp:141] Setting up bn5a_branch2b
I0529 15:55:55.250903 28727 net.cpp:148] Top shape: 10 512 7 7 (250880)
I0529 15:55:55.250905 28727 net.cpp:156] Memory required for data: 2223800360
I0529 15:55:55.250911 28727 layer_factory.hpp:77] Creating layer scale5a_branch2b
I0529 15:55:55.250918 28727 net.cpp:91] Creating Layer scale5a_branch2b
I0529 15:55:55.250921 28727 net.cpp:425] scale5a_branch2b <- res5a_branch2b
I0529 15:55:55.250926 28727 net.cpp:386] scale5a_branch2b -> res5a_branch2b (in-place)
I0529 15:55:55.250982 28727 layer_factory.hpp:77] Creating layer scale5a_branch2b
I0529 15:55:55.251117 28727 net.cpp:141] Setting up scale5a_branch2b
I0529 15:55:55.251123 28727 net.cpp:148] Top shape: 10 512 7 7 (250880)
I0529 15:55:55.251127 28727 net.cpp:156] Memory required for data: 2224803880
I0529 15:55:55.251132 28727 layer_factory.hpp:77] Creating layer res5a_branch2b_relu
I0529 15:55:55.251137 28727 net.cpp:91] Creating Layer res5a_branch2b_relu
I0529 15:55:55.251139 28727 net.cpp:425] res5a_branch2b_relu <- res5a_branch2b
I0529 15:55:55.251143 28727 net.cpp:386] res5a_branch2b_relu -> res5a_branch2b (in-place)
I0529 15:55:55.251343 28727 net.cpp:141] Setting up res5a_branch2b_relu
I0529 15:55:55.251350 28727 net.cpp:148] Top shape: 10 512 7 7 (250880)
I0529 15:55:55.251353 28727 net.cpp:156] Memory required for data: 2225807400
I0529 15:55:55.251356 28727 layer_factory.hpp:77] Creating layer res5a_branch2c
I0529 15:55:55.251363 28727 net.cpp:91] Creating Layer res5a_branch2c
I0529 15:55:55.251366 28727 net.cpp:425] res5a_branch2c <- res5a_branch2b
I0529 15:55:55.251370 28727 net.cpp:399] res5a_branch2c -> res5a_branch2c
I0529 15:55:55.254266 28727 net.cpp:141] Setting up res5a_branch2c
I0529 15:55:55.254279 28727 net.cpp:148] Top shape: 10 2048 7 7 (1003520)
I0529 15:55:55.254282 28727 net.cpp:156] Memory required for data: 2229821480
I0529 15:55:55.254287 28727 layer_factory.hpp:77] Creating layer bn5a_branch2c
I0529 15:55:55.254312 28727 net.cpp:91] Creating Layer bn5a_branch2c
I0529 15:55:55.254315 28727 net.cpp:425] bn5a_branch2c <- res5a_branch2c
I0529 15:55:55.254320 28727 net.cpp:386] bn5a_branch2c -> res5a_branch2c (in-place)
I0529 15:55:55.254570 28727 net.cpp:141] Setting up bn5a_branch2c
I0529 15:55:55.254575 28727 net.cpp:148] Top shape: 10 2048 7 7 (1003520)
I0529 15:55:55.254578 28727 net.cpp:156] Memory required for data: 2233835560
I0529 15:55:55.254585 28727 layer_factory.hpp:77] Creating layer scale5a_branch2c
I0529 15:55:55.254590 28727 net.cpp:91] Creating Layer scale5a_branch2c
I0529 15:55:55.254592 28727 net.cpp:425] scale5a_branch2c <- res5a_branch2c
I0529 15:55:55.254596 28727 net.cpp:386] scale5a_branch2c -> res5a_branch2c (in-place)
I0529 15:55:55.254652 28727 layer_factory.hpp:77] Creating layer scale5a_branch2c
I0529 15:55:55.254798 28727 net.cpp:141] Setting up scale5a_branch2c
I0529 15:55:55.254803 28727 net.cpp:148] Top shape: 10 2048 7 7 (1003520)
I0529 15:55:55.254806 28727 net.cpp:156] Memory required for data: 2237849640
I0529 15:55:55.254812 28727 layer_factory.hpp:77] Creating layer res5a
I0529 15:55:55.254817 28727 net.cpp:91] Creating Layer res5a
I0529 15:55:55.254819 28727 net.cpp:425] res5a <- res5a_branch1
I0529 15:55:55.254822 28727 net.cpp:425] res5a <- res5a_branch2c
I0529 15:55:55.254827 28727 net.cpp:399] res5a -> res5a
I0529 15:55:55.254854 28727 net.cpp:141] Setting up res5a
I0529 15:55:55.254859 28727 net.cpp:148] Top shape: 10 2048 7 7 (1003520)
I0529 15:55:55.254863 28727 net.cpp:156] Memory required for data: 2241863720
I0529 15:55:55.254864 28727 layer_factory.hpp:77] Creating layer res5a_relu
I0529 15:55:55.254871 28727 net.cpp:91] Creating Layer res5a_relu
I0529 15:55:55.254874 28727 net.cpp:425] res5a_relu <- res5a
I0529 15:55:55.254878 28727 net.cpp:386] res5a_relu -> res5a (in-place)
I0529 15:55:55.255074 28727 net.cpp:141] Setting up res5a_relu
I0529 15:55:55.255082 28727 net.cpp:148] Top shape: 10 2048 7 7 (1003520)
I0529 15:55:55.255084 28727 net.cpp:156] Memory required for data: 2245877800
I0529 15:55:55.255087 28727 layer_factory.hpp:77] Creating layer res5a_res5a_relu_0_split
I0529 15:55:55.255092 28727 net.cpp:91] Creating Layer res5a_res5a_relu_0_split
I0529 15:55:55.255095 28727 net.cpp:425] res5a_res5a_relu_0_split <- res5a
I0529 15:55:55.255100 28727 net.cpp:399] res5a_res5a_relu_0_split -> res5a_res5a_relu_0_split_0
I0529 15:55:55.255105 28727 net.cpp:399] res5a_res5a_relu_0_split -> res5a_res5a_relu_0_split_1
I0529 15:55:55.255154 28727 net.cpp:141] Setting up res5a_res5a_relu_0_split
I0529 15:55:55.255159 28727 net.cpp:148] Top shape: 10 2048 7 7 (1003520)
I0529 15:55:55.255162 28727 net.cpp:148] Top shape: 10 2048 7 7 (1003520)
I0529 15:55:55.255164 28727 net.cpp:156] Memory required for data: 2253905960
I0529 15:55:55.255167 28727 layer_factory.hpp:77] Creating layer res5b_branch2a
I0529 15:55:55.255175 28727 net.cpp:91] Creating Layer res5b_branch2a
I0529 15:55:55.255178 28727 net.cpp:425] res5b_branch2a <- res5a_res5a_relu_0_split_0
I0529 15:55:55.255182 28727 net.cpp:399] res5b_branch2a -> res5b_branch2a
I0529 15:55:55.258369 28727 net.cpp:141] Setting up res5b_branch2a
I0529 15:55:55.258383 28727 net.cpp:148] Top shape: 10 512 7 7 (250880)
I0529 15:55:55.258385 28727 net.cpp:156] Memory required for data: 2254909480
I0529 15:55:55.258390 28727 layer_factory.hpp:77] Creating layer bn5b_branch2a
I0529 15:55:55.258395 28727 net.cpp:91] Creating Layer bn5b_branch2a
I0529 15:55:55.258399 28727 net.cpp:425] bn5b_branch2a <- res5b_branch2a
I0529 15:55:55.258404 28727 net.cpp:386] bn5b_branch2a -> res5b_branch2a (in-place)
I0529 15:55:55.258648 28727 net.cpp:141] Setting up bn5b_branch2a
I0529 15:55:55.258656 28727 net.cpp:148] Top shape: 10 512 7 7 (250880)
I0529 15:55:55.258657 28727 net.cpp:156] Memory required for data: 2255913000
I0529 15:55:55.258663 28727 layer_factory.hpp:77] Creating layer scale5b_branch2a
I0529 15:55:55.258669 28727 net.cpp:91] Creating Layer scale5b_branch2a
I0529 15:55:55.258672 28727 net.cpp:425] scale5b_branch2a <- res5b_branch2a
I0529 15:55:55.258688 28727 net.cpp:386] scale5b_branch2a -> res5b_branch2a (in-place)
I0529 15:55:55.258747 28727 layer_factory.hpp:77] Creating layer scale5b_branch2a
I0529 15:55:55.258888 28727 net.cpp:141] Setting up scale5b_branch2a
I0529 15:55:55.258894 28727 net.cpp:148] Top shape: 10 512 7 7 (250880)
I0529 15:55:55.258896 28727 net.cpp:156] Memory required for data: 2256916520
I0529 15:55:55.258903 28727 layer_factory.hpp:77] Creating layer res5b_branch2a_relu
I0529 15:55:55.258906 28727 net.cpp:91] Creating Layer res5b_branch2a_relu
I0529 15:55:55.258909 28727 net.cpp:425] res5b_branch2a_relu <- res5b_branch2a
I0529 15:55:55.258914 28727 net.cpp:386] res5b_branch2a_relu -> res5b_branch2a (in-place)
I0529 15:55:55.259276 28727 net.cpp:141] Setting up res5b_branch2a_relu
I0529 15:55:55.259286 28727 net.cpp:148] Top shape: 10 512 7 7 (250880)
I0529 15:55:55.259289 28727 net.cpp:156] Memory required for data: 2257920040
I0529 15:55:55.259292 28727 layer_factory.hpp:77] Creating layer res5b_branch2b
I0529 15:55:55.259300 28727 net.cpp:91] Creating Layer res5b_branch2b
I0529 15:55:55.259304 28727 net.cpp:425] res5b_branch2b <- res5b_branch2a
I0529 15:55:55.259307 28727 net.cpp:399] res5b_branch2b -> res5b_branch2b
I0529 15:55:55.264282 28727 net.cpp:141] Setting up res5b_branch2b
I0529 15:55:55.264294 28727 net.cpp:148] Top shape: 10 512 7 7 (250880)
I0529 15:55:55.264297 28727 net.cpp:156] Memory required for data: 2258923560
I0529 15:55:55.264302 28727 layer_factory.hpp:77] Creating layer bn5b_branch2b
I0529 15:55:55.264310 28727 net.cpp:91] Creating Layer bn5b_branch2b
I0529 15:55:55.264313 28727 net.cpp:425] bn5b_branch2b <- res5b_branch2b
I0529 15:55:55.264317 28727 net.cpp:386] bn5b_branch2b -> res5b_branch2b (in-place)
I0529 15:55:55.264560 28727 net.cpp:141] Setting up bn5b_branch2b
I0529 15:55:55.264567 28727 net.cpp:148] Top shape: 10 512 7 7 (250880)
I0529 15:55:55.264569 28727 net.cpp:156] Memory required for data: 2259927080
I0529 15:55:55.264575 28727 layer_factory.hpp:77] Creating layer scale5b_branch2b
I0529 15:55:55.264581 28727 net.cpp:91] Creating Layer scale5b_branch2b
I0529 15:55:55.264585 28727 net.cpp:425] scale5b_branch2b <- res5b_branch2b
I0529 15:55:55.264590 28727 net.cpp:386] scale5b_branch2b -> res5b_branch2b (in-place)
I0529 15:55:55.264642 28727 layer_factory.hpp:77] Creating layer scale5b_branch2b
I0529 15:55:55.264786 28727 net.cpp:141] Setting up scale5b_branch2b
I0529 15:55:55.264791 28727 net.cpp:148] Top shape: 10 512 7 7 (250880)
I0529 15:55:55.264793 28727 net.cpp:156] Memory required for data: 2260930600
I0529 15:55:55.264798 28727 layer_factory.hpp:77] Creating layer res5b_branch2b_relu
I0529 15:55:55.264803 28727 net.cpp:91] Creating Layer res5b_branch2b_relu
I0529 15:55:55.264806 28727 net.cpp:425] res5b_branch2b_relu <- res5b_branch2b
I0529 15:55:55.264809 28727 net.cpp:386] res5b_branch2b_relu -> res5b_branch2b (in-place)
I0529 15:55:55.265013 28727 net.cpp:141] Setting up res5b_branch2b_relu
I0529 15:55:55.265020 28727 net.cpp:148] Top shape: 10 512 7 7 (250880)
I0529 15:55:55.265023 28727 net.cpp:156] Memory required for data: 2261934120
I0529 15:55:55.265027 28727 layer_factory.hpp:77] Creating layer res5b_branch2c
I0529 15:55:55.265033 28727 net.cpp:91] Creating Layer res5b_branch2c
I0529 15:55:55.265036 28727 net.cpp:425] res5b_branch2c <- res5b_branch2b
I0529 15:55:55.265041 28727 net.cpp:399] res5b_branch2c -> res5b_branch2c
I0529 15:55:55.268626 28727 net.cpp:141] Setting up res5b_branch2c
I0529 15:55:55.268638 28727 net.cpp:148] Top shape: 10 2048 7 7 (1003520)
I0529 15:55:55.268641 28727 net.cpp:156] Memory required for data: 2265948200
I0529 15:55:55.268646 28727 layer_factory.hpp:77] Creating layer bn5b_branch2c
I0529 15:55:55.268656 28727 net.cpp:91] Creating Layer bn5b_branch2c
I0529 15:55:55.268661 28727 net.cpp:425] bn5b_branch2c <- res5b_branch2c
I0529 15:55:55.268664 28727 net.cpp:386] bn5b_branch2c -> res5b_branch2c (in-place)
I0529 15:55:55.268918 28727 net.cpp:141] Setting up bn5b_branch2c
I0529 15:55:55.268925 28727 net.cpp:148] Top shape: 10 2048 7 7 (1003520)
I0529 15:55:55.268939 28727 net.cpp:156] Memory required for data: 2269962280
I0529 15:55:55.268946 28727 layer_factory.hpp:77] Creating layer scale5b_branch2c
I0529 15:55:55.268954 28727 net.cpp:91] Creating Layer scale5b_branch2c
I0529 15:55:55.268956 28727 net.cpp:425] scale5b_branch2c <- res5b_branch2c
I0529 15:55:55.268960 28727 net.cpp:386] scale5b_branch2c -> res5b_branch2c (in-place)
I0529 15:55:55.269024 28727 layer_factory.hpp:77] Creating layer scale5b_branch2c
I0529 15:55:55.269171 28727 net.cpp:141] Setting up scale5b_branch2c
I0529 15:55:55.269177 28727 net.cpp:148] Top shape: 10 2048 7 7 (1003520)
I0529 15:55:55.269181 28727 net.cpp:156] Memory required for data: 2273976360
I0529 15:55:55.269184 28727 layer_factory.hpp:77] Creating layer res5b
I0529 15:55:55.269191 28727 net.cpp:91] Creating Layer res5b
I0529 15:55:55.269194 28727 net.cpp:425] res5b <- res5a_res5a_relu_0_split_1
I0529 15:55:55.269197 28727 net.cpp:425] res5b <- res5b_branch2c
I0529 15:55:55.269201 28727 net.cpp:399] res5b -> res5b
I0529 15:55:55.269232 28727 net.cpp:141] Setting up res5b
I0529 15:55:55.269237 28727 net.cpp:148] Top shape: 10 2048 7 7 (1003520)
I0529 15:55:55.269238 28727 net.cpp:156] Memory required for data: 2277990440
I0529 15:55:55.269242 28727 layer_factory.hpp:77] Creating layer res5b_relu
I0529 15:55:55.269245 28727 net.cpp:91] Creating Layer res5b_relu
I0529 15:55:55.269248 28727 net.cpp:425] res5b_relu <- res5b
I0529 15:55:55.269253 28727 net.cpp:386] res5b_relu -> res5b (in-place)
I0529 15:55:55.269510 28727 net.cpp:141] Setting up res5b_relu
I0529 15:55:55.269520 28727 net.cpp:148] Top shape: 10 2048 7 7 (1003520)
I0529 15:55:55.269522 28727 net.cpp:156] Memory required for data: 2282004520
I0529 15:55:55.269526 28727 layer_factory.hpp:77] Creating layer res5b_res5b_relu_0_split
I0529 15:55:55.269531 28727 net.cpp:91] Creating Layer res5b_res5b_relu_0_split
I0529 15:55:55.269533 28727 net.cpp:425] res5b_res5b_relu_0_split <- res5b
I0529 15:55:55.269538 28727 net.cpp:399] res5b_res5b_relu_0_split -> res5b_res5b_relu_0_split_0
I0529 15:55:55.269543 28727 net.cpp:399] res5b_res5b_relu_0_split -> res5b_res5b_relu_0_split_1
I0529 15:55:55.269598 28727 net.cpp:141] Setting up res5b_res5b_relu_0_split
I0529 15:55:55.269603 28727 net.cpp:148] Top shape: 10 2048 7 7 (1003520)
I0529 15:55:55.269606 28727 net.cpp:148] Top shape: 10 2048 7 7 (1003520)
I0529 15:55:55.269608 28727 net.cpp:156] Memory required for data: 2290032680
I0529 15:55:55.269610 28727 layer_factory.hpp:77] Creating layer res5c_branch2a
I0529 15:55:55.269618 28727 net.cpp:91] Creating Layer res5c_branch2a
I0529 15:55:55.269621 28727 net.cpp:425] res5c_branch2a <- res5b_res5b_relu_0_split_0
I0529 15:55:55.269626 28727 net.cpp:399] res5c_branch2a -> res5c_branch2a
I0529 15:55:55.272675 28727 net.cpp:141] Setting up res5c_branch2a
I0529 15:55:55.272686 28727 net.cpp:148] Top shape: 10 512 7 7 (250880)
I0529 15:55:55.272688 28727 net.cpp:156] Memory required for data: 2291036200
I0529 15:55:55.272693 28727 layer_factory.hpp:77] Creating layer bn5c_branch2a
I0529 15:55:55.272701 28727 net.cpp:91] Creating Layer bn5c_branch2a
I0529 15:55:55.272704 28727 net.cpp:425] bn5c_branch2a <- res5c_branch2a
I0529 15:55:55.272709 28727 net.cpp:386] bn5c_branch2a -> res5c_branch2a (in-place)
I0529 15:55:55.272963 28727 net.cpp:141] Setting up bn5c_branch2a
I0529 15:55:55.272969 28727 net.cpp:148] Top shape: 10 512 7 7 (250880)
I0529 15:55:55.272972 28727 net.cpp:156] Memory required for data: 2292039720
I0529 15:55:55.272979 28727 layer_factory.hpp:77] Creating layer scale5c_branch2a
I0529 15:55:55.272984 28727 net.cpp:91] Creating Layer scale5c_branch2a
I0529 15:55:55.272989 28727 net.cpp:425] scale5c_branch2a <- res5c_branch2a
I0529 15:55:55.272991 28727 net.cpp:386] scale5c_branch2a -> res5c_branch2a (in-place)
I0529 15:55:55.273046 28727 layer_factory.hpp:77] Creating layer scale5c_branch2a
I0529 15:55:55.273190 28727 net.cpp:141] Setting up scale5c_branch2a
I0529 15:55:55.273196 28727 net.cpp:148] Top shape: 10 512 7 7 (250880)
I0529 15:55:55.273198 28727 net.cpp:156] Memory required for data: 2293043240
I0529 15:55:55.273216 28727 layer_factory.hpp:77] Creating layer res5c_branch2a_relu
I0529 15:55:55.273221 28727 net.cpp:91] Creating Layer res5c_branch2a_relu
I0529 15:55:55.273223 28727 net.cpp:425] res5c_branch2a_relu <- res5c_branch2a
I0529 15:55:55.273226 28727 net.cpp:386] res5c_branch2a_relu -> res5c_branch2a (in-place)
I0529 15:55:55.273597 28727 net.cpp:141] Setting up res5c_branch2a_relu
I0529 15:55:55.273607 28727 net.cpp:148] Top shape: 10 512 7 7 (250880)
I0529 15:55:55.273609 28727 net.cpp:156] Memory required for data: 2294046760
I0529 15:55:55.273612 28727 layer_factory.hpp:77] Creating layer res5c_branch2b
I0529 15:55:55.273620 28727 net.cpp:91] Creating Layer res5c_branch2b
I0529 15:55:55.273623 28727 net.cpp:425] res5c_branch2b <- res5c_branch2a
I0529 15:55:55.273628 28727 net.cpp:399] res5c_branch2b -> res5c_branch2b
I0529 15:55:55.278620 28727 net.cpp:141] Setting up res5c_branch2b
I0529 15:55:55.278635 28727 net.cpp:148] Top shape: 10 512 7 7 (250880)
I0529 15:55:55.278638 28727 net.cpp:156] Memory required for data: 2295050280
I0529 15:55:55.278643 28727 layer_factory.hpp:77] Creating layer bn5c_branch2b
I0529 15:55:55.278652 28727 net.cpp:91] Creating Layer bn5c_branch2b
I0529 15:55:55.278656 28727 net.cpp:425] bn5c_branch2b <- res5c_branch2b
I0529 15:55:55.278661 28727 net.cpp:386] bn5c_branch2b -> res5c_branch2b (in-place)
I0529 15:55:55.278920 28727 net.cpp:141] Setting up bn5c_branch2b
I0529 15:55:55.278926 28727 net.cpp:148] Top shape: 10 512 7 7 (250880)
I0529 15:55:55.278929 28727 net.cpp:156] Memory required for data: 2296053800
I0529 15:55:55.278937 28727 layer_factory.hpp:77] Creating layer scale5c_branch2b
I0529 15:55:55.278942 28727 net.cpp:91] Creating Layer scale5c_branch2b
I0529 15:55:55.278945 28727 net.cpp:425] scale5c_branch2b <- res5c_branch2b
I0529 15:55:55.278949 28727 net.cpp:386] scale5c_branch2b -> res5c_branch2b (in-place)
I0529 15:55:55.279011 28727 layer_factory.hpp:77] Creating layer scale5c_branch2b
I0529 15:55:55.279165 28727 net.cpp:141] Setting up scale5c_branch2b
I0529 15:55:55.279171 28727 net.cpp:148] Top shape: 10 512 7 7 (250880)
I0529 15:55:55.279173 28727 net.cpp:156] Memory required for data: 2297057320
I0529 15:55:55.279178 28727 layer_factory.hpp:77] Creating layer res5c_branch2b_relu
I0529 15:55:55.279184 28727 net.cpp:91] Creating Layer res5c_branch2b_relu
I0529 15:55:55.279187 28727 net.cpp:425] res5c_branch2b_relu <- res5c_branch2b
I0529 15:55:55.279191 28727 net.cpp:386] res5c_branch2b_relu -> res5c_branch2b (in-place)
I0529 15:55:55.279398 28727 net.cpp:141] Setting up res5c_branch2b_relu
I0529 15:55:55.279407 28727 net.cpp:148] Top shape: 10 512 7 7 (250880)
I0529 15:55:55.279408 28727 net.cpp:156] Memory required for data: 2298060840
I0529 15:55:55.279412 28727 layer_factory.hpp:77] Creating layer res5c_branch2c
I0529 15:55:55.279419 28727 net.cpp:91] Creating Layer res5c_branch2c
I0529 15:55:55.279422 28727 net.cpp:425] res5c_branch2c <- res5c_branch2b
I0529 15:55:55.279428 28727 net.cpp:399] res5c_branch2c -> res5c_branch2c
I0529 15:55:55.282658 28727 net.cpp:141] Setting up res5c_branch2c
I0529 15:55:55.282682 28727 net.cpp:148] Top shape: 10 2048 7 7 (1003520)
I0529 15:55:55.282686 28727 net.cpp:156] Memory required for data: 2302074920
I0529 15:55:55.282693 28727 layer_factory.hpp:77] Creating layer bn5c_branch2c
I0529 15:55:55.282704 28727 net.cpp:91] Creating Layer bn5c_branch2c
I0529 15:55:55.282709 28727 net.cpp:425] bn5c_branch2c <- res5c_branch2c
I0529 15:55:55.282716 28727 net.cpp:386] bn5c_branch2c -> res5c_branch2c (in-place)
I0529 15:55:55.283000 28727 net.cpp:141] Setting up bn5c_branch2c
I0529 15:55:55.283007 28727 net.cpp:148] Top shape: 10 2048 7 7 (1003520)
I0529 15:55:55.283010 28727 net.cpp:156] Memory required for data: 2306089000
I0529 15:55:55.283016 28727 layer_factory.hpp:77] Creating layer scale5c_branch2c
I0529 15:55:55.283023 28727 net.cpp:91] Creating Layer scale5c_branch2c
I0529 15:55:55.283026 28727 net.cpp:425] scale5c_branch2c <- res5c_branch2c
I0529 15:55:55.283030 28727 net.cpp:386] scale5c_branch2c -> res5c_branch2c (in-place)
I0529 15:55:55.283579 28727 layer_factory.hpp:77] Creating layer scale5c_branch2c
I0529 15:55:55.283740 28727 net.cpp:141] Setting up scale5c_branch2c
I0529 15:55:55.283746 28727 net.cpp:148] Top shape: 10 2048 7 7 (1003520)
I0529 15:55:55.283748 28727 net.cpp:156] Memory required for data: 2310103080
I0529 15:55:55.283754 28727 layer_factory.hpp:77] Creating layer res5c
I0529 15:55:55.283759 28727 net.cpp:91] Creating Layer res5c
I0529 15:55:55.283763 28727 net.cpp:425] res5c <- res5b_res5b_relu_0_split_1
I0529 15:55:55.283767 28727 net.cpp:425] res5c <- res5c_branch2c
I0529 15:55:55.283772 28727 net.cpp:399] res5c -> res5c
I0529 15:55:55.283805 28727 net.cpp:141] Setting up res5c
I0529 15:55:55.283812 28727 net.cpp:148] Top shape: 10 2048 7 7 (1003520)
I0529 15:55:55.283814 28727 net.cpp:156] Memory required for data: 2314117160
I0529 15:55:55.283818 28727 layer_factory.hpp:77] Creating layer res5c_relu
I0529 15:55:55.283823 28727 net.cpp:91] Creating Layer res5c_relu
I0529 15:55:55.283824 28727 net.cpp:425] res5c_relu <- res5c
I0529 15:55:55.283828 28727 net.cpp:386] res5c_relu -> res5c (in-place)
I0529 15:55:55.284037 28727 net.cpp:141] Setting up res5c_relu
I0529 15:55:55.284045 28727 net.cpp:148] Top shape: 10 2048 7 7 (1003520)
I0529 15:55:55.284047 28727 net.cpp:156] Memory required for data: 2318131240
I0529 15:55:55.284050 28727 layer_factory.hpp:77] Creating layer pool5
I0529 15:55:55.284057 28727 net.cpp:91] Creating Layer pool5
I0529 15:55:55.284060 28727 net.cpp:425] pool5 <- res5c
I0529 15:55:55.284065 28727 net.cpp:399] pool5 -> pool5
I0529 15:55:55.284468 28727 net.cpp:141] Setting up pool5
I0529 15:55:55.284478 28727 net.cpp:148] Top shape: 10 2048 1 1 (20480)
I0529 15:55:55.284482 28727 net.cpp:156] Memory required for data: 2318213160
I0529 15:55:55.284484 28727 layer_factory.hpp:77] Creating layer fc10
I0529 15:55:55.284492 28727 net.cpp:91] Creating Layer fc10
I0529 15:55:55.284494 28727 net.cpp:425] fc10 <- pool5
I0529 15:55:55.284498 28727 net.cpp:399] fc10 -> fc10
I0529 15:55:55.285076 28727 net.cpp:141] Setting up fc10
I0529 15:55:55.285086 28727 net.cpp:148] Top shape: 10 10 (100)
I0529 15:55:55.285089 28727 net.cpp:156] Memory required for data: 2318213560
I0529 15:55:55.285094 28727 layer_factory.hpp:77] Creating layer loss
I0529 15:55:55.285100 28727 net.cpp:91] Creating Layer loss
I0529 15:55:55.285102 28727 net.cpp:425] loss <- fc10
I0529 15:55:55.285106 28727 net.cpp:425] loss <- label
I0529 15:55:55.285110 28727 net.cpp:399] loss -> loss
I0529 15:55:55.285117 28727 layer_factory.hpp:77] Creating layer loss
…
