…
I0618 23:35:08.775985  7999 net.cpp:313] The NetState phase (0) differed from the phase (1) specified by a rule in layer data
I0618 23:35:08.776645  7999 net.cpp:49] Initializing net from parameters: 
name: "ResNet"
state {
  phase: TRAIN
}
layer {
  name: "data"
  type: "Data"
  top: "data"
  top: "label"
  include {
    phase: TRAIN
  }
  transform_param {
    mirror: false
    crop_size: 224
    mean_value: 97.3605
    mean_value: 98.4924
    mean_value: 81.4706
  }
  data_param {
    source: "../data/fold1/train_lmdb"
    batch_size: 1
    backend: LMDB
  }
}
layer {
  name: "conv1"
  type: "Convolution"
  bottom: "data"
  top: "conv1"
  convolution_param {
    num_output: 64
    pad: 3
    kernel_size: 7
    stride: 2
  }
}
layer {
  name: "bn_conv1"
  type: "BatchNorm"
  bottom: "conv1"
  top: "conv1"
  batch_norm_param {
    use_global_stats: true
  }
}
layer {
  name: "scale_conv1"
  type: "Scale"
  bottom: "conv1"
  top: "conv1"
  scale_param {
    bias_term: true
  }
}
layer {
  name: "conv1_relu"
  type: "ReLU"
  bottom: "conv1"
  top: "conv1"
}
layer {
  name: "pool1"
  type: "Pooling"
  bottom: "conv1"
  top: "pool1"
  pooling_param {
    pool: MAX
    kernel_size: 3
    stride: 2
  }
}
layer {
  name: "res2a_branch1"
  type: "Convolution"
  bottom: "pool1"
  top: "res2a_branch1"
  convolution_param {
    num_output: 256
    bias_term: false
    pad: 0
    kernel_size: 1
    stride: 1
  }
}
layer {
  name: "bn2a_branch1"
  type: "BatchNorm"
  bottom: "res2a_branch1"
  top: "res2a_branch1"
  batch_norm_param {
    use_global_stats: true
  }
}
layer {
  name: "scale2a_branch1"
  type: "Scale"
  bottom: "res2a_branch1"
  top: "res2a_branch1"
  scale_param {
    bias_term: true
  }
}
layer {
  name: "res2a_branch2a"
  type: "Convolution"
  bottom: "pool1"
  top: "res2a_branch2a"
  convolution_param {
    num_output: 64
    bias_term: false
    pad: 0
    kernel_size: 1
    stride: 1
  }
}
layer {
  name: "bn2a_branch2a"
  type: "BatchNorm"
  bottom: "res2a_branch2a"
  top: "res2a_branch2a"
  batch_norm_param {
    use_global_stats: true
  }
}
layer {
  name: "scale2a_branch2a"
  type: "Scale"
  bottom: "res2a_branch2a"
  top: "res2a_branch2a"
  scale_param {
    bias_term: true
  }
}
layer {
  name: "res2a_branch2a_relu"
  type: "ReLU"
  bottom: "res2a_branch2a"
  top: "res2a_branch2a"
}
layer {
  name: "res2a_branch2b"
  type: "Convolution"
  bottom: "res2a_branch2a"
  top: "res2a_branch2b"
  convolution_param {
    num_output: 64
    bias_term: false
    pad: 1
    kernel_size: 3
    stride: 1
  }
}
layer {
  name: "bn2a_branch2b"
  type: "BatchNorm"
  bottom: "res2a_branch2b"
  top: "res2a_branch2b"
  batch_norm_param {
    use_global_stats: true
  }
}
layer {
  name: "scale2a_branch2b"
  type: "Scale"
  bottom: "res2a_branch2b"
  top: "res2a_branch2b"
  scale_param {
    bias_term: true
  }
}
layer {
  name: "res2a_branch2b_relu"
  type: "ReLU"
  bottom: "res2a_branch2b"
  top: "res2a_branch2b"
}
layer {
  name: "res2a_branch2c"
  type: "Convolution"
  bottom: "res2a_branch2b"
  top: "res2a_branch2c"
  convolution_param {
    num_output: 256
    bias_term: false
    pad: 0
    kernel_size: 1
    stride: 1
  }
}
layer {
  name: "bn2a_branch2c"
  type: "BatchNorm"
  bottom: "res2a_branch2c"
  top: "res2a_branch2c"
  batch_norm_param {
    use_global_stats: true
  }
}
layer {
  name: "scale2a_branch2c"
  type: "Scale"
  bottom: "res2a_branch2c"
  top: "res2a_branch2c"
  scale_param {
    bias_term: true
  }
}
layer {
  name: "res2a"
  type: "Eltwise"
  bottom: "res2a_branch1"
  bottom: "res2a_branch2c"
  top: "res2a"
}
layer {
  name: "res2a_relu"
  type: "ReLU"
  bottom: "res2a"
  top: "res2a"
}
layer {
  name: "res2b_branch2a"
  type: "Convolution"
  bottom: "res2a"
  top: "res2b_branch2a"
  convolution_param {
    num_output: 64
    bias_term: false
    pad: 0
    kernel_size: 1
    stride: 1
  }
}
layer {
  name: "bn2b_branch2a"
  type: "BatchNorm"
  bottom: "res2b_branch2a"
  top: "res2b_branch2a"
  batch_norm_param {
    use_global_stats: true
  }
}
layer {
  name: "scale2b_branch2a"
  type: "Scale"
  bottom: "res2b_branch2a"
  top: "res2b_branch2a"
  scale_param {
    bias_term: true
  }
}
layer {
  name: "res2b_branch2a_relu"
  type: "ReLU"
  bottom: "res2b_branch2a"
  top: "res2b_branch2a"
}
layer {
  name: "res2b_branch2b"
  type: "Convolution"
  bottom: "res2b_branch2a"
  top: "res2b_branch2b"
  convolution_param {
    num_output: 64
    bias_term: false
    pad: 1
    kernel_size: 3
    stride: 1
  }
}
layer {
  name: "bn2b_branch2b"
  type: "BatchNorm"
  bottom: "res2b_branch2b"
  top: "res2b_branch2b"
  batch_norm_param {
    use_global_stats: true
  }
}
layer {
  name: "scale2b_branch2b"
  type: "Scale"
  bottom: "res2b_branch2b"
  top: "res2b_branch2b"
  scale_param {
    bias_term: true
  }
}
layer {
  name: "res2b_branch2b_relu"
  type: "ReLU"
  bottom: "res2b_branch2b"
  top: "res2b_branch2b"
}
layer {
  name: "res2b_branch2c"
  type: "Convolution"
  bottom: "res2b_branch2b"
  top: "res2b_branch2c"
  convolution_param {
    num_output: 256
    bias_term: false
    pad: 0
    kernel_size: 1
    stride: 1
  }
}
layer {
  name: "bn2b_branch2c"
  type: "BatchNorm"
  bottom: "res2b_branch2c"
  top: "res2b_branch2c"
  batch_norm_param {
    use_global_stats: true
  }
}
layer {
  name: "scale2b_branch2c"
  type: "Scale"
  bottom: "res2b_branch2c"
  top: "res2b_branch2c"
  scale_param {
    bias_term: true
  }
}
layer {
  name: "res2b"
  type: "Eltwise"
  bottom: "res2a"
  bottom: "res2b_branch2c"
  top: "res2b"
}
layer {
  name: "res2b_relu"
  type: "ReLU"
  bottom: "res2b"
  top: "res2b"
}
layer {
  name: "res2c_branch2a"
  type: "Convolution"
  bottom: "res2b"
  top: "res2c_branch2a"
  convolution_param {
    num_output: 64
    bias_term: false
    pad: 0
    kernel_size: 1
    stride: 1
  }
}
layer {
  name: "bn2c_branch2a"
  type: "BatchNorm"
  bottom: "res2c_branch2a"
  top: "res2c_branch2a"
  batch_norm_param {
    use_global_stats: true
  }
}
layer {
  name: "scale2c_branch2a"
  type: "Scale"
  bottom: "res2c_branch2a"
  top: "res2c_branch2a"
  scale_param {
    bias_term: true
  }
}
layer {
  name: "res2c_branch2a_relu"
  type: "ReLU"
  bottom: "res2c_branch2a"
  top: "res2c_branch2a"
}
layer {
  name: "res2c_branch2b"
  type: "Convolution"
  bottom: "res2c_branch2a"
  top: "res2c_branch2b"
  convolution_param {
    num_output: 64
    bias_term: false
    pad: 1
    kernel_size: 3
    stride: 1
  }
}
layer {
  name: "bn2c_branch2b"
  type: "BatchNorm"
  bottom: "res2c_branch2b"
  top: "res2c_branch2b"
  batch_norm_param {
    use_global_stats: true
  }
}
layer {
  name: "scale2c_branch2b"
  type: "Scale"
  bottom: "res2c_branch2b"
  top: "res2c_branch2b"
  scale_param {
    bias_term: true
  }
}
layer {
  name: "res2c_branch2b_relu"
  type: "ReLU"
  bottom: "res2c_branch2b"
  top: "res2c_branch2b"
}
layer {
  name: "res2c_branch2c"
  type: "Convolution"
  bottom: "res2c_branch2b"
  top: "res2c_branch2c"
  convolution_param {
    num_output: 256
    bias_term: false
    pad: 0
    kernel_size: 1
    stride: 1
  }
}
layer {
  name: "bn2c_branch2c"
  type: "BatchNorm"
  bottom: "res2c_branch2c"
  top: "res2c_branch2c"
  batch_norm_param {
    use_global_stats: true
  }
}
layer {
  name: "scale2c_branch2c"
  type: "Scale"
  bottom: "res2c_branch2c"
  top: "res2c_branch2c"
  scale_param {
    bias_term: true
  }
}
layer {
  name: "res2c"
  type: "Eltwise"
  bottom: "res2b"
  bottom: "res2c_branch2c"
  top: "res2c"
}
layer {
  name: "res2c_relu"
  type: "ReLU"
  bottom: "res2c"
  top: "res2c"
}
layer {
  name: "res3a_branch1"
  type: "Convolution"
  bottom: "res2c"
  top: "res3a_branch1"
  convolution_param {
    num_output: 512
    bias_term: false
    pad: 0
    kernel_size: 1
    stride: 2
  }
}
layer {
  name: "bn3a_branch1"
  type: "BatchNorm"
  bottom: "res3a_branch1"
  top: "res3a_branch1"
  batch_norm_param {
    use_global_stats: true
  }
}
layer {
  name: "scale3a_branch1"
  type: "Scale"
  bottom: "res3a_branch1"
  top: "res3a_branch1"
  scale_param {
    bias_term: true
  }
}
layer {
  name: "res3a_branch2a"
  type: "Convolution"
  bottom: "res2c"
  top: "res3a_branch2a"
  convolution_param {
    num_output: 128
    bias_term: false
    pad: 0
    kernel_size: 1
    stride: 2
  }
}
layer {
  name: "bn3a_branch2a"
  type: "BatchNorm"
  bottom: "res3a_branch2a"
  top: "res3a_branch2a"
  batch_norm_param {
    use_global_stats: true
  }
}
layer {
  name: "scale3a_branch2a"
  type: "Scale"
  bottom: "res3a_branch2a"
  top: "res3a_branch2a"
  scale_param {
    bias_term: true
  }
}
layer {
  name: "res3a_branch2a_relu"
  type: "ReLU"
  bottom: "res3a_branch2a"
  top: "res3a_branch2a"
}
layer {
  name: "res3a_branch2b"
  type: "Convolution"
  bottom: "res3a_branch2a"
  top: "res3a_branch2b"
  convolution_param {
    num_output: 128
    bias_term: false
    pad: 1
    kernel_size: 3
    stride: 1
  }
}
layer {
  name: "bn3a_branch2b"
  type: "BatchNorm"
  bottom: "res3a_branch2b"
  top: "res3a_branch2b"
  batch_norm_param {
    use_global_stats: true
  }
}
layer {
  name: "scale3a_branch2b"
  type: "Scale"
  bottom: "res3a_branch2b"
  top: "res3a_branch2b"
  scale_param {
    bias_term: true
  }
}
layer {
  name: "res3a_branch2b_relu"
  type: "ReLU"
  bottom: "res3a_branch2b"
  top: "res3a_branch2b"
}
layer {
  name: "res3a_branch2c"
  type: "Convolution"
  bottom: "res3a_branch2b"
  top: "res3a_branch2c"
  convolution_param {
    num_output: 512
    bias_term: false
    pad: 0
    kernel_size: 1
    stride: 1
  }
}
layer {
  name: "bn3a_branch2c"
  type: "BatchNorm"
  bottom: "res3a_branch2c"
  top: "res3a_branch2c"
  batch_norm_param {
    use_global_stats: true
  }
}
layer {
  name: "scale3a_branch2c"
  type: "Scale"
  bottom: "res3a_branch2c"
  top: "res3a_branch2c"
  scale_param {
    bias_term: true
  }
}
layer {
  name: "res3a"
  type: "Eltwise"
  bottom: "res3a_branch1"
  bottom: "res3a_branch2c"
  top: "res3a"
}
layer {
  name: "res3a_relu"
  type: "ReLU"
  bottom: "res3a"
  top: "res3a"
}
layer {
  name: "res3b_branch2a"
  type: "Convolution"
  bottom: "res3a"
  top: "res3b_branch2a"
  convolution_param {
    num_output: 128
    bias_term: false
    pad: 0
    kernel_size: 1
    stride: 1
  }
}
layer {
  name: "bn3b_branch2a"
  type: "BatchNorm"
  bottom: "res3b_branch2a"
  top: "res3b_branch2a"
  batch_norm_param {
    use_global_stats: true
  }
}
layer {
  name: "scale3b_branch2a"
  type: "Scale"
  bottom: "res3b_branch2a"
  top: "res3b_branch2a"
  scale_param {
    bias_term: true
  }
}
layer {
  name: "res3b_branch2a_relu"
  type: "ReLU"
  bottom: "res3b_branch2a"
  top: "res3b_branch2a"
}
layer {
  name: "res3b_branch2b"
  type: "Convolution"
  bottom: "res3b_branch2a"
  top: "res3b_branch2b"
  convolution_param {
    num_output: 128
    bias_term: false
    pad: 1
    kernel_size: 3
    stride: 1
  }
}
layer {
  name: "bn3b_branch2b"
  type: "BatchNorm"
  bottom: "res3b_branch2b"
  top: "res3b_branch2b"
  batch_norm_param {
    use_global_stats: true
  }
}
layer {
  name: "scale3b_branch2b"
  type: "Scale"
  bottom: "res3b_branch2b"
  top: "res3b_branch2b"
  scale_param {
    bias_term: true
  }
}
layer {
  name: "res3b_branch2b_relu"
  type: "ReLU"
  bottom: "res3b_branch2b"
  top: "res3b_branch2b"
}
layer {
  name: "res3b_branch2c"
  type: "Convolution"
  bottom: "res3b_branch2b"
  top: "res3b_branch2c"
  convolution_param {
    num_output: 512
    bias_term: false
    pad: 0
    kernel_size: 1
    stride: 1
  }
}
layer {
  name: "bn3b_branch2c"
  type: "BatchNorm"
  bottom: "res3b_branch2c"
  top: "res3b_branch2c"
  batch_norm_param {
    use_global_stats: true
  }
}
layer {
  name: "scale3b_branch2c"
  type: "Scale"
  bottom: "res3b_branch2c"
  top: "res3b_branch2c"
  scale_param {
    bias_term: true
  }
}
layer {
  name: "res3b"
  type: "Eltwise"
  bottom: "res3a"
  bottom: "res3b_branch2c"
  top: "res3b"
}
layer {
  name: "res3b_relu"
  type: "ReLU"
  bottom: "res3b"
  top: "res3b"
}
layer {
  name: "res3c_branch2a"
  type: "Convolution"
  bottom: "res3b"
  top: "res3c_branch2a"
  convolution_param {
    num_output: 128
    bias_term: false
    pad: 0
    kernel_size: 1
    stride: 1
  }
}
layer {
  name: "bn3c_branch2a"
  type: "BatchNorm"
  bottom: "res3c_branch2a"
  top: "res3c_branch2a"
  batch_norm_param {
    use_global_stats: true
  }
}
layer {
  name: "scale3c_branch2a"
  type: "Scale"
  bottom: "res3c_branch2a"
  top: "res3c_branch2a"
  scale_param {
    bias_term: true
  }
}
layer {
  name: "res3c_branch2a_relu"
  type: "ReLU"
  bottom: "res3c_branch2a"
  top: "res3c_branch2a"
}
layer {
  name: "res3c_branch2b"
  type: "Convolution"
  bottom: "res3c_branch2a"
  top: "res3c_branch2b"
  convolution_param {
    num_output: 128
    bias_term: false
    pad: 1
    kernel_size: 3
    stride: 1
  }
}
layer {
  name: "bn3c_branch2b"
  type: "BatchNorm"
  bottom: "res3c_branch2b"
  top: "res3c_branch2b"
  batch_norm_param {
    use_global_stats: true
  }
}
layer {
  name: "scale3c_branch2b"
  type: "Scale"
  bottom: "res3c_branch2b"
  top: "res3c_branch2b"
  scale_param {
    bias_term: true
  }
}
layer {
  name: "res3c_branch2b_relu"
  type: "ReLU"
  bottom: "res3c_branch2b"
  top: "res3c_branch2b"
}
layer {
  name: "res3c_branch2c"
  type: "Convolution"
  bottom: "res3c_branch2b"
  top: "res3c_branch2c"
  convolution_param {
    num_output: 512
    bias_term: false
    pad: 0
    kernel_size: 1
    stride: 1
  }
}
layer {
  name: "bn3c_branch2c"
  type: "BatchNorm"
  bottom: "res3c_branch2c"
  top: "res3c_branch2c"
  batch_norm_param {
    use_global_stats: true
  }
}
layer {
  name: "scale3c_branch2c"
  type: "Scale"
  bottom: "res3c_branch2c"
  top: "res3c_branch2c"
  scale_param {
    bias_term: true
  }
}
layer {
  name: "res3c"
  type: "Eltwise"
  bottom: "res3b"
  bottom: "res3c_branch2c"
  top: "res3c"
}
layer {
  name: "res3c_relu"
  type: "ReLU"
  bottom: "res3c"
  top: "res3c"
}
layer {
  name: "res3d_branch2a"
  type: "Convolution"
  bottom: "res3c"
  top: "res3d_branch2a"
  convolution_param {
    num_output: 128
    bias_term: false
    pad: 0
    kernel_size: 1
    stride: 1
  }
}
layer {
  name: "bn3d_branch2a"
  type: "BatchNorm"
  bottom: "res3d_branch2a"
  top: "res3d_branch2a"
  batch_norm_param {
    use_global_stats: true
  }
}
layer {
  name: "scale3d_branch2a"
  type: "Scale"
  bottom: "res3d_branch2a"
  top: "res3d_branch2a"
  scale_param {
    bias_term: true
  }
}
layer {
  name: "res3d_branch2a_relu"
  type: "ReLU"
  bottom: "res3d_branch2a"
  top: "res3d_branch2a"
}
layer {
  name: "res3d_branch2b"
  type: "Convolution"
  bottom: "res3d_branch2a"
  top: "res3d_branch2b"
  convolution_param {
    num_output: 128
    bias_term: false
    pad: 1
    kernel_size: 3
    stride: 1
  }
}
layer {
  name: "bn3d_branch2b"
  type: "BatchNorm"
  bottom: "res3d_branch2b"
  top: "res3d_branch2b"
  batch_norm_param {
    use_global_stats: true
  }
}
layer {
  name: "scale3d_branch2b"
  type: "Scale"
  bottom: "res3d_branch2b"
  top: "res3d_branch2b"
  scale_param {
    bias_term: true
  }
}
layer {
  name: "res3d_branch2b_relu"
  type: "ReLU"
  bottom: "res3d_branch2b"
  top: "res3d_branch2b"
}
layer {
  name: "res3d_branch2c"
  type: "Convolution"
  bottom: "res3d_branch2b"
  top: "res3d_branch2c"
  convolution_param {
    num_output: 512
    bias_term: false
    pad: 0
    kernel_size: 1
    stride: 1
  }
}
layer {
  name: "bn3d_branch2c"
  type: "BatchNorm"
  bottom: "res3d_branch2c"
  top: "res3d_branch2c"
  batch_norm_param {
    use_global_stats: true
  }
}
layer {
  name: "scale3d_branch2c"
  type: "Scale"
  bottom: "res3d_branch2c"
  top: "res3d_branch2c"
  scale_param {
    bias_term: true
  }
}
layer {
  name: "res3d"
  type: "Eltwise"
  bottom: "res3c"
  bottom: "res3d_branch2c"
  top: "res3d"
}
layer {
  name: "res3d_relu"
  type: "ReLU"
  bottom: "res3d"
  top: "res3d"
}
layer {
  name: "res4a_branch1"
  type: "Convolution"
  bottom: "res3d"
  top: "res4a_branch1"
  convolution_param {
    num_output: 1024
    bias_term: false
    pad: 0
    kernel_size: 1
    stride: 2
  }
}
layer {
  name: "bn4a_branch1"
  type: "BatchNorm"
  bottom: "res4a_branch1"
  top: "res4a_branch1"
  batch_norm_param {
    use_global_stats: true
  }
}
layer {
  name: "scale4a_branch1"
  type: "Scale"
  bottom: "res4a_branch1"
  top: "res4a_branch1"
  scale_param {
    bias_term: true
  }
}
layer {
  name: "res4a_branch2a"
  type: "Convolution"
  bottom: "res3d"
  top: "res4a_branch2a"
  convolution_param {
    num_output: 256
    bias_term: false
    pad: 0
    kernel_size: 1
    stride: 2
  }
}
layer {
  name: "bn4a_branch2a"
  type: "BatchNorm"
  bottom: "res4a_branch2a"
  top: "res4a_branch2a"
  batch_norm_param {
    use_global_stats: true
  }
}
layer {
  name: "scale4a_branch2a"
  type: "Scale"
  bottom: "res4a_branch2a"
  top: "res4a_branch2a"
  scale_param {
    bias_term: true
  }
}
layer {
  name: "res4a_branch2a_relu"
  type: "ReLU"
  bottom: "res4a_branch2a"
  top: "res4a_branch2a"
}
layer {
  name: "res4a_branch2b"
  type: "Convolution"
  bottom: "res4a_branch2a"
  top: "res4a_branch2b"
  convolution_param {
    num_output: 256
    bias_term: false
    pad: 1
    kernel_size: 3
    stride: 1
  }
}
layer {
  name: "bn4a_branch2b"
  type: "BatchNorm"
  bottom: "res4a_branch2b"
  top: "res4a_branch2b"
  batch_norm_param {
    use_global_stats: true
  }
}
layer {
  name: "scale4a_branch2b"
  type: "Scale"
  bottom: "res4a_branch2b"
  top: "res4a_branch2b"
  scale_param {
    bias_term: true
  }
}
layer {
  name: "res4a_branch2b_relu"
  type: "ReLU"
  bottom: "res4a_branch2b"
  top: "res4a_branch2b"
}
layer {
  name: "res4a_branch2c"
  type: "Convolution"
  bottom: "res4a_branch2b"
  top: "res4a_branch2c"
  convolution_param {
    num_output: 1024
    bias_term: false
    pad: 0
    kernel_size: 1
    stride: 1
  }
}
layer {
  name: "bn4a_branch2c"
  type: "BatchNorm"
  bottom: "res4a_branch2c"
  top: "res4a_branch2c"
  batch_norm_param {
    use_global_stats: true
  }
}
layer {
  name: "scale4a_branch2c"
  type: "Scale"
  bottom: "res4a_branch2c"
  top: "res4a_branch2c"
  scale_param {
    bias_term: true
  }
}
layer {
  name: "res4a"
  type: "Eltwise"
  bottom: "res4a_branch1"
  bottom: "res4a_branch2c"
  top: "res4a"
}
layer {
  name: "res4a_relu"
  type: "ReLU"
  bottom: "res4a"
  top: "res4a"
}
layer {
  name: "res4b_branch2a"
  type: "Convolution"
  bottom: "res4a"
  top: "res4b_branch2a"
  convolution_param {
    num_output: 256
    bias_term: false
    pad: 0
    kernel_size: 1
    stride: 1
  }
}
layer {
  name: "bn4b_branch2a"
  type: "BatchNorm"
  bottom: "res4b_branch2a"
  top: "res4b_branch2a"
  batch_norm_param {
    use_global_stats: true
  }
}
layer {
  name: "scale4b_branch2a"
  type: "Scale"
  bottom: "res4b_branch2a"
  top: "res4b_branch2a"
  scale_param {
    bias_term: true
  }
}
layer {
  name: "res4b_branch2a_relu"
  type: "ReLU"
  bottom: "res4b_branch2a"
  top: "res4b_branch2a"
}
layer {
  name: "res4b_branch2b"
  type: "Convolution"
  bottom: "res4b_branch2a"
  top: "res4b_branch2b"
  convolution_param {
    num_output: 256
    bias_term: false
    pad: 1
    kernel_size: 3
    stride: 1
  }
}
layer {
  name: "bn4b_branch2b"
  type: "BatchNorm"
  bottom: "res4b_branch2b"
  top: "res4b_branch2b"
  batch_norm_param {
    use_global_stats: true
  }
}
layer {
  name: "scale4b_branch2b"
  type: "Scale"
  bottom: "res4b_branch2b"
  top: "res4b_branch2b"
  scale_param {
    bias_term: true
  }
}
layer {
  name: "res4b_branch2b_relu"
  type: "ReLU"
  bottom: "res4b_branch2b"
  top: "res4b_branch2b"
}
layer {
  name: "res4b_branch2c"
  type: "Convolution"
  bottom: "res4b_branch2b"
  top: "res4b_branch2c"
  convolution_param {
    num_output: 1024
    bias_term: false
    pad: 0
    kernel_size: 1
    stride: 1
  }
}
layer {
  name: "bn4b_branch2c"
  type: "BatchNorm"
  bottom: "res4b_branch2c"
  top: "res4b_branch2c"
  batch_norm_param {
    use_global_stats: true
  }
}
layer {
  name: "scale4b_branch2c"
  type: "Scale"
  bottom: "res4b_branch2c"
  top: "res4b_branch2c"
  scale_param {
    bias_term: true
  }
}
layer {
  name: "res4b"
  type: "Eltwise"
  bottom: "res4a"
  bottom: "res4b_branch2c"
  top: "res4b"
}
layer {
  name: "res4b_relu"
  type: "ReLU"
  bottom: "res4b"
  top: "res4b"
}
layer {
  name: "res4c_branch2a"
  type: "Convolution"
  bottom: "res4b"
  top: "res4c_branch2a"
  convolution_param {
    num_output: 256
    bias_term: false
    pad: 0
    kernel_size: 1
    stride: 1
  }
}
layer {
  name: "bn4c_branch2a"
  type: "BatchNorm"
  bottom: "res4c_branch2a"
  top: "res4c_branch2a"
  batch_norm_param {
    use_global_stats: true
  }
}
layer {
  name: "scale4c_branch2a"
  type: "Scale"
  bottom: "res4c_branch2a"
  top: "res4c_branch2a"
  scale_param {
    bias_term: true
  }
}
layer {
  name: "res4c_branch2a_relu"
  type: "ReLU"
  bottom: "res4c_branch2a"
  top: "res4c_branch2a"
}
layer {
  name: "res4c_branch2b"
  type: "Convolution"
  bottom: "res4c_branch2a"
  top: "res4c_branch2b"
  convolution_param {
    num_output: 256
    bias_term: false
    pad: 1
    kernel_size: 3
    stride: 1
  }
}
layer {
  name: "bn4c_branch2b"
  type: "BatchNorm"
  bottom: "res4c_branch2b"
  top: "res4c_branch2b"
  batch_norm_param {
    use_global_stats: true
  }
}
layer {
  name: "scale4c_branch2b"
  type: "Scale"
  bottom: "res4c_branch2b"
  top: "res4c_branch2b"
  scale_param {
    bias_term: true
  }
}
layer {
  name: "res4c_branch2b_relu"
  type: "ReLU"
  bottom: "res4c_branch2b"
  top: "res4c_branch2b"
}
layer {
  name: "res4c_branch2c"
  type: "Convolution"
  bottom: "res4c_branch2b"
  top: "res4c_branch2c"
  convolution_param {
    num_output: 1024
    bias_term: false
    pad: 0
    kernel_size: 1
    stride: 1
  }
}
layer {
  name: "bn4c_branch2c"
  type: "BatchNorm"
  bottom: "res4c_branch2c"
  top: "res4c_branch2c"
  batch_norm_param {
    use_global_stats: true
  }
}
layer {
  name: "scale4c_branch2c"
  type: "Scale"
  bottom: "res4c_branch2c"
  top: "res4c_branch2c"
  scale_param {
    bias_term: true
  }
}
layer {
  name: "res4c"
  type: "Eltwise"
  bottom: "res4b"
  bottom: "res4c_branch2c"
  top: "res4c"
}
layer {
  name: "res4c_relu"
  type: "ReLU"
  bottom: "res4c"
  top: "res4c"
}
layer {
  name: "res4d_branch2a"
  type: "Convolution"
  bottom: "res4c"
  top: "res4d_branch2a"
  convolution_param {
    num_output: 256
    bias_term: false
    pad: 0
    kernel_size: 1
    stride: 1
  }
}
layer {
  name: "bn4d_branch2a"
  type: "BatchNorm"
  bottom: "res4d_branch2a"
  top: "res4d_branch2a"
  batch_norm_param {
    use_global_stats: true
  }
}
layer {
  name: "scale4d_branch2a"
  type: "Scale"
  bottom: "res4d_branch2a"
  top: "res4d_branch2a"
  scale_param {
    bias_term: true
  }
}
layer {
  name: "res4d_branch2a_relu"
  type: "ReLU"
  bottom: "res4d_branch2a"
  top: "res4d_branch2a"
}
layer {
  name: "res4d_branch2b"
  type: "Convolution"
  bottom: "res4d_branch2a"
  top: "res4d_branch2b"
  convolution_param {
    num_output: 256
    bias_term: false
    pad: 1
    kernel_size: 3
    stride: 1
  }
}
layer {
  name: "bn4d_branch2b"
  type: "BatchNorm"
  bottom: "res4d_branch2b"
  top: "res4d_branch2b"
  batch_norm_param {
    use_global_stats: true
  }
}
layer {
  name: "scale4d_branch2b"
  type: "Scale"
  bottom: "res4d_branch2b"
  top: "res4d_branch2b"
  scale_param {
    bias_term: true
  }
}
layer {
  name: "res4d_branch2b_relu"
  type: "ReLU"
  bottom: "res4d_branch2b"
  top: "res4d_branch2b"
}
layer {
  name: "res4d_branch2c"
  type: "Convolution"
  bottom: "res4d_branch2b"
  top: "res4d_branch2c"
  convolution_param {
    num_output: 1024
    bias_term: false
    pad: 0
    kernel_size: 1
    stride: 1
  }
}
layer {
  name: "bn4d_branch2c"
  type: "BatchNorm"
  bottom: "res4d_branch2c"
  top: "res4d_branch2c"
  batch_norm_param {
    use_global_stats: true
  }
}
layer {
  name: "scale4d_branch2c"
  type: "Scale"
  bottom: "res4d_branch2c"
  top: "res4d_branch2c"
  scale_param {
    bias_term: true
  }
}
layer {
  name: "res4d"
  type: "Eltwise"
  bottom: "res4c"
  bottom: "res4d_branch2c"
  top: "res4d"
}
layer {
  name: "res4d_relu"
  type: "ReLU"
  bottom: "res4d"
  top: "res4d"
}
layer {
  name: "res4e_branch2a"
  type: "Convolution"
  bottom: "res4d"
  top: "res4e_branch2a"
  convolution_param {
    num_output: 256
    bias_term: false
    pad: 0
    kernel_size: 1
    stride: 1
  }
}
layer {
  name: "bn4e_branch2a"
  type: "BatchNorm"
  bottom: "res4e_branch2a"
  top: "res4e_branch2a"
  batch_norm_param {
    use_global_stats: true
  }
}
layer {
  name: "scale4e_branch2a"
  type: "Scale"
  bottom: "res4e_branch2a"
  top: "res4e_branch2a"
  scale_param {
    bias_term: true
  }
}
layer {
  name: "res4e_branch2a_relu"
  type: "ReLU"
  bottom: "res4e_branch2a"
  top: "res4e_branch2a"
}
layer {
  name: "res4e_branch2b"
  type: "Convolution"
  bottom: "res4e_branch2a"
  top: "res4e_branch2b"
  convolution_param {
    num_output: 256
    bias_term: false
    pad: 1
    kernel_size: 3
    stride: 1
  }
}
layer {
  name: "bn4e_branch2b"
  type: "BatchNorm"
  bottom: "res4e_branch2b"
  top: "res4e_branch2b"
  batch_norm_param {
    use_global_stats: true
  }
}
layer {
  name: "scale4e_branch2b"
  type: "Scale"
  bottom: "res4e_branch2b"
  top: "res4e_branch2b"
  scale_param {
    bias_term: true
  }
}
layer {
  name: "res4e_branch2b_relu"
  type: "ReLU"
  bottom: "res4e_branch2b"
  top: "res4e_branch2b"
}
layer {
  name: "res4e_branch2c"
  type: "Convolution"
  bottom: "res4e_branch2b"
  top: "res4e_branch2c"
  convolution_param {
    num_output: 1024
    bias_term: false
    pad: 0
    kernel_size: 1
    stride: 1
  }
}
layer {
  name: "bn4e_branch2c"
  type: "BatchNorm"
  bottom: "res4e_branch2c"
  top: "res4e_branch2c"
  batch_norm_param {
    use_global_stats: true
  }
}
layer {
  name: "scale4e_branch2c"
  type: "Scale"
  bottom: "res4e_branch2c"
  top: "res4e_branch2c"
  scale_param {
    bias_term: true
  }
}
layer {
  name: "res4e"
  type: "Eltwise"
  bottom: "res4d"
  bottom: "res4e_branch2c"
  top: "res4e"
}
layer {
  name: "res4e_relu"
  type: "ReLU"
  bottom: "res4e"
  top: "res4e"
}
layer {
  name: "res4f_branch2a"
  type: "Convolution"
  bottom: "res4e"
  top: "res4f_branch2a"
  convolution_param {
    num_output: 256
    bias_term: false
    pad: 0
    kernel_size: 1
    stride: 1
  }
}
layer {
  name: "bn4f_branch2a"
  type: "BatchNorm"
  bottom: "res4f_branch2a"
  top: "res4f_branch2a"
  batch_norm_param {
    use_global_stats: true
  }
}
layer {
  name: "scale4f_branch2a"
  type: "Scale"
  bottom: "res4f_branch2a"
  top: "res4f_branch2a"
  scale_param {
    bias_term: true
  }
}
layer {
  name: "res4f_branch2a_relu"
  type: "ReLU"
  bottom: "res4f_branch2a"
  top: "res4f_branch2a"
}
layer {
  name: "res4f_branch2b"
  type: "Convolution"
  bottom: "res4f_branch2a"
  top: "res4f_branch2b"
  convolution_param {
    num_output: 256
    bias_term: false
    pad: 1
    kernel_size: 3
    stride: 1
  }
}
layer {
  name: "bn4f_branch2b"
  type: "BatchNorm"
  bottom: "res4f_branch2b"
  top: "res4f_branch2b"
  batch_norm_param {
    use_global_stats: true
  }
}
layer {
  name: "scale4f_branch2b"
  type: "Scale"
  bottom: "res4f_branch2b"
  top: "res4f_branch2b"
  scale_param {
    bias_term: true
  }
}
layer {
  name: "res4f_branch2b_relu"
  type: "ReLU"
  bottom: "res4f_branch2b"
  top: "res4f_branch2b"
}
layer {
  name: "res4f_branch2c"
  type: "Convolution"
  bottom: "res4f_branch2b"
  top: "res4f_branch2c"
  convolution_param {
    num_output: 1024
    bias_term: false
    pad: 0
    kernel_size: 1
    stride: 1
  }
}
layer {
  name: "bn4f_branch2c"
  type: "BatchNorm"
  bottom: "res4f_branch2c"
  top: "res4f_branch2c"
  batch_norm_param {
    use_global_stats: true
  }
}
layer {
  name: "scale4f_branch2c"
  type: "Scale"
  bottom: "res4f_branch2c"
  top: "res4f_branch2c"
  scale_param {
    bias_term: true
  }
}
layer {
  name: "res4f"
  type: "Eltwise"
  bottom: "res4e"
  bottom: "res4f_branch2c"
  top: "res4f"
}
layer {
  name: "res4f_relu"
  type: "ReLU"
  bottom: "res4f"
  top: "res4f"
}
layer {
  name: "res5a_branch1"
  type: "Convolution"
  bottom: "res4f"
  top: "res5a_branch1"
  convolution_param {
    num_output: 2048
    bias_term: false
    pad: 0
    kernel_size: 1
    stride: 2
  }
}
layer {
  name: "bn5a_branch1"
  type: "BatchNorm"
  bottom: "res5a_branch1"
  top: "res5a_branch1"
  batch_norm_param {
    use_global_stats: true
  }
}
layer {
  name: "scale5a_branch1"
  type: "Scale"
  bottom: "res5a_branch1"
  top: "res5a_branch1"
  scale_param {
    bias_term: true
  }
}
layer {
  name: "res5a_branch2a"
  type: "Convolution"
  bottom: "res4f"
  top: "res5a_branch2a"
  convolution_param {
    num_output: 512
    bias_term: false
    pad: 0
    kernel_size: 1
    stride: 2
  }
}
layer {
  name: "bn5a_branch2a"
  type: "BatchNorm"
  bottom: "res5a_branch2a"
  top: "res5a_branch2a"
  batch_norm_param {
    use_global_stats: true
  }
}
layer {
  name: "scale5a_branch2a"
  type: "Scale"
  bottom: "res5a_branch2a"
  top: "res5a_branch2a"
  scale_param {
    bias_term: true
  }
}
layer {
  name: "res5a_branch2a_relu"
  type: "ReLU"
  bottom: "res5a_branch2a"
  top: "res5a_branch2a"
}
layer {
  name: "res5a_branch2b"
  type: "Convolution"
  bottom: "res5a_branch2a"
  top: "res5a_branch2b"
  convolution_param {
    num_output: 512
    bias_term: false
    pad: 1
    kernel_size: 3
    stride: 1
  }
}
layer {
  name: "bn5a_branch2b"
  type: "BatchNorm"
  bottom: "res5a_branch2b"
  top: "res5a_branch2b"
  batch_norm_param {
    use_global_stats: true
  }
}
layer {
  name: "scale5a_branch2b"
  type: "Scale"
  bottom: "res5a_branch2b"
  top: "res5a_branch2b"
  scale_param {
    bias_term: true
  }
}
layer {
  name: "res5a_branch2b_relu"
  type: "ReLU"
  bottom: "res5a_branch2b"
  top: "res5a_branch2b"
}
layer {
  name: "res5a_branch2c"
  type: "Convolution"
  bottom: "res5a_branch2b"
  top: "res5a_branch2c"
  convolution_param {
    num_output: 2048
    bias_term: false
    pad: 0
    kernel_size: 1
    stride: 1
  }
}
layer {
  name: "bn5a_branch2c"
  type: "BatchNorm"
  bottom: "res5a_branch2c"
  top: "res5a_branch2c"
  b
I0618 23:35:08.778319  7999 layer_factory.hpp:77] Creating layer data
I0618 23:35:08.780400  7999 net.cpp:91] Creating Layer data
I0618 23:35:08.780446  7999 net.cpp:399] data -> data
I0618 23:35:08.781141  7999 net.cpp:399] data -> label
I0618 23:35:08.853960  8010 db_lmdb.cpp:35] Opened lmdb ../data/fold1/train_lmdb
I0618 23:35:08.899590  7999 data_layer.cpp:41] output data size: 1,3,224,224
I0618 23:35:08.903058  7999 net.cpp:141] Setting up data
I0618 23:35:08.903087  7999 net.cpp:148] Top shape: 1 3 224 224 (150528)
I0618 23:35:08.903096  7999 net.cpp:148] Top shape: 1 (1)
I0618 23:35:08.903100  7999 net.cpp:156] Memory required for data: 602116
I0618 23:35:08.903111  7999 layer_factory.hpp:77] Creating layer conv1
I0618 23:35:08.903137  7999 net.cpp:91] Creating Layer conv1
I0618 23:35:08.903144  7999 net.cpp:425] conv1 <- data
I0618 23:35:08.903159  7999 net.cpp:399] conv1 -> conv1
I0618 23:35:09.313539  7999 net.cpp:141] Setting up conv1
I0618 23:35:09.313572  7999 net.cpp:148] Top shape: 1 64 112 112 (802816)
I0618 23:35:09.313578  7999 net.cpp:156] Memory required for data: 3813380
I0618 23:35:09.313607  7999 layer_factory.hpp:77] Creating layer bn_conv1
I0618 23:35:09.313957  7999 net.cpp:91] Creating Layer bn_conv1
I0618 23:35:09.313966  7999 net.cpp:425] bn_conv1 <- conv1
I0618 23:35:09.313972  7999 net.cpp:386] bn_conv1 -> conv1 (in-place)
I0618 23:35:09.314141  7999 net.cpp:141] Setting up bn_conv1
I0618 23:35:09.314153  7999 net.cpp:148] Top shape: 1 64 112 112 (802816)
I0618 23:35:09.314158  7999 net.cpp:156] Memory required for data: 7024644
I0618 23:35:09.314173  7999 layer_factory.hpp:77] Creating layer scale_conv1
I0618 23:35:09.314185  7999 net.cpp:91] Creating Layer scale_conv1
I0618 23:35:09.314191  7999 net.cpp:425] scale_conv1 <- conv1
I0618 23:35:09.314196  7999 net.cpp:386] scale_conv1 -> conv1 (in-place)
I0618 23:35:09.314251  7999 layer_factory.hpp:77] Creating layer scale_conv1
I0618 23:35:09.315055  7999 net.cpp:141] Setting up scale_conv1
I0618 23:35:09.315070  7999 net.cpp:148] Top shape: 1 64 112 112 (802816)
I0618 23:35:09.315100  7999 net.cpp:156] Memory required for data: 10235908
I0618 23:35:09.315111  7999 layer_factory.hpp:77] Creating layer conv1_relu
I0618 23:35:09.315121  7999 net.cpp:91] Creating Layer conv1_relu
I0618 23:35:09.315125  7999 net.cpp:425] conv1_relu <- conv1
I0618 23:35:09.315129  7999 net.cpp:386] conv1_relu -> conv1 (in-place)
I0618 23:35:09.315407  7999 net.cpp:141] Setting up conv1_relu
I0618 23:35:09.315421  7999 net.cpp:148] Top shape: 1 64 112 112 (802816)
I0618 23:35:09.315428  7999 net.cpp:156] Memory required for data: 13447172
I0618 23:35:09.315433  7999 layer_factory.hpp:77] Creating layer pool1
I0618 23:35:09.315448  7999 net.cpp:91] Creating Layer pool1
I0618 23:35:09.315451  7999 net.cpp:425] pool1 <- conv1
I0618 23:35:09.315456  7999 net.cpp:399] pool1 -> pool1
I0618 23:35:09.315517  7999 net.cpp:141] Setting up pool1
I0618 23:35:09.315529  7999 net.cpp:148] Top shape: 1 64 56 56 (200704)
I0618 23:35:09.315534  7999 net.cpp:156] Memory required for data: 14249988
I0618 23:35:09.315539  7999 layer_factory.hpp:77] Creating layer pool1_pool1_0_split
I0618 23:35:09.315551  7999 net.cpp:91] Creating Layer pool1_pool1_0_split
I0618 23:35:09.315554  7999 net.cpp:425] pool1_pool1_0_split <- pool1
I0618 23:35:09.315558  7999 net.cpp:399] pool1_pool1_0_split -> pool1_pool1_0_split_0
I0618 23:35:09.315567  7999 net.cpp:399] pool1_pool1_0_split -> pool1_pool1_0_split_1
I0618 23:35:09.315603  7999 net.cpp:141] Setting up pool1_pool1_0_split
I0618 23:35:09.315610  7999 net.cpp:148] Top shape: 1 64 56 56 (200704)
I0618 23:35:09.315614  7999 net.cpp:148] Top shape: 1 64 56 56 (200704)
I0618 23:35:09.315618  7999 net.cpp:156] Memory required for data: 15855620
I0618 23:35:09.315620  7999 layer_factory.hpp:77] Creating layer res2a_branch1
I0618 23:35:09.315629  7999 net.cpp:91] Creating Layer res2a_branch1
I0618 23:35:09.315632  7999 net.cpp:425] res2a_branch1 <- pool1_pool1_0_split_0
I0618 23:35:09.315637  7999 net.cpp:399] res2a_branch1 -> res2a_branch1
I0618 23:35:09.317001  7999 net.cpp:141] Setting up res2a_branch1
I0618 23:35:09.317018  7999 net.cpp:148] Top shape: 1 256 56 56 (802816)
I0618 23:35:09.317023  7999 net.cpp:156] Memory required for data: 19066884
I0618 23:35:09.317033  7999 layer_factory.hpp:77] Creating layer bn2a_branch1
I0618 23:35:09.317041  7999 net.cpp:91] Creating Layer bn2a_branch1
I0618 23:35:09.317045  7999 net.cpp:425] bn2a_branch1 <- res2a_branch1
I0618 23:35:09.317051  7999 net.cpp:386] bn2a_branch1 -> res2a_branch1 (in-place)
I0618 23:35:09.317698  7999 net.cpp:141] Setting up bn2a_branch1
I0618 23:35:09.317713  7999 net.cpp:148] Top shape: 1 256 56 56 (802816)
I0618 23:35:09.317719  7999 net.cpp:156] Memory required for data: 22278148
I0618 23:35:09.317734  7999 layer_factory.hpp:77] Creating layer scale2a_branch1
I0618 23:35:09.317741  7999 net.cpp:91] Creating Layer scale2a_branch1
I0618 23:35:09.317744  7999 net.cpp:425] scale2a_branch1 <- res2a_branch1
I0618 23:35:09.317749  7999 net.cpp:386] scale2a_branch1 -> res2a_branch1 (in-place)
I0618 23:35:09.317788  7999 layer_factory.hpp:77] Creating layer scale2a_branch1
I0618 23:35:09.317883  7999 net.cpp:141] Setting up scale2a_branch1
I0618 23:35:09.317890  7999 net.cpp:148] Top shape: 1 256 56 56 (802816)
I0618 23:35:09.317894  7999 net.cpp:156] Memory required for data: 25489412
I0618 23:35:09.317903  7999 layer_factory.hpp:77] Creating layer res2a_branch2a
I0618 23:35:09.317914  7999 net.cpp:91] Creating Layer res2a_branch2a
I0618 23:35:09.317916  7999 net.cpp:425] res2a_branch2a <- pool1_pool1_0_split_1
I0618 23:35:09.317921  7999 net.cpp:399] res2a_branch2a -> res2a_branch2a
I0618 23:35:09.318691  7999 net.cpp:141] Setting up res2a_branch2a
I0618 23:35:09.318707  7999 net.cpp:148] Top shape: 1 64 56 56 (200704)
I0618 23:35:09.318713  7999 net.cpp:156] Memory required for data: 26292228
I0618 23:35:09.318722  7999 layer_factory.hpp:77] Creating layer bn2a_branch2a
I0618 23:35:09.318733  7999 net.cpp:91] Creating Layer bn2a_branch2a
I0618 23:35:09.318737  7999 net.cpp:425] bn2a_branch2a <- res2a_branch2a
I0618 23:35:09.318763  7999 net.cpp:386] bn2a_branch2a -> res2a_branch2a (in-place)
I0618 23:35:09.318943  7999 net.cpp:141] Setting up bn2a_branch2a
I0618 23:35:09.318954  7999 net.cpp:148] Top shape: 1 64 56 56 (200704)
I0618 23:35:09.318959  7999 net.cpp:156] Memory required for data: 27095044
I0618 23:35:09.318974  7999 layer_factory.hpp:77] Creating layer scale2a_branch2a
I0618 23:35:09.318980  7999 net.cpp:91] Creating Layer scale2a_branch2a
I0618 23:35:09.318984  7999 net.cpp:425] scale2a_branch2a <- res2a_branch2a
I0618 23:35:09.318991  7999 net.cpp:386] scale2a_branch2a -> res2a_branch2a (in-place)
I0618 23:35:09.319053  7999 layer_factory.hpp:77] Creating layer scale2a_branch2a
I0618 23:35:09.319164  7999 net.cpp:141] Setting up scale2a_branch2a
I0618 23:35:09.319172  7999 net.cpp:148] Top shape: 1 64 56 56 (200704)
I0618 23:35:09.319175  7999 net.cpp:156] Memory required for data: 27897860
I0618 23:35:09.319180  7999 layer_factory.hpp:77] Creating layer res2a_branch2a_relu
I0618 23:35:09.319187  7999 net.cpp:91] Creating Layer res2a_branch2a_relu
I0618 23:35:09.319191  7999 net.cpp:425] res2a_branch2a_relu <- res2a_branch2a
I0618 23:35:09.319195  7999 net.cpp:386] res2a_branch2a_relu -> res2a_branch2a (in-place)
I0618 23:35:09.319460  7999 net.cpp:141] Setting up res2a_branch2a_relu
I0618 23:35:09.319473  7999 net.cpp:148] Top shape: 1 64 56 56 (200704)
I0618 23:35:09.319475  7999 net.cpp:156] Memory required for data: 28700676
I0618 23:35:09.319479  7999 layer_factory.hpp:77] Creating layer res2a_branch2b
I0618 23:35:09.319488  7999 net.cpp:91] Creating Layer res2a_branch2b
I0618 23:35:09.319491  7999 net.cpp:425] res2a_branch2b <- res2a_branch2a
I0618 23:35:09.319497  7999 net.cpp:399] res2a_branch2b -> res2a_branch2b
I0618 23:35:09.320860  7999 net.cpp:141] Setting up res2a_branch2b
I0618 23:35:09.320878  7999 net.cpp:148] Top shape: 1 64 56 56 (200704)
I0618 23:35:09.320883  7999 net.cpp:156] Memory required for data: 29503492
I0618 23:35:09.320893  7999 layer_factory.hpp:77] Creating layer bn2a_branch2b
I0618 23:35:09.320901  7999 net.cpp:91] Creating Layer bn2a_branch2b
I0618 23:35:09.320904  7999 net.cpp:425] bn2a_branch2b <- res2a_branch2b
I0618 23:35:09.320909  7999 net.cpp:386] bn2a_branch2b -> res2a_branch2b (in-place)
I0618 23:35:09.321072  7999 net.cpp:141] Setting up bn2a_branch2b
I0618 23:35:09.321079  7999 net.cpp:148] Top shape: 1 64 56 56 (200704)
I0618 23:35:09.321082  7999 net.cpp:156] Memory required for data: 30306308
I0618 23:35:09.321089  7999 layer_factory.hpp:77] Creating layer scale2a_branch2b
I0618 23:35:09.321099  7999 net.cpp:91] Creating Layer scale2a_branch2b
I0618 23:35:09.321102  7999 net.cpp:425] scale2a_branch2b <- res2a_branch2b
I0618 23:35:09.321106  7999 net.cpp:386] scale2a_branch2b -> res2a_branch2b (in-place)
I0618 23:35:09.321141  7999 layer_factory.hpp:77] Creating layer scale2a_branch2b
I0618 23:35:09.321238  7999 net.cpp:141] Setting up scale2a_branch2b
I0618 23:35:09.321244  7999 net.cpp:148] Top shape: 1 64 56 56 (200704)
I0618 23:35:09.321246  7999 net.cpp:156] Memory required for data: 31109124
I0618 23:35:09.321251  7999 layer_factory.hpp:77] Creating layer res2a_branch2b_relu
I0618 23:35:09.321259  7999 net.cpp:91] Creating Layer res2a_branch2b_relu
I0618 23:35:09.321261  7999 net.cpp:425] res2a_branch2b_relu <- res2a_branch2b
I0618 23:35:09.321265  7999 net.cpp:386] res2a_branch2b_relu -> res2a_branch2b (in-place)
I0618 23:35:09.321437  7999 net.cpp:141] Setting up res2a_branch2b_relu
I0618 23:35:09.321451  7999 net.cpp:148] Top shape: 1 64 56 56 (200704)
I0618 23:35:09.321456  7999 net.cpp:156] Memory required for data: 31911940
I0618 23:35:09.321461  7999 layer_factory.hpp:77] Creating layer res2a_branch2c
I0618 23:35:09.321475  7999 net.cpp:91] Creating Layer res2a_branch2c
I0618 23:35:09.321480  7999 net.cpp:425] res2a_branch2c <- res2a_branch2b
I0618 23:35:09.321486  7999 net.cpp:399] res2a_branch2c -> res2a_branch2c
I0618 23:35:09.322307  7999 net.cpp:141] Setting up res2a_branch2c
I0618 23:35:09.322324  7999 net.cpp:148] Top shape: 1 256 56 56 (802816)
I0618 23:35:09.322345  7999 net.cpp:156] Memory required for data: 35123204
I0618 23:35:09.322353  7999 layer_factory.hpp:77] Creating layer bn2a_branch2c
I0618 23:35:09.322361  7999 net.cpp:91] Creating Layer bn2a_branch2c
I0618 23:35:09.322371  7999 net.cpp:425] bn2a_branch2c <- res2a_branch2c
I0618 23:35:09.322377  7999 net.cpp:386] bn2a_branch2c -> res2a_branch2c (in-place)
I0618 23:35:09.322551  7999 net.cpp:141] Setting up bn2a_branch2c
I0618 23:35:09.322563  7999 net.cpp:148] Top shape: 1 256 56 56 (802816)
I0618 23:35:09.322568  7999 net.cpp:156] Memory required for data: 38334468
I0618 23:35:09.322579  7999 layer_factory.hpp:77] Creating layer scale2a_branch2c
I0618 23:35:09.322589  7999 net.cpp:91] Creating Layer scale2a_branch2c
I0618 23:35:09.322592  7999 net.cpp:425] scale2a_branch2c <- res2a_branch2c
I0618 23:35:09.322597  7999 net.cpp:386] scale2a_branch2c -> res2a_branch2c (in-place)
I0618 23:35:09.322635  7999 layer_factory.hpp:77] Creating layer scale2a_branch2c
I0618 23:35:09.322729  7999 net.cpp:141] Setting up scale2a_branch2c
I0618 23:35:09.322736  7999 net.cpp:148] Top shape: 1 256 56 56 (802816)
I0618 23:35:09.322739  7999 net.cpp:156] Memory required for data: 41545732
I0618 23:35:09.322744  7999 layer_factory.hpp:77] Creating layer res2a
I0618 23:35:09.322752  7999 net.cpp:91] Creating Layer res2a
I0618 23:35:09.322756  7999 net.cpp:425] res2a <- res2a_branch1
I0618 23:35:09.322759  7999 net.cpp:425] res2a <- res2a_branch2c
I0618 23:35:09.322765  7999 net.cpp:399] res2a -> res2a
I0618 23:35:09.322793  7999 net.cpp:141] Setting up res2a
I0618 23:35:09.322798  7999 net.cpp:148] Top shape: 1 256 56 56 (802816)
I0618 23:35:09.322801  7999 net.cpp:156] Memory required for data: 44756996
I0618 23:35:09.322804  7999 layer_factory.hpp:77] Creating layer res2a_relu
I0618 23:35:09.322809  7999 net.cpp:91] Creating Layer res2a_relu
I0618 23:35:09.322813  7999 net.cpp:425] res2a_relu <- res2a
I0618 23:35:09.322816  7999 net.cpp:386] res2a_relu -> res2a (in-place)
I0618 23:35:09.323106  7999 net.cpp:141] Setting up res2a_relu
I0618 23:35:09.323117  7999 net.cpp:148] Top shape: 1 256 56 56 (802816)
I0618 23:35:09.323119  7999 net.cpp:156] Memory required for data: 47968260
I0618 23:35:09.323123  7999 layer_factory.hpp:77] Creating layer res2a_res2a_relu_0_split
I0618 23:35:09.323129  7999 net.cpp:91] Creating Layer res2a_res2a_relu_0_split
I0618 23:35:09.323132  7999 net.cpp:425] res2a_res2a_relu_0_split <- res2a
I0618 23:35:09.323138  7999 net.cpp:399] res2a_res2a_relu_0_split -> res2a_res2a_relu_0_split_0
I0618 23:35:09.323146  7999 net.cpp:399] res2a_res2a_relu_0_split -> res2a_res2a_relu_0_split_1
I0618 23:35:09.323197  7999 net.cpp:141] Setting up res2a_res2a_relu_0_split
I0618 23:35:09.323206  7999 net.cpp:148] Top shape: 1 256 56 56 (802816)
I0618 23:35:09.323210  7999 net.cpp:148] Top shape: 1 256 56 56 (802816)
I0618 23:35:09.323212  7999 net.cpp:156] Memory required for data: 54390788
I0618 23:35:09.323216  7999 layer_factory.hpp:77] Creating layer res2b_branch2a
I0618 23:35:09.323230  7999 net.cpp:91] Creating Layer res2b_branch2a
I0618 23:35:09.323235  7999 net.cpp:425] res2b_branch2a <- res2a_res2a_relu_0_split_0
I0618 23:35:09.323241  7999 net.cpp:399] res2b_branch2a -> res2b_branch2a
I0618 23:35:09.324220  7999 net.cpp:141] Setting up res2b_branch2a
I0618 23:35:09.324235  7999 net.cpp:148] Top shape: 1 64 56 56 (200704)
I0618 23:35:09.324241  7999 net.cpp:156] Memory required for data: 55193604
I0618 23:35:09.324249  7999 layer_factory.hpp:77] Creating layer bn2b_branch2a
I0618 23:35:09.324260  7999 net.cpp:91] Creating Layer bn2b_branch2a
I0618 23:35:09.324265  7999 net.cpp:425] bn2b_branch2a <- res2b_branch2a
I0618 23:35:09.324272  7999 net.cpp:386] bn2b_branch2a -> res2b_branch2a (in-place)
I0618 23:35:09.324465  7999 net.cpp:141] Setting up bn2b_branch2a
I0618 23:35:09.324478  7999 net.cpp:148] Top shape: 1 64 56 56 (200704)
I0618 23:35:09.324483  7999 net.cpp:156] Memory required for data: 55996420
I0618 23:35:09.324499  7999 layer_factory.hpp:77] Creating layer scale2b_branch2a
I0618 23:35:09.324517  7999 net.cpp:91] Creating Layer scale2b_branch2a
I0618 23:35:09.324522  7999 net.cpp:425] scale2b_branch2a <- res2b_branch2a
I0618 23:35:09.324525  7999 net.cpp:386] scale2b_branch2a -> res2b_branch2a (in-place)
I0618 23:35:09.324568  7999 layer_factory.hpp:77] Creating layer scale2b_branch2a
I0618 23:35:09.324678  7999 net.cpp:141] Setting up scale2b_branch2a
I0618 23:35:09.324686  7999 net.cpp:148] Top shape: 1 64 56 56 (200704)
I0618 23:35:09.324688  7999 net.cpp:156] Memory required for data: 56799236
I0618 23:35:09.324693  7999 layer_factory.hpp:77] Creating layer res2b_branch2a_relu
I0618 23:35:09.324699  7999 net.cpp:91] Creating Layer res2b_branch2a_relu
I0618 23:35:09.324702  7999 net.cpp:425] res2b_branch2a_relu <- res2b_branch2a
I0618 23:35:09.324707  7999 net.cpp:386] res2b_branch2a_relu -> res2b_branch2a (in-place)
I0618 23:35:09.324983  7999 net.cpp:141] Setting up res2b_branch2a_relu
I0618 23:35:09.324997  7999 net.cpp:148] Top shape: 1 64 56 56 (200704)
I0618 23:35:09.325003  7999 net.cpp:156] Memory required for data: 57602052
I0618 23:35:09.325008  7999 layer_factory.hpp:77] Creating layer res2b_branch2b
I0618 23:35:09.325024  7999 net.cpp:91] Creating Layer res2b_branch2b
I0618 23:35:09.325029  7999 net.cpp:425] res2b_branch2b <- res2b_branch2a
I0618 23:35:09.325039  7999 net.cpp:399] res2b_branch2b -> res2b_branch2b
I0618 23:35:09.326097  7999 net.cpp:141] Setting up res2b_branch2b
I0618 23:35:09.326112  7999 net.cpp:148] Top shape: 1 64 56 56 (200704)
I0618 23:35:09.326117  7999 net.cpp:156] Memory required for data: 58404868
I0618 23:35:09.326127  7999 layer_factory.hpp:77] Creating layer bn2b_branch2b
I0618 23:35:09.326135  7999 net.cpp:91] Creating Layer bn2b_branch2b
I0618 23:35:09.326139  7999 net.cpp:425] bn2b_branch2b <- res2b_branch2b
I0618 23:35:09.326143  7999 net.cpp:386] bn2b_branch2b -> res2b_branch2b (in-place)
I0618 23:35:09.326308  7999 net.cpp:141] Setting up bn2b_branch2b
I0618 23:35:09.326315  7999 net.cpp:148] Top shape: 1 64 56 56 (200704)
I0618 23:35:09.326318  7999 net.cpp:156] Memory required for data: 59207684
I0618 23:35:09.326324  7999 layer_factory.hpp:77] Creating layer scale2b_branch2b
I0618 23:35:09.326330  7999 net.cpp:91] Creating Layer scale2b_branch2b
I0618 23:35:09.326334  7999 net.cpp:425] scale2b_branch2b <- res2b_branch2b
I0618 23:35:09.326339  7999 net.cpp:386] scale2b_branch2b -> res2b_branch2b (in-place)
I0618 23:35:09.326375  7999 layer_factory.hpp:77] Creating layer scale2b_branch2b
I0618 23:35:09.326474  7999 net.cpp:141] Setting up scale2b_branch2b
I0618 23:35:09.326483  7999 net.cpp:148] Top shape: 1 64 56 56 (200704)
I0618 23:35:09.326485  7999 net.cpp:156] Memory required for data: 60010500
I0618 23:35:09.326490  7999 layer_factory.hpp:77] Creating layer res2b_branch2b_relu
I0618 23:35:09.326495  7999 net.cpp:91] Creating Layer res2b_branch2b_relu
I0618 23:35:09.326498  7999 net.cpp:425] res2b_branch2b_relu <- res2b_branch2b
I0618 23:35:09.326503  7999 net.cpp:386] res2b_branch2b_relu -> res2b_branch2b (in-place)
I0618 23:35:09.326683  7999 net.cpp:141] Setting up res2b_branch2b_relu
I0618 23:35:09.326695  7999 net.cpp:148] Top shape: 1 64 56 56 (200704)
I0618 23:35:09.326700  7999 net.cpp:156] Memory required for data: 60813316
I0618 23:35:09.326705  7999 layer_factory.hpp:77] Creating layer res2b_branch2c
I0618 23:35:09.326717  7999 net.cpp:91] Creating Layer res2b_branch2c
I0618 23:35:09.326721  7999 net.cpp:425] res2b_branch2c <- res2b_branch2b
I0618 23:35:09.326730  7999 net.cpp:399] res2b_branch2c -> res2b_branch2c
I0618 23:35:09.327605  7999 net.cpp:141] Setting up res2b_branch2c
I0618 23:35:09.327620  7999 net.cpp:148] Top shape: 1 256 56 56 (802816)
I0618 23:35:09.327625  7999 net.cpp:156] Memory required for data: 64024580
I0618 23:35:09.327633  7999 layer_factory.hpp:77] Creating layer bn2b_branch2c
I0618 23:35:09.327641  7999 net.cpp:91] Creating Layer bn2b_branch2c
I0618 23:35:09.327647  7999 net.cpp:425] bn2b_branch2c <- res2b_branch2c
I0618 23:35:09.327659  7999 net.cpp:386] bn2b_branch2c -> res2b_branch2c (in-place)
I0618 23:35:09.327844  7999 net.cpp:141] Setting up bn2b_branch2c
I0618 23:35:09.327853  7999 net.cpp:148] Top shape: 1 256 56 56 (802816)
I0618 23:35:09.327857  7999 net.cpp:156] Memory required for data: 67235844
I0618 23:35:09.327863  7999 layer_factory.hpp:77] Creating layer scale2b_branch2c
I0618 23:35:09.327869  7999 net.cpp:91] Creating Layer scale2b_branch2c
I0618 23:35:09.327872  7999 net.cpp:425] scale2b_branch2c <- res2b_branch2c
I0618 23:35:09.327877  7999 net.cpp:386] scale2b_branch2c -> res2b_branch2c (in-place)
I0618 23:35:09.327913  7999 layer_factory.hpp:77] Creating layer scale2b_branch2c
I0618 23:35:09.328011  7999 net.cpp:141] Setting up scale2b_branch2c
I0618 23:35:09.328017  7999 net.cpp:148] Top shape: 1 256 56 56 (802816)
I0618 23:35:09.328021  7999 net.cpp:156] Memory required for data: 70447108
I0618 23:35:09.328025  7999 layer_factory.hpp:77] Creating layer res2b
I0618 23:35:09.328032  7999 net.cpp:91] Creating Layer res2b
I0618 23:35:09.328035  7999 net.cpp:425] res2b <- res2a_res2a_relu_0_split_1
I0618 23:35:09.328039  7999 net.cpp:425] res2b <- res2b_branch2c
I0618 23:35:09.328043  7999 net.cpp:399] res2b -> res2b
I0618 23:35:09.328069  7999 net.cpp:141] Setting up res2b
I0618 23:35:09.328075  7999 net.cpp:148] Top shape: 1 256 56 56 (802816)
I0618 23:35:09.328078  7999 net.cpp:156] Memory required for data: 73658372
I0618 23:35:09.328080  7999 layer_factory.hpp:77] Creating layer res2b_relu
I0618 23:35:09.328088  7999 net.cpp:91] Creating Layer res2b_relu
I0618 23:35:09.328090  7999 net.cpp:425] res2b_relu <- res2b
I0618 23:35:09.328094  7999 net.cpp:386] res2b_relu -> res2b (in-place)
I0618 23:35:09.328380  7999 net.cpp:141] Setting up res2b_relu
I0618 23:35:09.328395  7999 net.cpp:148] Top shape: 1 256 56 56 (802816)
I0618 23:35:09.328400  7999 net.cpp:156] Memory required for data: 76869636
I0618 23:35:09.328405  7999 layer_factory.hpp:77] Creating layer res2b_res2b_relu_0_split
I0618 23:35:09.328414  7999 net.cpp:91] Creating Layer res2b_res2b_relu_0_split
I0618 23:35:09.328418  7999 net.cpp:425] res2b_res2b_relu_0_split <- res2b
I0618 23:35:09.328423  7999 net.cpp:399] res2b_res2b_relu_0_split -> res2b_res2b_relu_0_split_0
I0618 23:35:09.328431  7999 net.cpp:399] res2b_res2b_relu_0_split -> res2b_res2b_relu_0_split_1
I0618 23:35:09.328483  7999 net.cpp:141] Setting up res2b_res2b_relu_0_split
I0618 23:35:09.328495  7999 net.cpp:148] Top shape: 1 256 56 56 (802816)
I0618 23:35:09.328500  7999 net.cpp:148] Top shape: 1 256 56 56 (802816)
I0618 23:35:09.328505  7999 net.cpp:156] Memory required for data: 83292164
I0618 23:35:09.328510  7999 layer_factory.hpp:77] Creating layer res2c_branch2a
I0618 23:35:09.328521  7999 net.cpp:91] Creating Layer res2c_branch2a
I0618 23:35:09.328526  7999 net.cpp:425] res2c_branch2a <- res2b_res2b_relu_0_split_0
I0618 23:35:09.328534  7999 net.cpp:399] res2c_branch2a -> res2c_branch2a
I0618 23:35:09.329285  7999 net.cpp:141] Setting up res2c_branch2a
I0618 23:35:09.329300  7999 net.cpp:148] Top shape: 1 64 56 56 (200704)
I0618 23:35:09.329305  7999 net.cpp:156] Memory required for data: 84094980
I0618 23:35:09.329314  7999 layer_factory.hpp:77] Creating layer bn2c_branch2a
I0618 23:35:09.329324  7999 net.cpp:91] Creating Layer bn2c_branch2a
I0618 23:35:09.329327  7999 net.cpp:425] bn2c_branch2a <- res2c_branch2a
I0618 23:35:09.329336  7999 net.cpp:386] bn2c_branch2a -> res2c_branch2a (in-place)
I0618 23:35:09.329525  7999 net.cpp:141] Setting up bn2c_branch2a
I0618 23:35:09.329536  7999 net.cpp:148] Top shape: 1 64 56 56 (200704)
I0618 23:35:09.329542  7999 net.cpp:156] Memory required for data: 84897796
I0618 23:35:09.329551  7999 layer_factory.hpp:77] Creating layer scale2c_branch2a
I0618 23:35:09.329560  7999 net.cpp:91] Creating Layer scale2c_branch2a
I0618 23:35:09.329565  7999 net.cpp:425] scale2c_branch2a <- res2c_branch2a
I0618 23:35:09.329572  7999 net.cpp:386] scale2c_branch2a -> res2c_branch2a (in-place)
I0618 23:35:09.329620  7999 layer_factory.hpp:77] Creating layer scale2c_branch2a
I0618 23:35:09.329727  7999 net.cpp:141] Setting up scale2c_branch2a
I0618 23:35:09.329746  7999 net.cpp:148] Top shape: 1 64 56 56 (200704)
I0618 23:35:09.329749  7999 net.cpp:156] Memory required for data: 85700612
I0618 23:35:09.329754  7999 layer_factory.hpp:77] Creating layer res2c_branch2a_relu
I0618 23:35:09.329762  7999 net.cpp:91] Creating Layer res2c_branch2a_relu
I0618 23:35:09.329766  7999 net.cpp:425] res2c_branch2a_relu <- res2c_branch2a
I0618 23:35:09.329769  7999 net.cpp:386] res2c_branch2a_relu -> res2c_branch2a (in-place)
I0618 23:35:09.330032  7999 net.cpp:141] Setting up res2c_branch2a_relu
I0618 23:35:09.330044  7999 net.cpp:148] Top shape: 1 64 56 56 (200704)
I0618 23:35:09.330046  7999 net.cpp:156] Memory required for data: 86503428
I0618 23:35:09.330050  7999 layer_factory.hpp:77] Creating layer res2c_branch2b
I0618 23:35:09.330062  7999 net.cpp:91] Creating Layer res2c_branch2b
I0618 23:35:09.330066  7999 net.cpp:425] res2c_branch2b <- res2c_branch2a
I0618 23:35:09.330071  7999 net.cpp:399] res2c_branch2b -> res2c_branch2b
I0618 23:35:09.331030  7999 net.cpp:141] Setting up res2c_branch2b
I0618 23:35:09.331045  7999 net.cpp:148] Top shape: 1 64 56 56 (200704)
I0618 23:35:09.331050  7999 net.cpp:156] Memory required for data: 87306244
I0618 23:35:09.331059  7999 layer_factory.hpp:77] Creating layer bn2c_branch2b
I0618 23:35:09.331070  7999 net.cpp:91] Creating Layer bn2c_branch2b
I0618 23:35:09.331075  7999 net.cpp:425] bn2c_branch2b <- res2c_branch2b
I0618 23:35:09.331081  7999 net.cpp:386] bn2c_branch2b -> res2c_branch2b (in-place)
I0618 23:35:09.331270  7999 net.cpp:141] Setting up bn2c_branch2b
I0618 23:35:09.331281  7999 net.cpp:148] Top shape: 1 64 56 56 (200704)
I0618 23:35:09.331286  7999 net.cpp:156] Memory required for data: 88109060
I0618 23:35:09.331302  7999 layer_factory.hpp:77] Creating layer scale2c_branch2b
I0618 23:35:09.331310  7999 net.cpp:91] Creating Layer scale2c_branch2b
I0618 23:35:09.331315  7999 net.cpp:425] scale2c_branch2b <- res2c_branch2b
I0618 23:35:09.331321  7999 net.cpp:386] scale2c_branch2b -> res2c_branch2b (in-place)
I0618 23:35:09.331374  7999 layer_factory.hpp:77] Creating layer scale2c_branch2b
I0618 23:35:09.331501  7999 net.cpp:141] Setting up scale2c_branch2b
I0618 23:35:09.331511  7999 net.cpp:148] Top shape: 1 64 56 56 (200704)
I0618 23:35:09.331516  7999 net.cpp:156] Memory required for data: 88911876
I0618 23:35:09.331523  7999 layer_factory.hpp:77] Creating layer res2c_branch2b_relu
I0618 23:35:09.331529  7999 net.cpp:91] Creating Layer res2c_branch2b_relu
I0618 23:35:09.331532  7999 net.cpp:425] res2c_branch2b_relu <- res2c_branch2b
I0618 23:35:09.331538  7999 net.cpp:386] res2c_branch2b_relu -> res2c_branch2b (in-place)
I0618 23:35:09.331693  7999 net.cpp:141] Setting up res2c_branch2b_relu
I0618 23:35:09.331701  7999 net.cpp:148] Top shape: 1 64 56 56 (200704)
I0618 23:35:09.331704  7999 net.cpp:156] Memory required for data: 89714692
I0618 23:35:09.331708  7999 layer_factory.hpp:77] Creating layer res2c_branch2c
I0618 23:35:09.331718  7999 net.cpp:91] Creating Layer res2c_branch2c
I0618 23:35:09.331722  7999 net.cpp:425] res2c_branch2c <- res2c_branch2b
I0618 23:35:09.331727  7999 net.cpp:399] res2c_branch2c -> res2c_branch2c
I0618 23:35:09.332597  7999 net.cpp:141] Setting up res2c_branch2c
I0618 23:35:09.332613  7999 net.cpp:148] Top shape: 1 256 56 56 (802816)
I0618 23:35:09.332618  7999 net.cpp:156] Memory required for data: 92925956
I0618 23:35:09.332628  7999 layer_factory.hpp:77] Creating layer bn2c_branch2c
I0618 23:35:09.332638  7999 net.cpp:91] Creating Layer bn2c_branch2c
I0618 23:35:09.332643  7999 net.cpp:425] bn2c_branch2c <- res2c_branch2c
I0618 23:35:09.332648  7999 net.cpp:386] bn2c_branch2c -> res2c_branch2c (in-place)
I0618 23:35:09.332821  7999 net.cpp:141] Setting up bn2c_branch2c
I0618 23:35:09.332833  7999 net.cpp:148] Top shape: 1 256 56 56 (802816)
I0618 23:35:09.332839  7999 net.cpp:156] Memory required for data: 96137220
I0618 23:35:09.332859  7999 layer_factory.hpp:77] Creating layer scale2c_branch2c
I0618 23:35:09.332871  7999 net.cpp:91] Creating Layer scale2c_branch2c
I0618 23:35:09.332890  7999 net.cpp:425] scale2c_branch2c <- res2c_branch2c
I0618 23:35:09.332896  7999 net.cpp:386] scale2c_branch2c -> res2c_branch2c (in-place)
I0618 23:35:09.332949  7999 layer_factory.hpp:77] Creating layer scale2c_branch2c
I0618 23:35:09.333077  7999 net.cpp:141] Setting up scale2c_branch2c
I0618 23:35:09.333089  7999 net.cpp:148] Top shape: 1 256 56 56 (802816)
I0618 23:35:09.333094  7999 net.cpp:156] Memory required for data: 99348484
I0618 23:35:09.333102  7999 layer_factory.hpp:77] Creating layer res2c
I0618 23:35:09.333112  7999 net.cpp:91] Creating Layer res2c
I0618 23:35:09.333115  7999 net.cpp:425] res2c <- res2b_res2b_relu_0_split_1
I0618 23:35:09.333119  7999 net.cpp:425] res2c <- res2c_branch2c
I0618 23:35:09.333123  7999 net.cpp:399] res2c -> res2c
I0618 23:35:09.333154  7999 net.cpp:141] Setting up res2c
I0618 23:35:09.333163  7999 net.cpp:148] Top shape: 1 256 56 56 (802816)
I0618 23:35:09.333165  7999 net.cpp:156] Memory required for data: 102559748
I0618 23:35:09.333168  7999 layer_factory.hpp:77] Creating layer res2c_relu
I0618 23:35:09.333175  7999 net.cpp:91] Creating Layer res2c_relu
I0618 23:35:09.333179  7999 net.cpp:425] res2c_relu <- res2c
I0618 23:35:09.333186  7999 net.cpp:386] res2c_relu -> res2c (in-place)
I0618 23:35:09.333461  7999 net.cpp:141] Setting up res2c_relu
I0618 23:35:09.333477  7999 net.cpp:148] Top shape: 1 256 56 56 (802816)
I0618 23:35:09.333482  7999 net.cpp:156] Memory required for data: 105771012
I0618 23:35:09.333487  7999 layer_factory.hpp:77] Creating layer res2c_res2c_relu_0_split
I0618 23:35:09.333494  7999 net.cpp:91] Creating Layer res2c_res2c_relu_0_split
I0618 23:35:09.333498  7999 net.cpp:425] res2c_res2c_relu_0_split <- res2c
I0618 23:35:09.333504  7999 net.cpp:399] res2c_res2c_relu_0_split -> res2c_res2c_relu_0_split_0
I0618 23:35:09.333510  7999 net.cpp:399] res2c_res2c_relu_0_split -> res2c_res2c_relu_0_split_1
I0618 23:35:09.333551  7999 net.cpp:141] Setting up res2c_res2c_relu_0_split
I0618 23:35:09.333557  7999 net.cpp:148] Top shape: 1 256 56 56 (802816)
I0618 23:35:09.333561  7999 net.cpp:148] Top shape: 1 256 56 56 (802816)
I0618 23:35:09.333564  7999 net.cpp:156] Memory required for data: 112193540
I0618 23:35:09.333566  7999 layer_factory.hpp:77] Creating layer res3a_branch1
I0618 23:35:09.333576  7999 net.cpp:91] Creating Layer res3a_branch1
I0618 23:35:09.333580  7999 net.cpp:425] res3a_branch1 <- res2c_res2c_relu_0_split_0
I0618 23:35:09.333585  7999 net.cpp:399] res3a_branch1 -> res3a_branch1
I0618 23:35:09.334954  7999 net.cpp:141] Setting up res3a_branch1
I0618 23:35:09.334969  7999 net.cpp:148] Top shape: 1 512 28 28 (401408)
I0618 23:35:09.334975  7999 net.cpp:156] Memory required for data: 113799172
I0618 23:35:09.334983  7999 layer_factory.hpp:77] Creating layer bn3a_branch1
I0618 23:35:09.334992  7999 net.cpp:91] Creating Layer bn3a_branch1
I0618 23:35:09.334996  7999 net.cpp:425] bn3a_branch1 <- res3a_branch1
I0618 23:35:09.335005  7999 net.cpp:386] bn3a_branch1 -> res3a_branch1 (in-place)
I0618 23:35:09.335898  7999 net.cpp:141] Setting up bn3a_branch1
I0618 23:35:09.335916  7999 net.cpp:148] Top shape: 1 512 28 28 (401408)
I0618 23:35:09.335922  7999 net.cpp:156] Memory required for data: 115404804
I0618 23:35:09.335935  7999 layer_factory.hpp:77] Creating layer scale3a_branch1
I0618 23:35:09.335945  7999 net.cpp:91] Creating Layer scale3a_branch1
I0618 23:35:09.335949  7999 net.cpp:425] scale3a_branch1 <- res3a_branch1
I0618 23:35:09.335954  7999 net.cpp:386] scale3a_branch1 -> res3a_branch1 (in-place)
I0618 23:35:09.336001  7999 layer_factory.hpp:77] Creating layer scale3a_branch1
I0618 23:35:09.336127  7999 net.cpp:141] Setting up scale3a_branch1
I0618 23:35:09.336138  7999 net.cpp:148] Top shape: 1 512 28 28 (401408)
I0618 23:35:09.336143  7999 net.cpp:156] Memory required for data: 117010436
I0618 23:35:09.336150  7999 layer_factory.hpp:77] Creating layer res3a_branch2a
I0618 23:35:09.336160  7999 net.cpp:91] Creating Layer res3a_branch2a
I0618 23:35:09.336164  7999 net.cpp:425] res3a_branch2a <- res2c_res2c_relu_0_split_1
I0618 23:35:09.336189  7999 net.cpp:399] res3a_branch2a -> res3a_branch2a
I0618 23:35:09.337945  7999 net.cpp:141] Setting up res3a_branch2a
I0618 23:35:09.337961  7999 net.cpp:148] Top shape: 1 128 28 28 (100352)
I0618 23:35:09.337966  7999 net.cpp:156] Memory required for data: 117411844
I0618 23:35:09.337975  7999 layer_factory.hpp:77] Creating layer bn3a_branch2a
I0618 23:35:09.337982  7999 net.cpp:91] Creating Layer bn3a_branch2a
I0618 23:35:09.337986  7999 net.cpp:425] bn3a_branch2a <- res3a_branch2a
I0618 23:35:09.337993  7999 net.cpp:386] bn3a_branch2a -> res3a_branch2a (in-place)
I0618 23:35:09.338158  7999 net.cpp:141] Setting up bn3a_branch2a
I0618 23:35:09.338165  7999 net.cpp:148] Top shape: 1 128 28 28 (100352)
I0618 23:35:09.338168  7999 net.cpp:156] Memory required for data: 117813252
I0618 23:35:09.338176  7999 layer_factory.hpp:77] Creating layer scale3a_branch2a
I0618 23:35:09.338181  7999 net.cpp:91] Creating Layer scale3a_branch2a
I0618 23:35:09.338184  7999 net.cpp:425] scale3a_branch2a <- res3a_branch2a
I0618 23:35:09.338188  7999 net.cpp:386] scale3a_branch2a -> res3a_branch2a (in-place)
I0618 23:35:09.338223  7999 layer_factory.hpp:77] Creating layer scale3a_branch2a
I0618 23:35:09.338343  7999 net.cpp:141] Setting up scale3a_branch2a
I0618 23:35:09.338353  7999 net.cpp:148] Top shape: 1 128 28 28 (100352)
I0618 23:35:09.338358  7999 net.cpp:156] Memory required for data: 118214660
I0618 23:35:09.338366  7999 layer_factory.hpp:77] Creating layer res3a_branch2a_relu
I0618 23:35:09.338374  7999 net.cpp:91] Creating Layer res3a_branch2a_relu
I0618 23:35:09.338377  7999 net.cpp:425] res3a_branch2a_relu <- res3a_branch2a
I0618 23:35:09.338383  7999 net.cpp:386] res3a_branch2a_relu -> res3a_branch2a (in-place)
I0618 23:35:09.338657  7999 net.cpp:141] Setting up res3a_branch2a_relu
I0618 23:35:09.338671  7999 net.cpp:148] Top shape: 1 128 28 28 (100352)
I0618 23:35:09.338677  7999 net.cpp:156] Memory required for data: 118616068
I0618 23:35:09.338682  7999 layer_factory.hpp:77] Creating layer res3a_branch2b
I0618 23:35:09.338695  7999 net.cpp:91] Creating Layer res3a_branch2b
I0618 23:35:09.338699  7999 net.cpp:425] res3a_branch2b <- res3a_branch2a
I0618 23:35:09.338704  7999 net.cpp:399] res3a_branch2b -> res3a_branch2b
I0618 23:35:09.340420  7999 net.cpp:141] Setting up res3a_branch2b
I0618 23:35:09.340435  7999 net.cpp:148] Top shape: 1 128 28 28 (100352)
I0618 23:35:09.340441  7999 net.cpp:156] Memory required for data: 119017476
I0618 23:35:09.340451  7999 layer_factory.hpp:77] Creating layer bn3a_branch2b
I0618 23:35:09.340459  7999 net.cpp:91] Creating Layer bn3a_branch2b
I0618 23:35:09.340463  7999 net.cpp:425] bn3a_branch2b <- res3a_branch2b
I0618 23:35:09.340468  7999 net.cpp:386] bn3a_branch2b -> res3a_branch2b (in-place)
I0618 23:35:09.340651  7999 net.cpp:141] Setting up bn3a_branch2b
I0618 23:35:09.340663  7999 net.cpp:148] Top shape: 1 128 28 28 (100352)
I0618 23:35:09.340668  7999 net.cpp:156] Memory required for data: 119418884
I0618 23:35:09.340678  7999 layer_factory.hpp:77] Creating layer scale3a_branch2b
I0618 23:35:09.340688  7999 net.cpp:91] Creating Layer scale3a_branch2b
I0618 23:35:09.340692  7999 net.cpp:425] scale3a_branch2b <- res3a_branch2b
I0618 23:35:09.340698  7999 net.cpp:386] scale3a_branch2b -> res3a_branch2b (in-place)
I0618 23:35:09.340749  7999 layer_factory.hpp:77] Creating layer scale3a_branch2b
I0618 23:35:09.340872  7999 net.cpp:141] Setting up scale3a_branch2b
I0618 23:35:09.340883  7999 net.cpp:148] Top shape: 1 128 28 28 (100352)
I0618 23:35:09.340888  7999 net.cpp:156] Memory required for data: 119820292
I0618 23:35:09.340894  7999 layer_factory.hpp:77] Creating layer res3a_branch2b_relu
I0618 23:35:09.340903  7999 net.cpp:91] Creating Layer res3a_branch2b_relu
I0618 23:35:09.340908  7999 net.cpp:425] res3a_branch2b_relu <- res3a_branch2b
I0618 23:35:09.340914  7999 net.cpp:386] res3a_branch2b_relu -> res3a_branch2b (in-place)
I0618 23:35:09.341179  7999 net.cpp:141] Setting up res3a_branch2b_relu
I0618 23:35:09.341193  7999 net.cpp:148] Top shape: 1 128 28 28 (100352)
I0618 23:35:09.341214  7999 net.cpp:156] Memory required for data: 120221700
I0618 23:35:09.341218  7999 layer_factory.hpp:77] Creating layer res3a_branch2c
I0618 23:35:09.341230  7999 net.cpp:91] Creating Layer res3a_branch2c
I0618 23:35:09.341235  7999 net.cpp:425] res3a_branch2c <- res3a_branch2b
I0618 23:35:09.341245  7999 net.cpp:399] res3a_branch2c -> res3a_branch2c
I0618 23:35:09.342254  7999 net.cpp:141] Setting up res3a_branch2c
I0618 23:35:09.342269  7999 net.cpp:148] Top shape: 1 512 28 28 (401408)
I0618 23:35:09.342274  7999 net.cpp:156] Memory required for data: 121827332
I0618 23:35:09.342283  7999 layer_factory.hpp:77] Creating layer bn3a_branch2c
I0618 23:35:09.342299  7999 net.cpp:91] Creating Layer bn3a_branch2c
I0618 23:35:09.342303  7999 net.cpp:425] bn3a_branch2c <- res3a_branch2c
I0618 23:35:09.342308  7999 net.cpp:386] bn3a_branch2c -> res3a_branch2c (in-place)
I0618 23:35:09.342502  7999 net.cpp:141] Setting up bn3a_branch2c
I0618 23:35:09.342514  7999 net.cpp:148] Top shape: 1 512 28 28 (401408)
I0618 23:35:09.342519  7999 net.cpp:156] Memory required for data: 123432964
I0618 23:35:09.342528  7999 layer_factory.hpp:77] Creating layer scale3a_branch2c
I0618 23:35:09.342536  7999 net.cpp:91] Creating Layer scale3a_branch2c
I0618 23:35:09.342542  7999 net.cpp:425] scale3a_branch2c <- res3a_branch2c
I0618 23:35:09.342547  7999 net.cpp:386] scale3a_branch2c -> res3a_branch2c (in-place)
I0618 23:35:09.342598  7999 layer_factory.hpp:77] Creating layer scale3a_branch2c
I0618 23:35:09.342713  7999 net.cpp:141] Setting up scale3a_branch2c
I0618 23:35:09.342725  7999 net.cpp:148] Top shape: 1 512 28 28 (401408)
I0618 23:35:09.342730  7999 net.cpp:156] Memory required for data: 125038596
I0618 23:35:09.342736  7999 layer_factory.hpp:77] Creating layer res3a
I0618 23:35:09.342746  7999 net.cpp:91] Creating Layer res3a
I0618 23:35:09.342751  7999 net.cpp:425] res3a <- res3a_branch1
I0618 23:35:09.342754  7999 net.cpp:425] res3a <- res3a_branch2c
I0618 23:35:09.342761  7999 net.cpp:399] res3a -> res3a
I0618 23:35:09.342794  7999 net.cpp:141] Setting up res3a
I0618 23:35:09.342804  7999 net.cpp:148] Top shape: 1 512 28 28 (401408)
I0618 23:35:09.342808  7999 net.cpp:156] Memory required for data: 126644228
I0618 23:35:09.342811  7999 layer_factory.hpp:77] Creating layer res3a_relu
I0618 23:35:09.342818  7999 net.cpp:91] Creating Layer res3a_relu
I0618 23:35:09.342823  7999 net.cpp:425] res3a_relu <- res3a
I0618 23:35:09.342828  7999 net.cpp:386] res3a_relu -> res3a (in-place)
I0618 23:35:09.342998  7999 net.cpp:141] Setting up res3a_relu
I0618 23:35:09.343013  7999 net.cpp:148] Top shape: 1 512 28 28 (401408)
I0618 23:35:09.343019  7999 net.cpp:156] Memory required for data: 128249860
I0618 23:35:09.343022  7999 layer_factory.hpp:77] Creating layer res3a_res3a_relu_0_split
I0618 23:35:09.343029  7999 net.cpp:91] Creating Layer res3a_res3a_relu_0_split
I0618 23:35:09.343032  7999 net.cpp:425] res3a_res3a_relu_0_split <- res3a
I0618 23:35:09.343039  7999 net.cpp:399] res3a_res3a_relu_0_split -> res3a_res3a_relu_0_split_0
I0618 23:35:09.343044  7999 net.cpp:399] res3a_res3a_relu_0_split -> res3a_res3a_relu_0_split_1
I0618 23:35:09.343096  7999 net.cpp:141] Setting up res3a_res3a_relu_0_split
I0618 23:35:09.343107  7999 net.cpp:148] Top shape: 1 512 28 28 (401408)
I0618 23:35:09.343113  7999 net.cpp:148] Top shape: 1 512 28 28 (401408)
I0618 23:35:09.343118  7999 net.cpp:156] Memory required for data: 131461124
I0618 23:35:09.343122  7999 layer_factory.hpp:77] Creating layer res3b_branch2a
I0618 23:35:09.343132  7999 net.cpp:91] Creating Layer res3b_branch2a
I0618 23:35:09.343137  7999 net.cpp:425] res3b_branch2a <- res3a_res3a_relu_0_split_0
I0618 23:35:09.343142  7999 net.cpp:399] res3b_branch2a -> res3b_branch2a
I0618 23:35:09.344759  7999 net.cpp:141] Setting up res3b_branch2a
I0618 23:35:09.344776  7999 net.cpp:148] Top shape: 1 128 28 28 (100352)
I0618 23:35:09.344782  7999 net.cpp:156] Memory required for data: 131862532
I0618 23:35:09.344791  7999 layer_factory.hpp:77] Creating layer bn3b_branch2a
I0618 23:35:09.344816  7999 net.cpp:91] Creating Layer bn3b_branch2a
I0618 23:35:09.344823  7999 net.cpp:425] bn3b_branch2a <- res3b_branch2a
I0618 23:35:09.344833  7999 net.cpp:386] bn3b_branch2a -> res3b_branch2a (in-place)
I0618 23:35:09.345041  7999 net.cpp:141] Setting up bn3b_branch2a
I0618 23:35:09.345053  7999 net.cpp:148] Top shape: 1 128 28 28 (100352)
I0618 23:35:09.345059  7999 net.cpp:156] Memory required for data: 132263940
I0618 23:35:09.345069  7999 layer_factory.hpp:77] Creating layer scale3b_branch2a
I0618 23:35:09.345079  7999 net.cpp:91] Creating Layer scale3b_branch2a
I0618 23:35:09.345084  7999 net.cpp:425] scale3b_branch2a <- res3b_branch2a
I0618 23:35:09.345089  7999 net.cpp:386] scale3b_branch2a -> res3b_branch2a (in-place)
I0618 23:35:09.345144  7999 layer_factory.hpp:77] Creating layer scale3b_branch2a
I0618 23:35:09.345269  7999 net.cpp:141] Setting up scale3b_branch2a
I0618 23:35:09.345280  7999 net.cpp:148] Top shape: 1 128 28 28 (100352)
I0618 23:35:09.345285  7999 net.cpp:156] Memory required for data: 132665348
I0618 23:35:09.345293  7999 layer_factory.hpp:77] Creating layer res3b_branch2a_relu
I0618 23:35:09.345299  7999 net.cpp:91] Creating Layer res3b_branch2a_relu
I0618 23:35:09.345302  7999 net.cpp:425] res3b_branch2a_relu <- res3b_branch2a
I0618 23:35:09.345309  7999 net.cpp:386] res3b_branch2a_relu -> res3b_branch2a (in-place)
I0618 23:35:09.345595  7999 net.cpp:141] Setting up res3b_branch2a_relu
I0618 23:35:09.345609  7999 net.cpp:148] Top shape: 1 128 28 28 (100352)
I0618 23:35:09.345614  7999 net.cpp:156] Memory required for data: 133066756
I0618 23:35:09.345620  7999 layer_factory.hpp:77] Creating layer res3b_branch2b
I0618 23:35:09.345633  7999 net.cpp:91] Creating Layer res3b_branch2b
I0618 23:35:09.345636  7999 net.cpp:425] res3b_branch2b <- res3b_branch2a
I0618 23:35:09.345645  7999 net.cpp:399] res3b_branch2b -> res3b_branch2b
I0618 23:35:09.347874  7999 net.cpp:141] Setting up res3b_branch2b
I0618 23:35:09.347890  7999 net.cpp:148] Top shape: 1 128 28 28 (100352)
I0618 23:35:09.347895  7999 net.cpp:156] Memory required for data: 133468164
I0618 23:35:09.347904  7999 layer_factory.hpp:77] Creating layer bn3b_branch2b
I0618 23:35:09.347913  7999 net.cpp:91] Creating Layer bn3b_branch2b
I0618 23:35:09.347916  7999 net.cpp:425] bn3b_branch2b <- res3b_branch2b
I0618 23:35:09.347923  7999 net.cpp:386] bn3b_branch2b -> res3b_branch2b (in-place)
I0618 23:35:09.348098  7999 net.cpp:141] Setting up bn3b_branch2b
I0618 23:35:09.348105  7999 net.cpp:148] Top shape: 1 128 28 28 (100352)
I0618 23:35:09.348109  7999 net.cpp:156] Memory required for data: 133869572
I0618 23:35:09.348115  7999 layer_factory.hpp:77] Creating layer scale3b_branch2b
I0618 23:35:09.348120  7999 net.cpp:91] Creating Layer scale3b_branch2b
I0618 23:35:09.348124  7999 net.cpp:425] scale3b_branch2b <- res3b_branch2b
I0618 23:35:09.348127  7999 net.cpp:386] scale3b_branch2b -> res3b_branch2b (in-place)
I0618 23:35:09.348163  7999 layer_factory.hpp:77] Creating layer scale3b_branch2b
I0618 23:35:09.348261  7999 net.cpp:141] Setting up scale3b_branch2b
I0618 23:35:09.348268  7999 net.cpp:148] Top shape: 1 128 28 28 (100352)
I0618 23:35:09.348270  7999 net.cpp:156] Memory required for data: 134270980
I0618 23:35:09.348275  7999 layer_factory.hpp:77] Creating layer res3b_branch2b_relu
I0618 23:35:09.348281  7999 net.cpp:91] Creating Layer res3b_branch2b_relu
I0618 23:35:09.348284  7999 net.cpp:425] res3b_branch2b_relu <- res3b_branch2b
I0618 23:35:09.348289  7999 net.cpp:386] res3b_branch2b_relu -> res3b_branch2b (in-place)
I0618 23:35:09.348604  7999 net.cpp:141] Setting up res3b_branch2b_relu
I0618 23:35:09.348618  7999 net.cpp:148] Top shape: 1 128 28 28 (100352)
I0618 23:35:09.348624  7999 net.cpp:156] Memory required for data: 134672388
I0618 23:35:09.348629  7999 layer_factory.hpp:77] Creating layer res3b_branch2c
I0618 23:35:09.348640  7999 net.cpp:91] Creating Layer res3b_branch2c
I0618 23:35:09.348645  7999 net.cpp:425] res3b_branch2c <- res3b_branch2b
I0618 23:35:09.348654  7999 net.cpp:399] res3b_branch2c -> res3b_branch2c
I0618 23:35:09.349589  7999 net.cpp:141] Setting up res3b_branch2c
I0618 23:35:09.349603  7999 net.cpp:148] Top shape: 1 512 28 28 (401408)
I0618 23:35:09.349609  7999 net.cpp:156] Memory required for data: 136278020
I0618 23:35:09.349617  7999 layer_factory.hpp:77] Creating layer bn3b_branch2c
I0618 23:35:09.349627  7999 net.cpp:91] Creating Layer bn3b_branch2c
I0618 23:35:09.349632  7999 net.cpp:425] bn3b_branch2c <- res3b_branch2c
I0618 23:35:09.349637  7999 net.cpp:386] bn3b_branch2c -> res3b_branch2c (in-place)
I0618 23:35:09.349834  7999 net.cpp:141] Setting up bn3b_branch2c
I0618 23:35:09.349845  7999 net.cpp:148] Top shape: 1 512 28 28 (401408)
I0618 23:35:09.349851  7999 net.cpp:156] Memory required for data: 137883652
I0618 23:35:09.349860  7999 layer_factory.hpp:77] Creating layer scale3b_branch2c
I0618 23:35:09.349866  7999 net.cpp:91] Creating Layer scale3b_branch2c
I0618 23:35:09.349869  7999 net.cpp:425] scale3b_branch2c <- res3b_branch2c
I0618 23:35:09.349876  7999 net.cpp:386] scale3b_branch2c -> res3b_branch2c (in-place)
I0618 23:35:09.349920  7999 layer_factory.hpp:77] Creating layer scale3b_branch2c
I0618 23:35:09.350020  7999 net.cpp:141] Setting up scale3b_branch2c
I0618 23:35:09.350026  7999 net.cpp:148] Top shape: 1 512 28 28 (401408)
I0618 23:35:09.350029  7999 net.cpp:156] Memory required for data: 139489284
I0618 23:35:09.350034  7999 layer_factory.hpp:77] Creating layer res3b
I0618 23:35:09.350039  7999 net.cpp:91] Creating Layer res3b
I0618 23:35:09.350042  7999 net.cpp:425] res3b <- res3a_res3a_relu_0_split_1
I0618 23:35:09.350046  7999 net.cpp:425] res3b <- res3b_branch2c
I0618 23:35:09.350050  7999 net.cpp:399] res3b -> res3b
I0618 23:35:09.350075  7999 net.cpp:141] Setting up res3b
I0618 23:35:09.350082  7999 net.cpp:148] Top shape: 1 512 28 28 (401408)
I0618 23:35:09.350085  7999 net.cpp:156] Memory required for data: 141094916
I0618 23:35:09.350088  7999 layer_factory.hpp:77] Creating layer res3b_relu
I0618 23:35:09.350092  7999 net.cpp:91] Creating Layer res3b_relu
I0618 23:35:09.350095  7999 net.cpp:425] res3b_relu <- res3b
I0618 23:35:09.350100  7999 net.cpp:386] res3b_relu -> res3b (in-place)
I0618 23:35:09.350246  7999 net.cpp:141] Setting up res3b_relu
I0618 23:35:09.350255  7999 net.cpp:148] Top shape: 1 512 28 28 (401408)
I0618 23:35:09.350257  7999 net.cpp:156] Memory required for data: 142700548
I0618 23:35:09.350260  7999 layer_factory.hpp:77] Creating layer res3b_res3b_relu_0_split
I0618 23:35:09.350266  7999 net.cpp:91] Creating Layer res3b_res3b_relu_0_split
I0618 23:35:09.350270  7999 net.cpp:425] res3b_res3b_relu_0_split <- res3b
I0618 23:35:09.350275  7999 net.cpp:399] res3b_res3b_relu_0_split -> res3b_res3b_relu_0_split_0
I0618 23:35:09.350282  7999 net.cpp:399] res3b_res3b_relu_0_split -> res3b_res3b_relu_0_split_1
I0618 23:35:09.350328  7999 net.cpp:141] Setting up res3b_res3b_relu_0_split
I0618 23:35:09.350340  7999 net.cpp:148] Top shape: 1 512 28 28 (401408)
I0618 23:35:09.350347  7999 net.cpp:148] Top shape: 1 512 28 28 (401408)
I0618 23:35:09.350353  7999 net.cpp:156] Memory required for data: 145911812
I0618 23:35:09.350358  7999 layer_factory.hpp:77] Creating layer res3c_branch2a
I0618 23:35:09.350368  7999 net.cpp:91] Creating Layer res3c_branch2a
I0618 23:35:09.350373  7999 net.cpp:425] res3c_branch2a <- res3b_res3b_relu_0_split_0
I0618 23:35:09.350383  7999 net.cpp:399] res3c_branch2a -> res3c_branch2a
I0618 23:35:09.351308  7999 net.cpp:141] Setting up res3c_branch2a
I0618 23:35:09.351323  7999 net.cpp:148] Top shape: 1 128 28 28 (100352)
I0618 23:35:09.351328  7999 net.cpp:156] Memory required for data: 146313220
I0618 23:35:09.351336  7999 layer_factory.hpp:77] Creating layer bn3c_branch2a
I0618 23:35:09.351346  7999 net.cpp:91] Creating Layer bn3c_branch2a
I0618 23:35:09.351349  7999 net.cpp:425] bn3c_branch2a <- res3c_branch2a
I0618 23:35:09.351358  7999 net.cpp:386] bn3c_branch2a -> res3c_branch2a (in-place)
I0618 23:35:09.351550  7999 net.cpp:141] Setting up bn3c_branch2a
I0618 23:35:09.351562  7999 net.cpp:148] Top shape: 1 128 28 28 (100352)
I0618 23:35:09.351579  7999 net.cpp:156] Memory required for data: 146714628
I0618 23:35:09.351590  7999 layer_factory.hpp:77] Creating layer scale3c_branch2a
I0618 23:35:09.351599  7999 net.cpp:91] Creating Layer scale3c_branch2a
I0618 23:35:09.351605  7999 net.cpp:425] scale3c_branch2a <- res3c_branch2a
I0618 23:35:09.351610  7999 net.cpp:386] scale3c_branch2a -> res3c_branch2a (in-place)
I0618 23:35:09.351656  7999 layer_factory.hpp:77] Creating layer scale3c_branch2a
I0618 23:35:09.351760  7999 net.cpp:141] Setting up scale3c_branch2a
I0618 23:35:09.351766  7999 net.cpp:148] Top shape: 1 128 28 28 (100352)
I0618 23:35:09.351769  7999 net.cpp:156] Memory required for data: 147116036
I0618 23:35:09.351775  7999 layer_factory.hpp:77] Creating layer res3c_branch2a_relu
I0618 23:35:09.351780  7999 net.cpp:91] Creating Layer res3c_branch2a_relu
I0618 23:35:09.351783  7999 net.cpp:425] res3c_branch2a_relu <- res3c_branch2a
I0618 23:35:09.351788  7999 net.cpp:386] res3c_branch2a_relu -> res3c_branch2a (in-place)
I0618 23:35:09.352053  7999 net.cpp:141] Setting up res3c_branch2a_relu
I0618 23:35:09.352063  7999 net.cpp:148] Top shape: 1 128 28 28 (100352)
I0618 23:35:09.352066  7999 net.cpp:156] Memory required for data: 147517444
I0618 23:35:09.352071  7999 layer_factory.hpp:77] Creating layer res3c_branch2b
I0618 23:35:09.352079  7999 net.cpp:91] Creating Layer res3c_branch2b
I0618 23:35:09.352082  7999 net.cpp:425] res3c_branch2b <- res3c_branch2a
I0618 23:35:09.352088  7999 net.cpp:399] res3c_branch2b -> res3c_branch2b
I0618 23:35:09.353869  7999 net.cpp:141] Setting up res3c_branch2b
I0618 23:35:09.353884  7999 net.cpp:148] Top shape: 1 128 28 28 (100352)
I0618 23:35:09.353890  7999 net.cpp:156] Memory required for data: 147918852
I0618 23:35:09.353899  7999 layer_factory.hpp:77] Creating layer bn3c_branch2b
I0618 23:35:09.353907  7999 net.cpp:91] Creating Layer bn3c_branch2b
I0618 23:35:09.353911  7999 net.cpp:425] bn3c_branch2b <- res3c_branch2b
I0618 23:35:09.353919  7999 net.cpp:386] bn3c_branch2b -> res3c_branch2b (in-place)
I0618 23:35:09.354097  7999 net.cpp:141] Setting up bn3c_branch2b
I0618 23:35:09.354104  7999 net.cpp:148] Top shape: 1 128 28 28 (100352)
I0618 23:35:09.354107  7999 net.cpp:156] Memory required for data: 148320260
I0618 23:35:09.354113  7999 layer_factory.hpp:77] Creating layer scale3c_branch2b
I0618 23:35:09.354120  7999 net.cpp:91] Creating Layer scale3c_branch2b
I0618 23:35:09.354122  7999 net.cpp:425] scale3c_branch2b <- res3c_branch2b
I0618 23:35:09.354126  7999 net.cpp:386] scale3c_branch2b -> res3c_branch2b (in-place)
I0618 23:35:09.354163  7999 layer_factory.hpp:77] Creating layer scale3c_branch2b
I0618 23:35:09.354264  7999 net.cpp:141] Setting up scale3c_branch2b
I0618 23:35:09.354269  7999 net.cpp:148] Top shape: 1 128 28 28 (100352)
I0618 23:35:09.354272  7999 net.cpp:156] Memory required for data: 148721668
I0618 23:35:09.354277  7999 layer_factory.hpp:77] Creating layer res3c_branch2b_relu
I0618 23:35:09.354284  7999 net.cpp:91] Creating Layer res3c_branch2b_relu
I0618 23:35:09.354287  7999 net.cpp:425] res3c_branch2b_relu <- res3c_branch2b
I0618 23:35:09.354290  7999 net.cpp:386] res3c_branch2b_relu -> res3c_branch2b (in-place)
I0618 23:35:09.354578  7999 net.cpp:141] Setting up res3c_branch2b_relu
I0618 23:35:09.354591  7999 net.cpp:148] Top shape: 1 128 28 28 (100352)
I0618 23:35:09.354598  7999 net.cpp:156] Memory required for data: 149123076
I0618 23:35:09.354604  7999 layer_factory.hpp:77] Creating layer res3c_branch2c
I0618 23:35:09.354614  7999 net.cpp:91] Creating Layer res3c_branch2c
I0618 23:35:09.354617  7999 net.cpp:425] res3c_branch2c <- res3c_branch2b
I0618 23:35:09.354625  7999 net.cpp:399] res3c_branch2c -> res3c_branch2c
I0618 23:35:09.355542  7999 net.cpp:141] Setting up res3c_branch2c
I0618 23:35:09.355557  7999 net.cpp:148] Top shape: 1 512 28 28 (401408)
I0618 23:35:09.355562  7999 net.cpp:156] Memory required for data: 150728708
I0618 23:35:09.355571  7999 layer_factory.hpp:77] Creating layer bn3c_branch2c
I0618 23:35:09.355581  7999 net.cpp:91] Creating Layer bn3c_branch2c
I0618 23:35:09.355598  7999 net.cpp:425] bn3c_branch2c <- res3c_branch2c
I0618 23:35:09.355607  7999 net.cpp:386] bn3c_branch2c -> res3c_branch2c (in-place)
I0618 23:35:09.355818  7999 net.cpp:141] Setting up bn3c_branch2c
I0618 23:35:09.355828  7999 net.cpp:148] Top shape: 1 512 28 28 (401408)
I0618 23:35:09.355830  7999 net.cpp:156] Memory required for data: 152334340
I0618 23:35:09.355839  7999 layer_factory.hpp:77] Creating layer scale3c_branch2c
I0618 23:35:09.355844  7999 net.cpp:91] Creating Layer scale3c_branch2c
I0618 23:35:09.355847  7999 net.cpp:425] scale3c_branch2c <- res3c_branch2c
I0618 23:35:09.355854  7999 net.cpp:386] scale3c_branch2c -> res3c_branch2c (in-place)
I0618 23:35:09.355892  7999 layer_factory.hpp:77] Creating layer scale3c_branch2c
I0618 23:35:09.355993  7999 net.cpp:141] Setting up scale3c_branch2c
I0618 23:35:09.356000  7999 net.cpp:148] Top shape: 1 512 28 28 (401408)
I0618 23:35:09.356003  7999 net.cpp:156] Memory required for data: 153939972
I0618 23:35:09.356009  7999 layer_factory.hpp:77] Creating layer res3c
I0618 23:35:09.356014  7999 net.cpp:91] Creating Layer res3c
I0618 23:35:09.356016  7999 net.cpp:425] res3c <- res3b_res3b_relu_0_split_1
I0618 23:35:09.356020  7999 net.cpp:425] res3c <- res3c_branch2c
I0618 23:35:09.356024  7999 net.cpp:399] res3c -> res3c
I0618 23:35:09.356050  7999 net.cpp:141] Setting up res3c
I0618 23:35:09.356055  7999 net.cpp:148] Top shape: 1 512 28 28 (401408)
I0618 23:35:09.356058  7999 net.cpp:156] Memory required for data: 155545604
I0618 23:35:09.356061  7999 layer_factory.hpp:77] Creating layer res3c_relu
I0618 23:35:09.356067  7999 net.cpp:91] Creating Layer res3c_relu
I0618 23:35:09.356070  7999 net.cpp:425] res3c_relu <- res3c
I0618 23:35:09.356073  7999 net.cpp:386] res3c_relu -> res3c (in-place)
I0618 23:35:09.356222  7999 net.cpp:141] Setting up res3c_relu
I0618 23:35:09.356230  7999 net.cpp:148] Top shape: 1 512 28 28 (401408)
I0618 23:35:09.356235  7999 net.cpp:156] Memory required for data: 157151236
I0618 23:35:09.356237  7999 layer_factory.hpp:77] Creating layer res3c_res3c_relu_0_split
I0618 23:35:09.356243  7999 net.cpp:91] Creating Layer res3c_res3c_relu_0_split
I0618 23:35:09.356246  7999 net.cpp:425] res3c_res3c_relu_0_split <- res3c
I0618 23:35:09.356251  7999 net.cpp:399] res3c_res3c_relu_0_split -> res3c_res3c_relu_0_split_0
I0618 23:35:09.356257  7999 net.cpp:399] res3c_res3c_relu_0_split -> res3c_res3c_relu_0_split_1
I0618 23:35:09.356305  7999 net.cpp:141] Setting up res3c_res3c_relu_0_split
I0618 23:35:09.356330  7999 net.cpp:148] Top shape: 1 512 28 28 (401408)
I0618 23:35:09.356338  7999 net.cpp:148] Top shape: 1 512 28 28 (401408)
I0618 23:35:09.356343  7999 net.cpp:156] Memory required for data: 160362500
I0618 23:35:09.356348  7999 layer_factory.hpp:77] Creating layer res3d_branch2a
I0618 23:35:09.356360  7999 net.cpp:91] Creating Layer res3d_branch2a
I0618 23:35:09.356366  7999 net.cpp:425] res3d_branch2a <- res3c_res3c_relu_0_split_0
I0618 23:35:09.356375  7999 net.cpp:399] res3d_branch2a -> res3d_branch2a
I0618 23:35:09.358062  7999 net.cpp:141] Setting up res3d_branch2a
I0618 23:35:09.358079  7999 net.cpp:148] Top shape: 1 128 28 28 (100352)
I0618 23:35:09.358085  7999 net.cpp:156] Memory required for data: 160763908
I0618 23:35:09.358093  7999 layer_factory.hpp:77] Creating layer bn3d_branch2a
I0618 23:35:09.358103  7999 net.cpp:91] Creating Layer bn3d_branch2a
I0618 23:35:09.358105  7999 net.cpp:425] bn3d_branch2a <- res3d_branch2a
I0618 23:35:09.358110  7999 net.cpp:386] bn3d_branch2a -> res3d_branch2a (in-place)
I0618 23:35:09.358321  7999 net.cpp:141] Setting up bn3d_branch2a
I0618 23:35:09.358332  7999 net.cpp:148] Top shape: 1 128 28 28 (100352)
I0618 23:35:09.358337  7999 net.cpp:156] Memory required for data: 161165316
I0618 23:35:09.358366  7999 layer_factory.hpp:77] Creating layer scale3d_branch2a
I0618 23:35:09.358374  7999 net.cpp:91] Creating Layer scale3d_branch2a
I0618 23:35:09.358379  7999 net.cpp:425] scale3d_branch2a <- res3d_branch2a
I0618 23:35:09.358386  7999 net.cpp:386] scale3d_branch2a -> res3d_branch2a (in-place)
I0618 23:35:09.358453  7999 layer_factory.hpp:77] Creating layer scale3d_branch2a
I0618 23:35:09.358575  7999 net.cpp:141] Setting up scale3d_branch2a
I0618 23:35:09.358585  7999 net.cpp:148] Top shape: 1 128 28 28 (100352)
I0618 23:35:09.358588  7999 net.cpp:156] Memory required for data: 161566724
I0618 23:35:09.358597  7999 layer_factory.hpp:77] Creating layer res3d_branch2a_relu
I0618 23:35:09.358603  7999 net.cpp:91] Creating Layer res3d_branch2a_relu
I0618 23:35:09.358605  7999 net.cpp:425] res3d_branch2a_relu <- res3d_branch2a
I0618 23:35:09.358610  7999 net.cpp:386] res3d_branch2a_relu -> res3d_branch2a (in-place)
I0618 23:35:09.358984  7999 net.cpp:141] Setting up res3d_branch2a_relu
I0618 23:35:09.358999  7999 net.cpp:148] Top shape: 1 128 28 28 (100352)
I0618 23:35:09.359004  7999 net.cpp:156] Memory required for data: 161968132
I0618 23:35:09.359009  7999 layer_factory.hpp:77] Creating layer res3d_branch2b
I0618 23:35:09.359020  7999 net.cpp:91] Creating Layer res3d_branch2b
I0618 23:35:09.359025  7999 net.cpp:425] res3d_branch2b <- res3d_branch2a
I0618 23:35:09.359030  7999 net.cpp:399] res3d_branch2b -> res3d_branch2b
I0618 23:35:09.360693  7999 net.cpp:141] Setting up res3d_branch2b
I0618 23:35:09.360713  7999 net.cpp:148] Top shape: 1 128 28 28 (100352)
I0618 23:35:09.360719  7999 net.cpp:156] Memory required for data: 162369540
I0618 23:35:09.360728  7999 layer_factory.hpp:77] Creating layer bn3d_branch2b
I0618 23:35:09.360734  7999 net.cpp:91] Creating Layer bn3d_branch2b
I0618 23:35:09.360740  7999 net.cpp:425] bn3d_branch2b <- res3d_branch2b
I0618 23:35:09.360745  7999 net.cpp:386] bn3d_branch2b -> res3d_branch2b (in-place)
I0618 23:35:09.360951  7999 net.cpp:141] Setting up bn3d_branch2b
I0618 23:35:09.360962  7999 net.cpp:148] Top shape: 1 128 28 28 (100352)
I0618 23:35:09.360967  7999 net.cpp:156] Memory required for data: 162770948
I0618 23:35:09.360977  7999 layer_factory.hpp:77] Creating layer scale3d_branch2b
I0618 23:35:09.360985  7999 net.cpp:91] Creating Layer scale3d_branch2b
I0618 23:35:09.360988  7999 net.cpp:425] scale3d_branch2b <- res3d_branch2b
I0618 23:35:09.360993  7999 net.cpp:386] scale3d_branch2b -> res3d_branch2b (in-place)
I0618 23:35:09.361050  7999 layer_factory.hpp:77] Creating layer scale3d_branch2b
I0618 23:35:09.361161  7999 net.cpp:141] Setting up scale3d_branch2b
I0618 23:35:09.361168  7999 net.cpp:148] Top shape: 1 128 28 28 (100352)
I0618 23:35:09.361171  7999 net.cpp:156] Memory required for data: 163172356
I0618 23:35:09.361176  7999 layer_factory.hpp:77] Creating layer res3d_branch2b_relu
I0618 23:35:09.361181  7999 net.cpp:91] Creating Layer res3d_branch2b_relu
I0618 23:35:09.361184  7999 net.cpp:425] res3d_branch2b_relu <- res3d_branch2b
I0618 23:35:09.361191  7999 net.cpp:386] res3d_branch2b_relu -> res3d_branch2b (in-place)
I0618 23:35:09.361444  7999 net.cpp:141] Setting up res3d_branch2b_relu
I0618 23:35:09.361454  7999 net.cpp:148] Top shape: 1 128 28 28 (100352)
I0618 23:35:09.361457  7999 net.cpp:156] Memory required for data: 163573764
I0618 23:35:09.361461  7999 layer_factory.hpp:77] Creating layer res3d_branch2c
I0618 23:35:09.361469  7999 net.cpp:91] Creating Layer res3d_branch2c
I0618 23:35:09.361474  7999 net.cpp:425] res3d_branch2c <- res3d_branch2b
I0618 23:35:09.361479  7999 net.cpp:399] res3d_branch2c -> res3d_branch2c
I0618 23:35:09.362403  7999 net.cpp:141] Setting up res3d_branch2c
I0618 23:35:09.362418  7999 net.cpp:148] Top shape: 1 512 28 28 (401408)
I0618 23:35:09.362423  7999 net.cpp:156] Memory required for data: 165179396
I0618 23:35:09.362432  7999 layer_factory.hpp:77] Creating layer bn3d_branch2c
I0618 23:35:09.362444  7999 net.cpp:91] Creating Layer bn3d_branch2c
I0618 23:35:09.362448  7999 net.cpp:425] bn3d_branch2c <- res3d_branch2c
I0618 23:35:09.362454  7999 net.cpp:386] bn3d_branch2c -> res3d_branch2c (in-place)
I0618 23:35:09.362668  7999 net.cpp:141] Setting up bn3d_branch2c
I0618 23:35:09.362679  7999 net.cpp:148] Top shape: 1 512 28 28 (401408)
I0618 23:35:09.362684  7999 net.cpp:156] Memory required for data: 166785028
I0618 23:35:09.362709  7999 layer_factory.hpp:77] Creating layer scale3d_branch2c
I0618 23:35:09.362715  7999 net.cpp:91] Creating Layer scale3d_branch2c
I0618 23:35:09.362718  7999 net.cpp:425] scale3d_branch2c <- res3d_branch2c
I0618 23:35:09.362723  7999 net.cpp:386] scale3d_branch2c -> res3d_branch2c (in-place)
I0618 23:35:09.362782  7999 layer_factory.hpp:77] Creating layer scale3d_branch2c
I0618 23:35:09.362913  7999 net.cpp:141] Setting up scale3d_branch2c
I0618 23:35:09.362925  7999 net.cpp:148] Top shape: 1 512 28 28 (401408)
I0618 23:35:09.362929  7999 net.cpp:156] Memory required for data: 168390660
I0618 23:35:09.362937  7999 layer_factory.hpp:77] Creating layer res3d
I0618 23:35:09.362944  7999 net.cpp:91] Creating Layer res3d
I0618 23:35:09.362948  7999 net.cpp:425] res3d <- res3c_res3c_relu_0_split_1
I0618 23:35:09.362952  7999 net.cpp:425] res3d <- res3d_branch2c
I0618 23:35:09.362957  7999 net.cpp:399] res3d -> res3d
I0618 23:35:09.362985  7999 net.cpp:141] Setting up res3d
I0618 23:35:09.362992  7999 net.cpp:148] Top shape: 1 512 28 28 (401408)
I0618 23:35:09.362994  7999 net.cpp:156] Memory required for data: 169996292
I0618 23:35:09.362998  7999 layer_factory.hpp:77] Creating layer res3d_relu
I0618 23:35:09.363003  7999 net.cpp:91] Creating Layer res3d_relu
I0618 23:35:09.363006  7999 net.cpp:425] res3d_relu <- res3d
I0618 23:35:09.363010  7999 net.cpp:386] res3d_relu -> res3d (in-place)
I0618 23:35:09.363159  7999 net.cpp:141] Setting up res3d_relu
I0618 23:35:09.363167  7999 net.cpp:148] Top shape: 1 512 28 28 (401408)
I0618 23:35:09.363169  7999 net.cpp:156] Memory required for data: 171601924
I0618 23:35:09.363173  7999 layer_factory.hpp:77] Creating layer res3d_res3d_relu_0_split
I0618 23:35:09.363178  7999 net.cpp:91] Creating Layer res3d_res3d_relu_0_split
I0618 23:35:09.363181  7999 net.cpp:425] res3d_res3d_relu_0_split <- res3d
I0618 23:35:09.363185  7999 net.cpp:399] res3d_res3d_relu_0_split -> res3d_res3d_relu_0_split_0
I0618 23:35:09.363191  7999 net.cpp:399] res3d_res3d_relu_0_split -> res3d_res3d_relu_0_split_1
I0618 23:35:09.363231  7999 net.cpp:141] Setting up res3d_res3d_relu_0_split
I0618 23:35:09.363237  7999 net.cpp:148] Top shape: 1 512 28 28 (401408)
I0618 23:35:09.363240  7999 net.cpp:148] Top shape: 1 512 28 28 (401408)
I0618 23:35:09.363243  7999 net.cpp:156] Memory required for data: 174813188
I0618 23:35:09.363246  7999 layer_factory.hpp:77] Creating layer res4a_branch1
I0618 23:35:09.363255  7999 net.cpp:91] Creating Layer res4a_branch1
I0618 23:35:09.363257  7999 net.cpp:425] res4a_branch1 <- res3d_res3d_relu_0_split_0
I0618 23:35:09.363262  7999 net.cpp:399] res4a_branch1 -> res4a_branch1
I0618 23:35:09.365186  7999 net.cpp:141] Setting up res4a_branch1
I0618 23:35:09.365202  7999 net.cpp:148] Top shape: 1 1024 14 14 (200704)
I0618 23:35:09.365208  7999 net.cpp:156] Memory required for data: 175616004
I0618 23:35:09.365216  7999 layer_factory.hpp:77] Creating layer bn4a_branch1
I0618 23:35:09.365226  7999 net.cpp:91] Creating Layer bn4a_branch1
I0618 23:35:09.365231  7999 net.cpp:425] bn4a_branch1 <- res4a_branch1
I0618 23:35:09.365234  7999 net.cpp:386] bn4a_branch1 -> res4a_branch1 (in-place)
I0618 23:35:09.365432  7999 net.cpp:141] Setting up bn4a_branch1
I0618 23:35:09.365442  7999 net.cpp:148] Top shape: 1 1024 14 14 (200704)
I0618 23:35:09.365444  7999 net.cpp:156] Memory required for data: 176418820
I0618 23:35:09.365452  7999 layer_factory.hpp:77] Creating layer scale4a_branch1
I0618 23:35:09.365458  7999 net.cpp:91] Creating Layer scale4a_branch1
I0618 23:35:09.365460  7999 net.cpp:425] scale4a_branch1 <- res4a_branch1
I0618 23:35:09.365468  7999 net.cpp:386] scale4a_branch1 -> res4a_branch1 (in-place)
I0618 23:35:09.365519  7999 layer_factory.hpp:77] Creating layer scale4a_branch1
I0618 23:35:09.365664  7999 net.cpp:141] Setting up scale4a_branch1
I0618 23:35:09.365675  7999 net.cpp:148] Top shape: 1 1024 14 14 (200704)
I0618 23:35:09.365681  7999 net.cpp:156] Memory required for data: 177221636
I0618 23:35:09.365700  7999 layer_factory.hpp:77] Creating layer res4a_branch2a
I0618 23:35:09.365710  7999 net.cpp:91] Creating Layer res4a_branch2a
I0618 23:35:09.365715  7999 net.cpp:425] res4a_branch2a <- res3d_res3d_relu_0_split_1
I0618 23:35:09.365721  7999 net.cpp:399] res4a_branch2a -> res4a_branch2a
I0618 23:35:09.366720  7999 net.cpp:141] Setting up res4a_branch2a
I0618 23:35:09.366734  7999 net.cpp:148] Top shape: 1 256 14 14 (50176)
I0618 23:35:09.366740  7999 net.cpp:156] Memory required for data: 177422340
I0618 23:35:09.366749  7999 layer_factory.hpp:77] Creating layer bn4a_branch2a
I0618 23:35:09.366761  7999 net.cpp:91] Creating Layer bn4a_branch2a
I0618 23:35:09.366766  7999 net.cpp:425] bn4a_branch2a <- res4a_branch2a
I0618 23:35:09.366772  7999 net.cpp:386] bn4a_branch2a -> res4a_branch2a (in-place)
I0618 23:35:09.366978  7999 net.cpp:141] Setting up bn4a_branch2a
I0618 23:35:09.366991  7999 net.cpp:148] Top shape: 1 256 14 14 (50176)
I0618 23:35:09.366996  7999 net.cpp:156] Memory required for data: 177623044
I0618 23:35:09.367004  7999 layer_factory.hpp:77] Creating layer scale4a_branch2a
I0618 23:35:09.367012  7999 net.cpp:91] Creating Layer scale4a_branch2a
I0618 23:35:09.367017  7999 net.cpp:425] scale4a_branch2a <- res4a_branch2a
I0618 23:35:09.367020  7999 net.cpp:386] scale4a_branch2a -> res4a_branch2a (in-place)
I0618 23:35:09.367063  7999 layer_factory.hpp:77] Creating layer scale4a_branch2a
I0618 23:35:09.367171  7999 net.cpp:141] Setting up scale4a_branch2a
I0618 23:35:09.367177  7999 net.cpp:148] Top shape: 1 256 14 14 (50176)
I0618 23:35:09.367179  7999 net.cpp:156] Memory required for data: 177823748
I0618 23:35:09.367184  7999 layer_factory.hpp:77] Creating layer res4a_branch2a_relu
I0618 23:35:09.367189  7999 net.cpp:91] Creating Layer res4a_branch2a_relu
I0618 23:35:09.367192  7999 net.cpp:425] res4a_branch2a_relu <- res4a_branch2a
I0618 23:35:09.367198  7999 net.cpp:386] res4a_branch2a_relu -> res4a_branch2a (in-place)
I0618 23:35:09.367348  7999 net.cpp:141] Setting up res4a_branch2a_relu
I0618 23:35:09.367357  7999 net.cpp:148] Top shape: 1 256 14 14 (50176)
I0618 23:35:09.367360  7999 net.cpp:156] Memory required for data: 178024452
I0618 23:35:09.367364  7999 layer_factory.hpp:77] Creating layer res4a_branch2b
I0618 23:35:09.367370  7999 net.cpp:91] Creating Layer res4a_branch2b
I0618 23:35:09.367374  7999 net.cpp:425] res4a_branch2b <- res4a_branch2a
I0618 23:35:09.367380  7999 net.cpp:399] res4a_branch2b -> res4a_branch2b
I0618 23:35:09.369555  7999 net.cpp:141] Setting up res4a_branch2b
I0618 23:35:09.369571  7999 net.cpp:148] Top shape: 1 256 14 14 (50176)
I0618 23:35:09.369577  7999 net.cpp:156] Memory required for data: 178225156
I0618 23:35:09.369585  7999 layer_factory.hpp:77] Creating layer bn4a_branch2b
I0618 23:35:09.369593  7999 net.cpp:91] Creating Layer bn4a_branch2b
I0618 23:35:09.369597  7999 net.cpp:425] bn4a_branch2b <- res4a_branch2b
I0618 23:35:09.369604  7999 net.cpp:386] bn4a_branch2b -> res4a_branch2b (in-place)
I0618 23:35:09.369794  7999 net.cpp:141] Setting up bn4a_branch2b
I0618 23:35:09.369801  7999 net.cpp:148] Top shape: 1 256 14 14 (50176)
I0618 23:35:09.369803  7999 net.cpp:156] Memory required for data: 178425860
I0618 23:35:09.369810  7999 layer_factory.hpp:77] Creating layer scale4a_branch2b
I0618 23:35:09.369817  7999 net.cpp:91] Creating Layer scale4a_branch2b
I0618 23:35:09.369819  7999 net.cpp:425] scale4a_branch2b <- res4a_branch2b
I0618 23:35:09.369823  7999 net.cpp:386] scale4a_branch2b -> res4a_branch2b (in-place)
I0618 23:35:09.369863  7999 layer_factory.hpp:77] Creating layer scale4a_branch2b
I0618 23:35:09.370003  7999 net.cpp:141] Setting up scale4a_branch2b
I0618 23:35:09.370012  7999 net.cpp:148] Top shape: 1 256 14 14 (50176)
I0618 23:35:09.370014  7999 net.cpp:156] Memory required for data: 178626564
I0618 23:35:09.370021  7999 layer_factory.hpp:77] Creating layer res4a_branch2b_relu
I0618 23:35:09.370029  7999 net.cpp:91] Creating Layer res4a_branch2b_relu
I0618 23:35:09.370033  7999 net.cpp:425] res4a_branch2b_relu <- res4a_branch2b
I0618 23:35:09.370054  7999 net.cpp:386] res4a_branch2b_relu -> res4a_branch2b (in-place)
I0618 23:35:09.370342  7999 net.cpp:141] Setting up res4a_branch2b_relu
I0618 23:35:09.370354  7999 net.cpp:148] Top shape: 1 256 14 14 (50176)
I0618 23:35:09.370360  7999 net.cpp:156] Memory required for data: 178827268
I0618 23:35:09.370367  7999 layer_factory.hpp:77] Creating layer res4a_branch2c
I0618 23:35:09.370378  7999 net.cpp:91] Creating Layer res4a_branch2c
I0618 23:35:09.370381  7999 net.cpp:425] res4a_branch2c <- res4a_branch2b
I0618 23:35:09.370386  7999 net.cpp:399] res4a_branch2c -> res4a_branch2c
I0618 23:35:09.372172  7999 net.cpp:141] Setting up res4a_branch2c
I0618 23:35:09.372189  7999 net.cpp:148] Top shape: 1 1024 14 14 (200704)
I0618 23:35:09.372194  7999 net.cpp:156] Memory required for data: 179630084
I0618 23:35:09.372202  7999 layer_factory.hpp:77] Creating layer bn4a_branch2c
I0618 23:35:09.372213  7999 net.cpp:91] Creating Layer bn4a_branch2c
I0618 23:35:09.372217  7999 net.cpp:425] bn4a_branch2c <- res4a_branch2c
I0618 23:35:09.372223  7999 net.cpp:386] bn4a_branch2c -> res4a_branch2c (in-place)
I0618 23:35:09.372465  7999 net.cpp:141] Setting up bn4a_branch2c
I0618 23:35:09.372478  7999 net.cpp:148] Top shape: 1 1024 14 14 (200704)
I0618 23:35:09.372483  7999 net.cpp:156] Memory required for data: 180432900
I0618 23:35:09.372493  7999 layer_factory.hpp:77] Creating layer scale4a_branch2c
I0618 23:35:09.372503  7999 net.cpp:91] Creating Layer scale4a_branch2c
I0618 23:35:09.372509  7999 net.cpp:425] scale4a_branch2c <- res4a_branch2c
I0618 23:35:09.372512  7999 net.cpp:386] scale4a_branch2c -> res4a_branch2c (in-place)
I0618 23:35:09.372562  7999 layer_factory.hpp:77] Creating layer scale4a_branch2c
I0618 23:35:09.372683  7999 net.cpp:141] Setting up scale4a_branch2c
I0618 23:35:09.372689  7999 net.cpp:148] Top shape: 1 1024 14 14 (200704)
I0618 23:35:09.372692  7999 net.cpp:156] Memory required for data: 181235716
I0618 23:35:09.372697  7999 layer_factory.hpp:77] Creating layer res4a
I0618 23:35:09.372704  7999 net.cpp:91] Creating Layer res4a
I0618 23:35:09.372706  7999 net.cpp:425] res4a <- res4a_branch1
I0618 23:35:09.372710  7999 net.cpp:425] res4a <- res4a_branch2c
I0618 23:35:09.372716  7999 net.cpp:399] res4a -> res4a
I0618 23:35:09.372740  7999 net.cpp:141] Setting up res4a
I0618 23:35:09.372747  7999 net.cpp:148] Top shape: 1 1024 14 14 (200704)
I0618 23:35:09.372750  7999 net.cpp:156] Memory required for data: 182038532
I0618 23:35:09.372753  7999 layer_factory.hpp:77] Creating layer res4a_relu
I0618 23:35:09.372758  7999 net.cpp:91] Creating Layer res4a_relu
I0618 23:35:09.372761  7999 net.cpp:425] res4a_relu <- res4a
I0618 23:35:09.372766  7999 net.cpp:386] res4a_relu -> res4a (in-place)
I0618 23:35:09.372920  7999 net.cpp:141] Setting up res4a_relu
I0618 23:35:09.372927  7999 net.cpp:148] Top shape: 1 1024 14 14 (200704)
I0618 23:35:09.372931  7999 net.cpp:156] Memory required for data: 182841348
I0618 23:35:09.372933  7999 layer_factory.hpp:77] Creating layer res4a_res4a_relu_0_split
I0618 23:35:09.372939  7999 net.cpp:91] Creating Layer res4a_res4a_relu_0_split
I0618 23:35:09.372942  7999 net.cpp:425] res4a_res4a_relu_0_split <- res4a
I0618 23:35:09.372948  7999 net.cpp:399] res4a_res4a_relu_0_split -> res4a_res4a_relu_0_split_0
I0618 23:35:09.372953  7999 net.cpp:399] res4a_res4a_relu_0_split -> res4a_res4a_relu_0_split_1
I0618 23:35:09.372997  7999 net.cpp:141] Setting up res4a_res4a_relu_0_split
I0618 23:35:09.373002  7999 net.cpp:148] Top shape: 1 1024 14 14 (200704)
I0618 23:35:09.373005  7999 net.cpp:148] Top shape: 1 1024 14 14 (200704)
I0618 23:35:09.373008  7999 net.cpp:156] Memory required for data: 184446980
I0618 23:35:09.373011  7999 layer_factory.hpp:77] Creating layer res4b_branch2a
I0618 23:35:09.373034  7999 net.cpp:91] Creating Layer res4b_branch2a
I0618 23:35:09.373039  7999 net.cpp:425] res4b_branch2a <- res4a_res4a_relu_0_split_0
I0618 23:35:09.373044  7999 net.cpp:399] res4b_branch2a -> res4b_branch2a
I0618 23:35:09.374755  7999 net.cpp:141] Setting up res4b_branch2a
I0618 23:35:09.374783  7999 net.cpp:148] Top shape: 1 256 14 14 (50176)
I0618 23:35:09.374790  7999 net.cpp:156] Memory required for data: 184647684
I0618 23:35:09.374799  7999 layer_factory.hpp:77] Creating layer bn4b_branch2a
I0618 23:35:09.374807  7999 net.cpp:91] Creating Layer bn4b_branch2a
I0618 23:35:09.374811  7999 net.cpp:425] bn4b_branch2a <- res4b_branch2a
I0618 23:35:09.374816  7999 net.cpp:386] bn4b_branch2a -> res4b_branch2a (in-place)
I0618 23:35:09.375010  7999 net.cpp:141] Setting up bn4b_branch2a
I0618 23:35:09.375015  7999 net.cpp:148] Top shape: 1 256 14 14 (50176)
I0618 23:35:09.375018  7999 net.cpp:156] Memory required for data: 184848388
I0618 23:35:09.375025  7999 layer_factory.hpp:77] Creating layer scale4b_branch2a
I0618 23:35:09.375032  7999 net.cpp:91] Creating Layer scale4b_branch2a
I0618 23:35:09.375036  7999 net.cpp:425] scale4b_branch2a <- res4b_branch2a
I0618 23:35:09.375041  7999 net.cpp:386] scale4b_branch2a -> res4b_branch2a (in-place)
I0618 23:35:09.375079  7999 layer_factory.hpp:77] Creating layer scale4b_branch2a
I0618 23:35:09.375182  7999 net.cpp:141] Setting up scale4b_branch2a
I0618 23:35:09.375188  7999 net.cpp:148] Top shape: 1 256 14 14 (50176)
I0618 23:35:09.375191  7999 net.cpp:156] Memory required for data: 185049092
I0618 23:35:09.375196  7999 layer_factory.hpp:77] Creating layer res4b_branch2a_relu
I0618 23:35:09.375202  7999 net.cpp:91] Creating Layer res4b_branch2a_relu
I0618 23:35:09.375205  7999 net.cpp:425] res4b_branch2a_relu <- res4b_branch2a
I0618 23:35:09.375210  7999 net.cpp:386] res4b_branch2a_relu -> res4b_branch2a (in-place)
I0618 23:35:09.375370  7999 net.cpp:141] Setting up res4b_branch2a_relu
I0618 23:35:09.375380  7999 net.cpp:148] Top shape: 1 256 14 14 (50176)
I0618 23:35:09.375385  7999 net.cpp:156] Memory required for data: 185249796
I0618 23:35:09.375390  7999 layer_factory.hpp:77] Creating layer res4b_branch2b
I0618 23:35:09.375402  7999 net.cpp:91] Creating Layer res4b_branch2b
I0618 23:35:09.375408  7999 net.cpp:425] res4b_branch2b <- res4b_branch2a
I0618 23:35:09.375416  7999 net.cpp:399] res4b_branch2b -> res4b_branch2b
I0618 23:35:09.379393  7999 net.cpp:141] Setting up res4b_branch2b
I0618 23:35:09.379422  7999 net.cpp:148] Top shape: 1 256 14 14 (50176)
I0618 23:35:09.379431  7999 net.cpp:156] Memory required for data: 185450500
I0618 23:35:09.379443  7999 layer_factory.hpp:77] Creating layer bn4b_branch2b
I0618 23:35:09.379457  7999 net.cpp:91] Creating Layer bn4b_branch2b
I0618 23:35:09.379467  7999 net.cpp:425] bn4b_branch2b <- res4b_branch2b
I0618 23:35:09.379477  7999 net.cpp:386] bn4b_branch2b -> res4b_branch2b (in-place)
I0618 23:35:09.379911  7999 net.cpp:141] Setting up bn4b_branch2b
I0618 23:35:09.379928  7999 net.cpp:148] Top shape: 1 256 14 14 (50176)
I0618 23:35:09.379936  7999 net.cpp:156] Memory required for data: 185651204
I0618 23:35:09.379966  7999 layer_factory.hpp:77] Creating layer scale4b_branch2b
I0618 23:35:09.379979  7999 net.cpp:91] Creating Layer scale4b_branch2b
I0618 23:35:09.379988  7999 net.cpp:425] scale4b_branch2b <- res4b_branch2b
I0618 23:35:09.380002  7999 net.cpp:386] scale4b_branch2b -> res4b_branch2b (in-place)
I0618 23:35:09.380112  7999 layer_factory.hpp:77] Creating layer scale4b_branch2b
I0618 23:35:09.380432  7999 net.cpp:141] Setting up scale4b_branch2b
I0618 23:35:09.380460  7999 net.cpp:148] Top shape: 1 256 14 14 (50176)
I0618 23:35:09.380470  7999 net.cpp:156] Memory required for data: 185851908
I0618 23:35:09.380481  7999 layer_factory.hpp:77] Creating layer res4b_branch2b_relu
I0618 23:35:09.380502  7999 net.cpp:91] Creating Layer res4b_branch2b_relu
I0618 23:35:09.380514  7999 net.cpp:425] res4b_branch2b_relu <- res4b_branch2b
I0618 23:35:09.380523  7999 net.cpp:386] res4b_branch2b_relu -> res4b_branch2b (in-place)
I0618 23:35:09.381206  7999 net.cpp:141] Setting up res4b_branch2b_relu
I0618 23:35:09.381232  7999 net.cpp:148] Top shape: 1 256 14 14 (50176)
I0618 23:35:09.381242  7999 net.cpp:156] Memory required for data: 186052612
I0618 23:35:09.381253  7999 layer_factory.hpp:77] Creating layer res4b_branch2c
I0618 23:35:09.381300  7999 net.cpp:91] Creating Layer res4b_branch2c
I0618 23:35:09.381314  7999 net.cpp:425] res4b_branch2c <- res4b_branch2b
I0618 23:35:09.381326  7999 net.cpp:399] res4b_branch2c -> res4b_branch2c
I0618 23:35:09.385056  7999 net.cpp:141] Setting up res4b_branch2c
I0618 23:35:09.385088  7999 net.cpp:148] Top shape: 1 1024 14 14 (200704)
I0618 23:35:09.385097  7999 net.cpp:156] Memory required for data: 186855428
I0618 23:35:09.385108  7999 layer_factory.hpp:77] Creating layer bn4b_branch2c
I0618 23:35:09.385125  7999 net.cpp:91] Creating Layer bn4b_branch2c
I0618 23:35:09.385134  7999 net.cpp:425] bn4b_branch2c <- res4b_branch2c
I0618 23:35:09.385146  7999 net.cpp:386] bn4b_branch2c -> res4b_branch2c (in-place)
I0618 23:35:09.385643  7999 net.cpp:141] Setting up bn4b_branch2c
I0618 23:35:09.385661  7999 net.cpp:148] Top shape: 1 1024 14 14 (200704)
I0618 23:35:09.385668  7999 net.cpp:156] Memory required for data: 187658244
I0618 23:35:09.385686  7999 layer_factory.hpp:77] Creating layer scale4b_branch2c
I0618 23:35:09.385701  7999 net.cpp:91] Creating Layer scale4b_branch2c
I0618 23:35:09.385710  7999 net.cpp:425] scale4b_branch2c <- res4b_branch2c
I0618 23:35:09.385717  7999 net.cpp:386] scale4b_branch2c -> res4b_branch2c (in-place)
I0618 23:35:09.385807  7999 layer_factory.hpp:77] Creating layer scale4b_branch2c
I0618 23:35:09.386090  7999 net.cpp:141] Setting up scale4b_branch2c
I0618 23:35:09.386111  7999 net.cpp:148] Top shape: 1 1024 14 14 (200704)
I0618 23:35:09.386117  7999 net.cpp:156] Memory required for data: 188461060
I0618 23:35:09.386128  7999 layer_factory.hpp:77] Creating layer res4b
I0618 23:35:09.386139  7999 net.cpp:91] Creating Layer res4b
I0618 23:35:09.386150  7999 net.cpp:425] res4b <- res4a_res4a_relu_0_split_1
I0618 23:35:09.386162  7999 net.cpp:425] res4b <- res4b_branch2c
I0618 23:35:09.386173  7999 net.cpp:399] res4b -> res4b
I0618 23:35:09.386234  7999 net.cpp:141] Setting up res4b
I0618 23:35:09.386250  7999 net.cpp:148] Top shape: 1 1024 14 14 (200704)
I0618 23:35:09.386256  7999 net.cpp:156] Memory required for data: 189263876
I0618 23:35:09.386262  7999 layer_factory.hpp:77] Creating layer res4b_relu
I0618 23:35:09.386278  7999 net.cpp:91] Creating Layer res4b_relu
I0618 23:35:09.386286  7999 net.cpp:425] res4b_relu <- res4b
I0618 23:35:09.386293  7999 net.cpp:386] res4b_relu -> res4b (in-place)
I0618 23:35:09.386585  7999 net.cpp:141] Setting up res4b_relu
I0618 23:35:09.386600  7999 net.cpp:148] Top shape: 1 1024 14 14 (200704)
I0618 23:35:09.386605  7999 net.cpp:156] Memory required for data: 190066692
I0618 23:35:09.386611  7999 layer_factory.hpp:77] Creating layer res4b_res4b_relu_0_split
I0618 23:35:09.386620  7999 net.cpp:91] Creating Layer res4b_res4b_relu_0_split
I0618 23:35:09.386626  7999 net.cpp:425] res4b_res4b_relu_0_split <- res4b
I0618 23:35:09.386637  7999 net.cpp:399] res4b_res4b_relu_0_split -> res4b_res4b_relu_0_split_0
I0618 23:35:09.386648  7999 net.cpp:399] res4b_res4b_relu_0_split -> res4b_res4b_relu_0_split_1
I0618 23:35:09.386725  7999 net.cpp:141] Setting up res4b_res4b_relu_0_split
I0618 23:35:09.386735  7999 net.cpp:148] Top shape: 1 1024 14 14 (200704)
I0618 23:35:09.386742  7999 net.cpp:148] Top shape: 1 1024 14 14 (200704)
I0618 23:35:09.386747  7999 net.cpp:156] Memory required for data: 191672324
I0618 23:35:09.386771  7999 layer_factory.hpp:77] Creating layer res4c_branch2a
I0618 23:35:09.386787  7999 net.cpp:91] Creating Layer res4c_branch2a
I0618 23:35:09.386793  7999 net.cpp:425] res4c_branch2a <- res4b_res4b_relu_0_split_0
I0618 23:35:09.386802  7999 net.cpp:399] res4c_branch2a -> res4c_branch2a
I0618 23:35:09.390214  7999 net.cpp:141] Setting up res4c_branch2a
I0618 23:35:09.390244  7999 net.cpp:148] Top shape: 1 256 14 14 (50176)
I0618 23:35:09.390254  7999 net.cpp:156] Memory required for data: 191873028
I0618 23:35:09.390264  7999 layer_factory.hpp:77] Creating layer bn4c_branch2a
I0618 23:35:09.390286  7999 net.cpp:91] Creating Layer bn4c_branch2a
I0618 23:35:09.390296  7999 net.cpp:425] bn4c_branch2a <- res4c_branch2a
I0618 23:35:09.390333  7999 net.cpp:386] bn4c_branch2a -> res4c_branch2a (in-place)
I0618 23:35:09.390815  7999 net.cpp:141] Setting up bn4c_branch2a
I0618 23:35:09.390838  7999 net.cpp:148] Top shape: 1 256 14 14 (50176)
I0618 23:35:09.390848  7999 net.cpp:156] Memory required for data: 192073732
I0618 23:35:09.390869  7999 layer_factory.hpp:77] Creating layer scale4c_branch2a
I0618 23:35:09.390883  7999 net.cpp:91] Creating Layer scale4c_branch2a
I0618 23:35:09.390890  7999 net.cpp:425] scale4c_branch2a <- res4c_branch2a
I0618 23:35:09.390898  7999 net.cpp:386] scale4c_branch2a -> res4c_branch2a (in-place)
I0618 23:35:09.390977  7999 layer_factory.hpp:77] Creating layer scale4c_branch2a
I0618 23:35:09.391178  7999 net.cpp:141] Setting up scale4c_branch2a
I0618 23:35:09.391190  7999 net.cpp:148] Top shape: 1 256 14 14 (50176)
I0618 23:35:09.391196  7999 net.cpp:156] Memory required for data: 192274436
I0618 23:35:09.391206  7999 layer_factory.hpp:77] Creating layer res4c_branch2a_relu
I0618 23:35:09.391214  7999 net.cpp:91] Creating Layer res4c_branch2a_relu
I0618 23:35:09.391221  7999 net.cpp:425] res4c_branch2a_relu <- res4c_branch2a
I0618 23:35:09.391230  7999 net.cpp:386] res4c_branch2a_relu -> res4c_branch2a (in-place)
I0618 23:35:09.391538  7999 net.cpp:141] Setting up res4c_branch2a_relu
I0618 23:35:09.391556  7999 net.cpp:148] Top shape: 1 256 14 14 (50176)
I0618 23:35:09.391566  7999 net.cpp:156] Memory required for data: 192475140
I0618 23:35:09.391576  7999 layer_factory.hpp:77] Creating layer res4c_branch2b
I0618 23:35:09.391590  7999 net.cpp:91] Creating Layer res4c_branch2b
I0618 23:35:09.391597  7999 net.cpp:425] res4c_branch2b <- res4c_branch2a
I0618 23:35:09.391620  7999 net.cpp:399] res4c_branch2b -> res4c_branch2b
I0618 23:35:09.395712  7999 net.cpp:141] Setting up res4c_branch2b
I0618 23:35:09.395737  7999 net.cpp:148] Top shape: 1 256 14 14 (50176)
I0618 23:35:09.395745  7999 net.cpp:156] Memory required for data: 192675844
I0618 23:35:09.395755  7999 layer_factory.hpp:77] Creating layer bn4c_branch2b
I0618 23:35:09.395768  7999 net.cpp:91] Creating Layer bn4c_branch2b
I0618 23:35:09.395776  7999 net.cpp:425] bn4c_branch2b <- res4c_branch2b
I0618 23:35:09.395784  7999 net.cpp:386] bn4c_branch2b -> res4c_branch2b (in-place)
I0618 23:35:09.396195  7999 net.cpp:141] Setting up bn4c_branch2b
I0618 23:35:09.396209  7999 net.cpp:148] Top shape: 1 256 14 14 (50176)
I0618 23:35:09.396215  7999 net.cpp:156] Memory required for data: 192876548
I0618 23:35:09.396232  7999 layer_factory.hpp:77] Creating layer scale4c_branch2b
I0618 23:35:09.396248  7999 net.cpp:91] Creating Layer scale4c_branch2b
I0618 23:35:09.396255  7999 net.cpp:425] scale4c_branch2b <- res4c_branch2b
I0618 23:35:09.396267  7999 net.cpp:386] scale4c_branch2b -> res4c_branch2b (in-place)
I0618 23:35:09.396389  7999 layer_factory.hpp:77] Creating layer scale4c_branch2b
I0618 23:35:09.396669  7999 net.cpp:141] Setting up scale4c_branch2b
I0618 23:35:09.396692  7999 net.cpp:148] Top shape: 1 256 14 14 (50176)
I0618 23:35:09.396699  7999 net.cpp:156] Memory required for data: 193077252
I0618 23:35:09.396711  7999 layer_factory.hpp:77] Creating layer res4c_branch2b_relu
I0618 23:35:09.396726  7999 net.cpp:91] Creating Layer res4c_branch2b_relu
I0618 23:35:09.396752  7999 net.cpp:425] res4c_branch2b_relu <- res4c_branch2b
I0618 23:35:09.396756  7999 net.cpp:386] res4c_branch2b_relu -> res4c_branch2b (in-place)
I0618 23:35:09.397083  7999 net.cpp:141] Setting up res4c_branch2b_relu
I0618 23:35:09.397102  7999 net.cpp:148] Top shape: 1 256 14 14 (50176)
I0618 23:35:09.397106  7999 net.cpp:156] Memory required for data: 193277956
I0618 23:35:09.397111  7999 layer_factory.hpp:77] Creating layer res4c_branch2c
I0618 23:35:09.397122  7999 net.cpp:91] Creating Layer res4c_branch2c
I0618 23:35:09.397127  7999 net.cpp:425] res4c_branch2c <- res4c_branch2b
I0618 23:35:09.397135  7999 net.cpp:399] res4c_branch2c -> res4c_branch2c
I0618 23:35:09.399484  7999 net.cpp:141] Setting up res4c_branch2c
I0618 23:35:09.399499  7999 net.cpp:148] Top shape: 1 1024 14 14 (200704)
I0618 23:35:09.399515  7999 net.cpp:156] Memory required for data: 194080772
I0618 23:35:09.399521  7999 layer_factory.hpp:77] Creating layer bn4c_branch2c
I0618 23:35:09.399530  7999 net.cpp:91] Creating Layer bn4c_branch2c
I0618 23:35:09.399534  7999 net.cpp:425] bn4c_branch2c <- res4c_branch2c
I0618 23:35:09.399538  7999 net.cpp:386] bn4c_branch2c -> res4c_branch2c (in-place)
I0618 23:35:09.399742  7999 net.cpp:141] Setting up bn4c_branch2c
I0618 23:35:09.399749  7999 net.cpp:148] Top shape: 1 1024 14 14 (200704)
I0618 23:35:09.399752  7999 net.cpp:156] Memory required for data: 194883588
I0618 23:35:09.399760  7999 layer_factory.hpp:77] Creating layer scale4c_branch2c
I0618 23:35:09.399765  7999 net.cpp:91] Creating Layer scale4c_branch2c
I0618 23:35:09.399768  7999 net.cpp:425] scale4c_branch2c <- res4c_branch2c
I0618 23:35:09.399773  7999 net.cpp:386] scale4c_branch2c -> res4c_branch2c (in-place)
I0618 23:35:09.399813  7999 layer_factory.hpp:77] Creating layer scale4c_branch2c
I0618 23:35:09.399972  7999 net.cpp:141] Setting up scale4c_branch2c
I0618 23:35:09.399983  7999 net.cpp:148] Top shape: 1 1024 14 14 (200704)
I0618 23:35:09.399987  7999 net.cpp:156] Memory required for data: 195686404
I0618 23:35:09.399992  7999 layer_factory.hpp:77] Creating layer res4c
I0618 23:35:09.400001  7999 net.cpp:91] Creating Layer res4c
I0618 23:35:09.400007  7999 net.cpp:425] res4c <- res4b_res4b_relu_0_split_1
I0618 23:35:09.400012  7999 net.cpp:425] res4c <- res4c_branch2c
I0618 23:35:09.400020  7999 net.cpp:399] res4c -> res4c
I0618 23:35:09.400058  7999 net.cpp:141] Setting up res4c
I0618 23:35:09.400066  7999 net.cpp:148] Top shape: 1 1024 14 14 (200704)
I0618 23:35:09.400069  7999 net.cpp:156] Memory required for data: 196489220
I0618 23:35:09.400073  7999 layer_factory.hpp:77] Creating layer res4c_relu
I0618 23:35:09.400079  7999 net.cpp:91] Creating Layer res4c_relu
I0618 23:35:09.400084  7999 net.cpp:425] res4c_relu <- res4c
I0618 23:35:09.400087  7999 net.cpp:386] res4c_relu -> res4c (in-place)
I0618 23:35:09.400275  7999 net.cpp:141] Setting up res4c_relu
I0618 23:35:09.400285  7999 net.cpp:148] Top shape: 1 1024 14 14 (200704)
I0618 23:35:09.400290  7999 net.cpp:156] Memory required for data: 197292036
I0618 23:35:09.400295  7999 layer_factory.hpp:77] Creating layer res4c_res4c_relu_0_split
I0618 23:35:09.400302  7999 net.cpp:91] Creating Layer res4c_res4c_relu_0_split
I0618 23:35:09.400307  7999 net.cpp:425] res4c_res4c_relu_0_split <- res4c
I0618 23:35:09.400318  7999 net.cpp:399] res4c_res4c_relu_0_split -> res4c_res4c_relu_0_split_0
I0618 23:35:09.400326  7999 net.cpp:399] res4c_res4c_relu_0_split -> res4c_res4c_relu_0_split_1
I0618 23:35:09.400387  7999 net.cpp:141] Setting up res4c_res4c_relu_0_split
I0618 23:35:09.400395  7999 net.cpp:148] Top shape: 1 1024 14 14 (200704)
I0618 23:35:09.400400  7999 net.cpp:148] Top shape: 1 1024 14 14 (200704)
I0618 23:35:09.400403  7999 net.cpp:156] Memory required for data: 198897668
I0618 23:35:09.400406  7999 layer_factory.hpp:77] Creating layer res4d_branch2a
I0618 23:35:09.400416  7999 net.cpp:91] Creating Layer res4d_branch2a
I0618 23:35:09.400423  7999 net.cpp:425] res4d_branch2a <- res4c_res4c_relu_0_split_0
I0618 23:35:09.400430  7999 net.cpp:399] res4d_branch2a -> res4d_branch2a
I0618 23:35:09.402464  7999 net.cpp:141] Setting up res4d_branch2a
I0618 23:35:09.402482  7999 net.cpp:148] Top shape: 1 256 14 14 (50176)
I0618 23:35:09.402487  7999 net.cpp:156] Memory required for data: 199098372
I0618 23:35:09.402493  7999 layer_factory.hpp:77] Creating layer bn4d_branch2a
I0618 23:35:09.402503  7999 net.cpp:91] Creating Layer bn4d_branch2a
I0618 23:35:09.402508  7999 net.cpp:425] bn4d_branch2a <- res4d_branch2a
I0618 23:35:09.402513  7999 net.cpp:386] bn4d_branch2a -> res4d_branch2a (in-place)
I0618 23:35:09.402724  7999 net.cpp:141] Setting up bn4d_branch2a
I0618 23:35:09.402731  7999 net.cpp:148] Top shape: 1 256 14 14 (50176)
I0618 23:35:09.402734  7999 net.cpp:156] Memory required for data: 199299076
I0618 23:35:09.402742  7999 layer_factory.hpp:77] Creating layer scale4d_branch2a
I0618 23:35:09.402760  7999 net.cpp:91] Creating Layer scale4d_branch2a
I0618 23:35:09.402765  7999 net.cpp:425] scale4d_branch2a <- res4d_branch2a
I0618 23:35:09.402770  7999 net.cpp:386] scale4d_branch2a -> res4d_branch2a (in-place)
I0618 23:35:09.402827  7999 layer_factory.hpp:77] Creating layer scale4d_branch2a
I0618 23:35:09.402983  7999 net.cpp:141] Setting up scale4d_branch2a
I0618 23:35:09.402992  7999 net.cpp:148] Top shape: 1 256 14 14 (50176)
I0618 23:35:09.402995  7999 net.cpp:156] Memory required for data: 199499780
I0618 23:35:09.403002  7999 layer_factory.hpp:77] Creating layer res4d_branch2a_relu
I0618 23:35:09.403007  7999 net.cpp:91] Creating Layer res4d_branch2a_relu
I0618 23:35:09.403012  7999 net.cpp:425] res4d_branch2a_relu <- res4d_branch2a
I0618 23:35:09.403017  7999 net.cpp:386] res4d_branch2a_relu -> res4d_branch2a (in-place)
I0618 23:35:09.403213  7999 net.cpp:141] Setting up res4d_branch2a_relu
I0618 23:35:09.403224  7999 net.cpp:148] Top shape: 1 256 14 14 (50176)
I0618 23:35:09.403228  7999 net.cpp:156] Memory required for data: 199700484
I0618 23:35:09.403231  7999 layer_factory.hpp:77] Creating layer res4d_branch2b
I0618 23:35:09.403244  7999 net.cpp:91] Creating Layer res4d_branch2b
I0618 23:35:09.403249  7999 net.cpp:425] res4d_branch2b <- res4d_branch2a
I0618 23:35:09.403255  7999 net.cpp:399] res4d_branch2b -> res4d_branch2b
I0618 23:35:09.405625  7999 net.cpp:141] Setting up res4d_branch2b
I0618 23:35:09.405643  7999 net.cpp:148] Top shape: 1 256 14 14 (50176)
I0618 23:35:09.405649  7999 net.cpp:156] Memory required for data: 199901188
I0618 23:35:09.405658  7999 layer_factory.hpp:77] Creating layer bn4d_branch2b
I0618 23:35:09.405668  7999 net.cpp:91] Creating Layer bn4d_branch2b
I0618 23:35:09.405673  7999 net.cpp:425] bn4d_branch2b <- res4d_branch2b
I0618 23:35:09.405678  7999 net.cpp:386] bn4d_branch2b -> res4d_branch2b (in-place)
I0618 23:35:09.405961  7999 net.cpp:141] Setting up bn4d_branch2b
I0618 23:35:09.405972  7999 net.cpp:148] Top shape: 1 256 14 14 (50176)
I0618 23:35:09.405975  7999 net.cpp:156] Memory required for data: 200101892
I0618 23:35:09.405987  7999 layer_factory.hpp:77] Creating layer scale4d_branch2b
I0618 23:35:09.405997  7999 net.cpp:91] Creating Layer scale4d_branch2b
I0618 23:35:09.406000  7999 net.cpp:425] scale4d_branch2b <- res4d_branch2b
I0618 23:35:09.406004  7999 net.cpp:386] scale4d_branch2b -> res4d_branch2b (in-place)
I0618 23:35:09.406064  7999 layer_factory.hpp:77] Creating layer scale4d_branch2b
I0618 23:35:09.406234  7999 net.cpp:141] Setting up scale4d_branch2b
I0618 23:35:09.406242  7999 net.cpp:148] Top shape: 1 256 14 14 (50176)
I0618 23:35:09.406245  7999 net.cpp:156] Memory required for data: 200302596
I0618 23:35:09.406253  7999 layer_factory.hpp:77] Creating layer res4d_branch2b_relu
I0618 23:35:09.406265  7999 net.cpp:91] Creating Layer res4d_branch2b_relu
I0618 23:35:09.406270  7999 net.cpp:425] res4d_branch2b_relu <- res4d_branch2b
I0618 23:35:09.406273  7999 net.cpp:386] res4d_branch2b_relu -> res4d_branch2b (in-place)
I0618 23:35:09.406673  7999 net.cpp:141] Setting up res4d_branch2b_relu
I0618 23:35:09.406687  7999 net.cpp:148] Top shape: 1 256 14 14 (50176)
I0618 23:35:09.406692  7999 net.cpp:156] Memory required for data: 200503300
I0618 23:35:09.406697  7999 layer_factory.hpp:77] Creating layer res4d_branch2c
I0618 23:35:09.406713  7999 net.cpp:91] Creating Layer res4d_branch2c
I0618 23:35:09.406718  7999 net.cpp:425] res4d_branch2c <- res4d_branch2b
I0618 23:35:09.406725  7999 net.cpp:399] res4d_branch2c -> res4d_branch2c
I0618 23:35:09.408840  7999 net.cpp:141] Setting up res4d_branch2c
I0618 23:35:09.408854  7999 net.cpp:148] Top shape: 1 1024 14 14 (200704)
I0618 23:35:09.408857  7999 net.cpp:156] Memory required for data: 201306116
I0618 23:35:09.408862  7999 layer_factory.hpp:77] Creating layer bn4d_branch2c
I0618 23:35:09.408870  7999 net.cpp:91] Creating Layer bn4d_branch2c
I0618 23:35:09.408874  7999 net.cpp:425] bn4d_branch2c <- res4d_branch2c
I0618 23:35:09.408880  7999 net.cpp:386] bn4d_branch2c -> res4d_branch2c (in-place)
I0618 23:35:09.409103  7999 net.cpp:141] Setting up bn4d_branch2c
I0618 23:35:09.409111  7999 net.cpp:148] Top shape: 1 1024 14 14 (200704)
I0618 23:35:09.409114  7999 net.cpp:156] Memory required for data: 202108932
I0618 23:35:09.409121  7999 layer_factory.hpp:77] Creating layer scale4d_branch2c
I0618 23:35:09.409126  7999 net.cpp:91] Creating Layer scale4d_branch2c
I0618 23:35:09.409129  7999 net.cpp:425] scale4d_branch2c <- res4d_branch2c
I0618 23:35:09.409135  7999 net.cpp:386] scale4d_branch2c -> res4d_branch2c (in-place)
I0618 23:35:09.409175  7999 layer_factory.hpp:77] Creating layer scale4d_branch2c
I0618 23:35:09.409332  7999 net.cpp:141] Setting up scale4d_branch2c
I0618 23:35:09.409343  7999 net.cpp:148] Top shape: 1 1024 14 14 (200704)
I0618 23:35:09.409348  7999 net.cpp:156] Memory required for data: 202911748
I0618 23:35:09.409356  7999 layer_factory.hpp:77] Creating layer res4d
I0618 23:35:09.409363  7999 net.cpp:91] Creating Layer res4d
I0618 23:35:09.409365  7999 net.cpp:425] res4d <- res4c_res4c_relu_0_split_1
I0618 23:35:09.409369  7999 net.cpp:425] res4d <- res4d_branch2c
I0618 23:35:09.409375  7999 net.cpp:399] res4d -> res4d
I0618 23:35:09.409413  7999 net.cpp:141] Setting up res4d
I0618 23:35:09.409422  7999 net.cpp:148] Top shape: 1 1024 14 14 (200704)
I0618 23:35:09.409425  7999 net.cpp:156] Memory required for data: 203714564
I0618 23:35:09.409428  7999 layer_factory.hpp:77] Creating layer res4d_relu
I0618 23:35:09.409435  7999 net.cpp:91] Creating Layer res4d_relu
I0618 23:35:09.409440  7999 net.cpp:425] res4d_relu <- res4d
I0618 23:35:09.409446  7999 net.cpp:386] res4d_relu -> res4d (in-place)
I0618 23:35:09.409633  7999 net.cpp:141] Setting up res4d_relu
I0618 23:35:09.409646  7999 net.cpp:148] Top shape: 1 1024 14 14 (200704)
I0618 23:35:09.409649  7999 net.cpp:156] Memory required for data: 204517380
I0618 23:35:09.409653  7999 layer_factory.hpp:77] Creating layer res4d_res4d_relu_0_split
I0618 23:35:09.409662  7999 net.cpp:91] Creating Layer res4d_res4d_relu_0_split
I0618 23:35:09.409667  7999 net.cpp:425] res4d_res4d_relu_0_split <- res4d
I0618 23:35:09.409674  7999 net.cpp:399] res4d_res4d_relu_0_split -> res4d_res4d_relu_0_split_0
I0618 23:35:09.409682  7999 net.cpp:399] res4d_res4d_relu_0_split -> res4d_res4d_relu_0_split_1
I0618 23:35:09.409739  7999 net.cpp:141] Setting up res4d_res4d_relu_0_split
I0618 23:35:09.409749  7999 net.cpp:148] Top shape: 1 1024 14 14 (200704)
I0618 23:35:09.409752  7999 net.cpp:148] Top shape: 1 1024 14 14 (200704)
I0618 23:35:09.409756  7999 net.cpp:156] Memory required for data: 206123012
I0618 23:35:09.409761  7999 layer_factory.hpp:77] Creating layer res4e_branch2a
I0618 23:35:09.409770  7999 net.cpp:91] Creating Layer res4e_branch2a
I0618 23:35:09.409773  7999 net.cpp:425] res4e_branch2a <- res4d_res4d_relu_0_split_0
I0618 23:35:09.409780  7999 net.cpp:399] res4e_branch2a -> res4e_branch2a
I0618 23:35:09.411767  7999 net.cpp:141] Setting up res4e_branch2a
I0618 23:35:09.411783  7999 net.cpp:148] Top shape: 1 256 14 14 (50176)
I0618 23:35:09.411789  7999 net.cpp:156] Memory required for data: 206323716
I0618 23:35:09.411797  7999 layer_factory.hpp:77] Creating layer bn4e_branch2a
I0618 23:35:09.411805  7999 net.cpp:91] Creating Layer bn4e_branch2a
I0618 23:35:09.411809  7999 net.cpp:425] bn4e_branch2a <- res4e_branch2a
I0618 23:35:09.411818  7999 net.cpp:386] bn4e_branch2a -> res4e_branch2a (in-place)
I0618 23:35:09.412088  7999 net.cpp:141] Setting up bn4e_branch2a
I0618 23:35:09.412101  7999 net.cpp:148] Top shape: 1 256 14 14 (50176)
I0618 23:35:09.412104  7999 net.cpp:156] Memory required for data: 206524420
I0618 23:35:09.412112  7999 layer_factory.hpp:77] Creating layer scale4e_branch2a
I0618 23:35:09.412122  7999 net.cpp:91] Creating Layer scale4e_branch2a
I0618 23:35:09.412127  7999 net.cpp:425] scale4e_branch2a <- res4e_branch2a
I0618 23:35:09.412132  7999 net.cpp:386] scale4e_branch2a -> res4e_branch2a (in-place)
I0618 23:35:09.412191  7999 layer_factory.hpp:77] Creating layer scale4e_branch2a
I0618 23:35:09.412377  7999 net.cpp:141] Setting up scale4e_branch2a
I0618 23:35:09.412389  7999 net.cpp:148] Top shape: 1 256 14 14 (50176)
I0618 23:35:09.412391  7999 net.cpp:156] Memory required for data: 206725124
I0618 23:35:09.412397  7999 layer_factory.hpp:77] Creating layer res4e_branch2a_relu
I0618 23:35:09.412403  7999 net.cpp:91] Creating Layer res4e_branch2a_relu
I0618 23:35:09.412406  7999 net.cpp:425] res4e_branch2a_relu <- res4e_branch2a
I0618 23:35:09.412412  7999 net.cpp:386] res4e_branch2a_relu -> res4e_branch2a (in-place)
I0618 23:35:09.412571  7999 net.cpp:141] Setting up res4e_branch2a_relu
I0618 23:35:09.412580  7999 net.cpp:148] Top shape: 1 256 14 14 (50176)
I0618 23:35:09.412582  7999 net.cpp:156] Memory required for data: 206925828
I0618 23:35:09.412585  7999 layer_factory.hpp:77] Creating layer res4e_branch2b
I0618 23:35:09.412595  7999 net.cpp:91] Creating Layer res4e_branch2b
I0618 23:35:09.412597  7999 net.cpp:425] res4e_branch2b <- res4e_branch2a
I0618 23:35:09.412603  7999 net.cpp:399] res4e_branch2b -> res4e_branch2b
I0618 23:35:09.415014  7999 net.cpp:141] Setting up res4e_branch2b
I0618 23:35:09.415030  7999 net.cpp:148] Top shape: 1 256 14 14 (50176)
I0618 23:35:09.415035  7999 net.cpp:156] Memory required for data: 207126532
I0618 23:35:09.415042  7999 layer_factory.hpp:77] Creating layer bn4e_branch2b
I0618 23:35:09.415051  7999 net.cpp:91] Creating Layer bn4e_branch2b
I0618 23:35:09.415056  7999 net.cpp:425] bn4e_branch2b <- res4e_branch2b
I0618 23:35:09.415065  7999 net.cpp:386] bn4e_branch2b -> res4e_branch2b (in-place)
I0618 23:35:09.415345  7999 net.cpp:141] Setting up bn4e_branch2b
I0618 23:35:09.415357  7999 net.cpp:148] Top shape: 1 256 14 14 (50176)
I0618 23:35:09.415361  7999 net.cpp:156] Memory required for data: 207327236
I0618 23:35:09.415369  7999 layer_factory.hpp:77] Creating layer scale4e_branch2b
I0618 23:35:09.415377  7999 net.cpp:91] Creating Layer scale4e_branch2b
I0618 23:35:09.415382  7999 net.cpp:425] scale4e_branch2b <- res4e_branch2b
I0618 23:35:09.415390  7999 net.cpp:386] scale4e_branch2b -> res4e_branch2b (in-place)
I0618 23:35:09.415449  7999 layer_factory.hpp:77] Creating layer scale4e_branch2b
I0618 23:35:09.415611  7999 net.cpp:141] Setting up scale4e_branch2b
I0618 23:35:09.415623  7999 net.cpp:148] Top shape: 1 256 14 14 (50176)
I0618 23:35:09.415627  7999 net.cpp:156] Memory required for data: 207527940
I0618 23:35:09.415633  7999 layer_factory.hpp:77] Creating layer res4e_branch2b_relu
I0618 23:35:09.415639  7999 net.cpp:91] Creating Layer res4e_branch2b_relu
I0618 23:35:09.415642  7999 net.cpp:425] res4e_branch2b_relu <- res4e_branch2b
I0618 23:35:09.415650  7999 net.cpp:386] res4e_branch2b_relu -> res4e_branch2b (in-place)
I0618 23:35:09.415971  7999 net.cpp:141] Setting up res4e_branch2b_relu
I0618 23:35:09.415983  7999 net.cpp:148] Top shape: 1 256 14 14 (50176)
I0618 23:35:09.415987  7999 net.cpp:156] Memory required for data: 207728644
I0618 23:35:09.415990  7999 layer_factory.hpp:77] Creating layer res4e_branch2c
I0618 23:35:09.416002  7999 net.cpp:91] Creating Layer res4e_branch2c
I0618 23:35:09.416007  7999 net.cpp:425] res4e_branch2c <- res4e_branch2b
I0618 23:35:09.416012  7999 net.cpp:399] res4e_branch2c -> res4e_branch2c
I0618 23:35:09.418018  7999 net.cpp:141] Setting up res4e_branch2c
I0618 23:35:09.418032  7999 net.cpp:148] Top shape: 1 1024 14 14 (200704)
I0618 23:35:09.418035  7999 net.cpp:156] Memory required for data: 208531460
I0618 23:35:09.418041  7999 layer_factory.hpp:77] Creating layer bn4e_branch2c
I0618 23:35:09.418048  7999 net.cpp:91] Creating Layer bn4e_branch2c
I0618 23:35:09.418052  7999 net.cpp:425] bn4e_branch2c <- res4e_branch2c
I0618 23:35:09.418058  7999 net.cpp:386] bn4e_branch2c -> res4e_branch2c (in-place)
I0618 23:35:09.418272  7999 net.cpp:141] Setting up bn4e_branch2c
I0618 23:35:09.418279  7999 net.cpp:148] Top shape: 1 1024 14 14 (200704)
I0618 23:35:09.418282  7999 net.cpp:156] Memory required for data: 209334276
I0618 23:35:09.418289  7999 layer_factory.hpp:77] Creating layer scale4e_branch2c
I0618 23:35:09.418310  7999 net.cpp:91] Creating Layer scale4e_branch2c
I0618 23:35:09.418313  7999 net.cpp:425] scale4e_branch2c <- res4e_branch2c
I0618 23:35:09.418318  7999 net.cpp:386] scale4e_branch2c -> res4e_branch2c (in-place)
I0618 23:35:09.418375  7999 layer_factory.hpp:77] Creating layer scale4e_branch2c
I0618 23:35:09.418555  7999 net.cpp:141] Setting up scale4e_branch2c
I0618 23:35:09.418563  7999 net.cpp:148] Top shape: 1 1024 14 14 (200704)
I0618 23:35:09.418566  7999 net.cpp:156] Memory required for data: 210137092
I0618 23:35:09.418572  7999 layer_factory.hpp:77] Creating layer res4e
I0618 23:35:09.418579  7999 net.cpp:91] Creating Layer res4e
I0618 23:35:09.418587  7999 net.cpp:425] res4e <- res4d_res4d_relu_0_split_1
I0618 23:35:09.418594  7999 net.cpp:425] res4e <- res4e_branch2c
I0618 23:35:09.418599  7999 net.cpp:399] res4e -> res4e
I0618 23:35:09.418637  7999 net.cpp:141] Setting up res4e
I0618 23:35:09.418644  7999 net.cpp:148] Top shape: 1 1024 14 14 (200704)
I0618 23:35:09.418648  7999 net.cpp:156] Memory required for data: 210939908
I0618 23:35:09.418650  7999 layer_factory.hpp:77] Creating layer res4e_relu
I0618 23:35:09.418659  7999 net.cpp:91] Creating Layer res4e_relu
I0618 23:35:09.418664  7999 net.cpp:425] res4e_relu <- res4e
I0618 23:35:09.418671  7999 net.cpp:386] res4e_relu -> res4e (in-place)
I0618 23:35:09.418879  7999 net.cpp:141] Setting up res4e_relu
I0618 23:35:09.418891  7999 net.cpp:148] Top shape: 1 1024 14 14 (200704)
I0618 23:35:09.418895  7999 net.cpp:156] Memory required for data: 211742724
I0618 23:35:09.418898  7999 layer_factory.hpp:77] Creating layer res4e_res4e_relu_0_split
I0618 23:35:09.418903  7999 net.cpp:91] Creating Layer res4e_res4e_relu_0_split
I0618 23:35:09.418910  7999 net.cpp:425] res4e_res4e_relu_0_split <- res4e
I0618 23:35:09.418917  7999 net.cpp:399] res4e_res4e_relu_0_split -> res4e_res4e_relu_0_split_0
I0618 23:35:09.418925  7999 net.cpp:399] res4e_res4e_relu_0_split -> res4e_res4e_relu_0_split_1
I0618 23:35:09.418987  7999 net.cpp:141] Setting up res4e_res4e_relu_0_split
I0618 23:35:09.418997  7999 net.cpp:148] Top shape: 1 1024 14 14 (200704)
I0618 23:35:09.419003  7999 net.cpp:148] Top shape: 1 1024 14 14 (200704)
I0618 23:35:09.419008  7999 net.cpp:156] Memory required for data: 213348356
I0618 23:35:09.419011  7999 layer_factory.hpp:77] Creating layer res4f_branch2a
I0618 23:35:09.419019  7999 net.cpp:91] Creating Layer res4f_branch2a
I0618 23:35:09.419023  7999 net.cpp:425] res4f_branch2a <- res4e_res4e_relu_0_split_0
I0618 23:35:09.419030  7999 net.cpp:399] res4f_branch2a -> res4f_branch2a
I0618 23:35:09.421012  7999 net.cpp:141] Setting up res4f_branch2a
I0618 23:35:09.421025  7999 net.cpp:148] Top shape: 1 256 14 14 (50176)
I0618 23:35:09.421028  7999 net.cpp:156] Memory required for data: 213549060
I0618 23:35:09.421036  7999 layer_factory.hpp:77] Creating layer bn4f_branch2a
I0618 23:35:09.421047  7999 net.cpp:91] Creating Layer bn4f_branch2a
I0618 23:35:09.421051  7999 net.cpp:425] bn4f_branch2a <- res4f_branch2a
I0618 23:35:09.421056  7999 net.cpp:386] bn4f_branch2a -> res4f_branch2a (in-place)
I0618 23:35:09.421342  7999 net.cpp:141] Setting up bn4f_branch2a
I0618 23:35:09.421353  7999 net.cpp:148] Top shape: 1 256 14 14 (50176)
I0618 23:35:09.421358  7999 net.cpp:156] Memory required for data: 213749764
I0618 23:35:09.421368  7999 layer_factory.hpp:77] Creating layer scale4f_branch2a
I0618 23:35:09.421375  7999 net.cpp:91] Creating Layer scale4f_branch2a
I0618 23:35:09.421380  7999 net.cpp:425] scale4f_branch2a <- res4f_branch2a
I0618 23:35:09.421385  7999 net.cpp:386] scale4f_branch2a -> res4f_branch2a (in-place)
I0618 23:35:09.421430  7999 layer_factory.hpp:77] Creating layer scale4f_branch2a
I0618 23:35:09.421546  7999 net.cpp:141] Setting up scale4f_branch2a
I0618 23:35:09.421555  7999 net.cpp:148] Top shape: 1 256 14 14 (50176)
I0618 23:35:09.421557  7999 net.cpp:156] Memory required for data: 213950468
I0618 23:35:09.421562  7999 layer_factory.hpp:77] Creating layer res4f_branch2a_relu
I0618 23:35:09.421567  7999 net.cpp:91] Creating Layer res4f_branch2a_relu
I0618 23:35:09.421582  7999 net.cpp:425] res4f_branch2a_relu <- res4f_branch2a
I0618 23:35:09.421586  7999 net.cpp:386] res4f_branch2a_relu -> res4f_branch2a (in-place)
I0618 23:35:09.421749  7999 net.cpp:141] Setting up res4f_branch2a_relu
I0618 23:35:09.421757  7999 net.cpp:148] Top shape: 1 256 14 14 (50176)
I0618 23:35:09.421761  7999 net.cpp:156] Memory required for data: 214151172
I0618 23:35:09.421763  7999 layer_factory.hpp:77] Creating layer res4f_branch2b
I0618 23:35:09.421772  7999 net.cpp:91] Creating Layer res4f_branch2b
I0618 23:35:09.421775  7999 net.cpp:425] res4f_branch2b <- res4f_branch2a
I0618 23:35:09.421780  7999 net.cpp:399] res4f_branch2b -> res4f_branch2b
I0618 23:35:09.424093  7999 net.cpp:141] Setting up res4f_branch2b
I0618 23:35:09.424108  7999 net.cpp:148] Top shape: 1 256 14 14 (50176)
I0618 23:35:09.424113  7999 net.cpp:156] Memory required for data: 214351876
I0618 23:35:09.424120  7999 layer_factory.hpp:77] Creating layer bn4f_branch2b
I0618 23:35:09.424129  7999 net.cpp:91] Creating Layer bn4f_branch2b
I0618 23:35:09.424134  7999 net.cpp:425] bn4f_branch2b <- res4f_branch2b
I0618 23:35:09.424139  7999 net.cpp:386] bn4f_branch2b -> res4f_branch2b (in-place)
I0618 23:35:09.424460  7999 net.cpp:141] Setting up bn4f_branch2b
I0618 23:35:09.424473  7999 net.cpp:148] Top shape: 1 256 14 14 (50176)
I0618 23:35:09.424477  7999 net.cpp:156] Memory required for data: 214552580
I0618 23:35:09.424486  7999 layer_factory.hpp:77] Creating layer scale4f_branch2b
I0618 23:35:09.424494  7999 net.cpp:91] Creating Layer scale4f_branch2b
I0618 23:35:09.424496  7999 net.cpp:425] scale4f_branch2b <- res4f_branch2b
I0618 23:35:09.424504  7999 net.cpp:386] scale4f_branch2b -> res4f_branch2b (in-place)
I0618 23:35:09.424566  7999 layer_factory.hpp:77] Creating layer scale4f_branch2b
I0618 23:35:09.424741  7999 net.cpp:141] Setting up scale4f_branch2b
I0618 23:35:09.424749  7999 net.cpp:148] Top shape: 1 256 14 14 (50176)
I0618 23:35:09.424754  7999 net.cpp:156] Memory required for data: 214753284
I0618 23:35:09.424763  7999 layer_factory.hpp:77] Creating layer res4f_branch2b_relu
I0618 23:35:09.424772  7999 net.cpp:91] Creating Layer res4f_branch2b_relu
I0618 23:35:09.424777  7999 net.cpp:425] res4f_branch2b_relu <- res4f_branch2b
I0618 23:35:09.424785  7999 net.cpp:386] res4f_branch2b_relu -> res4f_branch2b (in-place)
I0618 23:35:09.425066  7999 net.cpp:141] Setting up res4f_branch2b_relu
I0618 23:35:09.425081  7999 net.cpp:148] Top shape: 1 256 14 14 (50176)
I0618 23:35:09.425084  7999 net.cpp:156] Memory required for data: 214953988
I0618 23:35:09.425088  7999 layer_factory.hpp:77] Creating layer res4f_branch2c
I0618 23:35:09.425097  7999 net.cpp:91] Creating Layer res4f_branch2c
I0618 23:35:09.425101  7999 net.cpp:425] res4f_branch2c <- res4f_branch2b
I0618 23:35:09.425107  7999 net.cpp:399] res4f_branch2c -> res4f_branch2c
I0618 23:35:09.427064  7999 net.cpp:141] Setting up res4f_branch2c
I0618 23:35:09.427076  7999 net.cpp:148] Top shape: 1 1024 14 14 (200704)
I0618 23:35:09.427079  7999 net.cpp:156] Memory required for data: 215756804
I0618 23:35:09.427084  7999 layer_factory.hpp:77] Creating layer bn4f_branch2c
I0618 23:35:09.427093  7999 net.cpp:91] Creating Layer bn4f_branch2c
I0618 23:35:09.427096  7999 net.cpp:425] bn4f_branch2c <- res4f_branch2c
I0618 23:35:09.427103  7999 net.cpp:386] bn4f_branch2c -> res4f_branch2c (in-place)
I0618 23:35:09.427389  7999 net.cpp:141] Setting up bn4f_branch2c
I0618 23:35:09.427399  7999 net.cpp:148] Top shape: 1 1024 14 14 (200704)
I0618 23:35:09.427403  7999 net.cpp:156] Memory required for data: 216559620
I0618 23:35:09.427449  7999 layer_factory.hpp:77] Creating layer scale4f_branch2c
I0618 23:35:09.427459  7999 net.cpp:91] Creating Layer scale4f_branch2c
I0618 23:35:09.427462  7999 net.cpp:425] scale4f_branch2c <- res4f_branch2c
I0618 23:35:09.427469  7999 net.cpp:386] scale4f_branch2c -> res4f_branch2c (in-place)
I0618 23:35:09.427531  7999 layer_factory.hpp:77] Creating layer scale4f_branch2c
I0618 23:35:09.427707  7999 net.cpp:141] Setting up scale4f_branch2c
I0618 23:35:09.427736  7999 net.cpp:148] Top shape: 1 1024 14 14 (200704)
I0618 23:35:09.427741  7999 net.cpp:156] Memory required for data: 217362436
I0618 23:35:09.427747  7999 layer_factory.hpp:77] Creating layer res4f
I0618 23:35:09.427752  7999 net.cpp:91] Creating Layer res4f
I0618 23:35:09.427758  7999 net.cpp:425] res4f <- res4e_res4e_relu_0_split_1
I0618 23:35:09.427763  7999 net.cpp:425] res4f <- res4f_branch2c
I0618 23:35:09.427774  7999 net.cpp:399] res4f -> res4f
I0618 23:35:09.427814  7999 net.cpp:141] Setting up res4f
I0618 23:35:09.427821  7999 net.cpp:148] Top shape: 1 1024 14 14 (200704)
I0618 23:35:09.427825  7999 net.cpp:156] Memory required for data: 218165252
I0618 23:35:09.427830  7999 layer_factory.hpp:77] Creating layer res4f_relu
I0618 23:35:09.427839  7999 net.cpp:91] Creating Layer res4f_relu
I0618 23:35:09.427845  7999 net.cpp:425] res4f_relu <- res4f
I0618 23:35:09.427848  7999 net.cpp:386] res4f_relu -> res4f (in-place)
I0618 23:35:09.428042  7999 net.cpp:141] Setting up res4f_relu
I0618 23:35:09.428053  7999 net.cpp:148] Top shape: 1 1024 14 14 (200704)
I0618 23:35:09.428056  7999 net.cpp:156] Memory required for data: 218968068
I0618 23:35:09.428059  7999 layer_factory.hpp:77] Creating layer res4f_res4f_relu_0_split
I0618 23:35:09.428066  7999 net.cpp:91] Creating Layer res4f_res4f_relu_0_split
I0618 23:35:09.428071  7999 net.cpp:425] res4f_res4f_relu_0_split <- res4f
I0618 23:35:09.428079  7999 net.cpp:399] res4f_res4f_relu_0_split -> res4f_res4f_relu_0_split_0
I0618 23:35:09.428087  7999 net.cpp:399] res4f_res4f_relu_0_split -> res4f_res4f_relu_0_split_1
I0618 23:35:09.428154  7999 net.cpp:141] Setting up res4f_res4f_relu_0_split
I0618 23:35:09.428161  7999 net.cpp:148] Top shape: 1 1024 14 14 (200704)
I0618 23:35:09.428165  7999 net.cpp:148] Top shape: 1 1024 14 14 (200704)
I0618 23:35:09.428167  7999 net.cpp:156] Memory required for data: 220573700
I0618 23:35:09.428172  7999 layer_factory.hpp:77] Creating layer res5a_branch1
I0618 23:35:09.428186  7999 net.cpp:91] Creating Layer res5a_branch1
I0618 23:35:09.428190  7999 net.cpp:425] res5a_branch1 <- res4f_res4f_relu_0_split_0
I0618 23:35:09.428195  7999 net.cpp:399] res5a_branch1 -> res5a_branch1
I0618 23:35:09.434442  7999 net.cpp:141] Setting up res5a_branch1
I0618 23:35:09.434465  7999 net.cpp:148] Top shape: 1 2048 7 7 (100352)
I0618 23:35:09.434469  7999 net.cpp:156] Memory required for data: 220975108
I0618 23:35:09.434478  7999 layer_factory.hpp:77] Creating layer bn5a_branch1
I0618 23:35:09.434491  7999 net.cpp:91] Creating Layer bn5a_branch1
I0618 23:35:09.434496  7999 net.cpp:425] bn5a_branch1 <- res5a_branch1
I0618 23:35:09.434502  7999 net.cpp:386] bn5a_branch1 -> res5a_branch1 (in-place)
I0618 23:35:09.434742  7999 net.cpp:141] Setting up bn5a_branch1
I0618 23:35:09.434749  7999 net.cpp:148] Top shape: 1 2048 7 7 (100352)
I0618 23:35:09.434752  7999 net.cpp:156] Memory required for data: 221376516
I0618 23:35:09.434758  7999 layer_factory.hpp:77] Creating layer scale5a_branch1
I0618 23:35:09.434767  7999 net.cpp:91] Creating Layer scale5a_branch1
I0618 23:35:09.434769  7999 net.cpp:425] scale5a_branch1 <- res5a_branch1
I0618 23:35:09.434774  7999 net.cpp:386] scale5a_branch1 -> res5a_branch1 (in-place)
I0618 23:35:09.434819  7999 layer_factory.hpp:77] Creating layer scale5a_branch1
I0618 23:35:09.434952  7999 net.cpp:141] Setting up scale5a_branch1
I0618 23:35:09.434959  7999 net.cpp:148] Top shape: 1 2048 7 7 (100352)
I0618 23:35:09.434962  7999 net.cpp:156] Memory required for data: 221777924
I0618 23:35:09.434967  7999 layer_factory.hpp:77] Creating layer res5a_branch2a
I0618 23:35:09.434978  7999 net.cpp:91] Creating Layer res5a_branch2a
I0618 23:35:09.434981  7999 net.cpp:425] res5a_branch2a <- res4f_res4f_relu_0_split_1
I0618 23:35:09.434986  7999 net.cpp:399] res5a_branch2a -> res5a_branch2a
I0618 23:35:09.436905  7999 net.cpp:141] Setting up res5a_branch2a
I0618 23:35:09.436923  7999 net.cpp:148] Top shape: 1 512 7 7 (25088)
I0618 23:35:09.436926  7999 net.cpp:156] Memory required for data: 221878276
I0618 23:35:09.436950  7999 layer_factory.hpp:77] Creating layer bn5a_branch2a
I0618 23:35:09.436957  7999 net.cpp:91] Creating Layer bn5a_branch2a
I0618 23:35:09.436962  7999 net.cpp:425] bn5a_branch2a <- res5a_branch2a
I0618 23:35:09.436971  7999 net.cpp:386] bn5a_branch2a -> res5a_branch2a (in-place)
I0618 23:35:09.437194  7999 net.cpp:141] Setting up bn5a_branch2a
I0618 23:35:09.437203  7999 net.cpp:148] Top shape: 1 512 7 7 (25088)
I0618 23:35:09.437206  7999 net.cpp:156] Memory required for data: 221978628
I0618 23:35:09.437213  7999 layer_factory.hpp:77] Creating layer scale5a_branch2a
I0618 23:35:09.437219  7999 net.cpp:91] Creating Layer scale5a_branch2a
I0618 23:35:09.437223  7999 net.cpp:425] scale5a_branch2a <- res5a_branch2a
I0618 23:35:09.437227  7999 net.cpp:386] scale5a_branch2a -> res5a_branch2a (in-place)
I0618 23:35:09.437273  7999 layer_factory.hpp:77] Creating layer scale5a_branch2a
I0618 23:35:09.437402  7999 net.cpp:141] Setting up scale5a_branch2a
I0618 23:35:09.437407  7999 net.cpp:148] Top shape: 1 512 7 7 (25088)
I0618 23:35:09.437410  7999 net.cpp:156] Memory required for data: 222078980
I0618 23:35:09.437417  7999 layer_factory.hpp:77] Creating layer res5a_branch2a_relu
I0618 23:35:09.437422  7999 net.cpp:91] Creating Layer res5a_branch2a_relu
I0618 23:35:09.437425  7999 net.cpp:425] res5a_branch2a_relu <- res5a_branch2a
I0618 23:35:09.437430  7999 net.cpp:386] res5a_branch2a_relu -> res5a_branch2a (in-place)
I0618 23:35:09.437594  7999 net.cpp:141] Setting up res5a_branch2a_relu
I0618 23:35:09.437603  7999 net.cpp:148] Top shape: 1 512 7 7 (25088)
I0618 23:35:09.437607  7999 net.cpp:156] Memory required for data: 222179332
I0618 23:35:09.437610  7999 layer_factory.hpp:77] Creating layer res5a_branch2b
I0618 23:35:09.437619  7999 net.cpp:91] Creating Layer res5a_branch2b
I0618 23:35:09.437623  7999 net.cpp:425] res5a_branch2b <- res5a_branch2a
I0618 23:35:09.437629  7999 net.cpp:399] res5a_branch2b -> res5a_branch2b
I0618 23:35:09.443996  7999 net.cpp:141] Setting up res5a_branch2b
I0618 23:35:09.444022  7999 net.cpp:148] Top shape: 1 512 7 7 (25088)
I0618 23:35:09.444026  7999 net.cpp:156] Memory required for data: 222279684
I0618 23:35:09.444034  7999 layer_factory.hpp:77] Creating layer bn5a_branch2b
I0618 23:35:09.444046  7999 net.cpp:91] Creating Layer bn5a_branch2b
I0618 23:35:09.444051  7999 net.cpp:425] bn5a_branch2b <- res5a_branch2b
I0618 23:35:09.444057  7999 net.cpp:386] bn5a_branch2b -> res5a_branch2b (in-place)
I0618 23:35:09.444291  7999 net.cpp:141] Setting up bn5a_branch2b
I0618 23:35:09.444298  7999 net.cpp:148] Top shape: 1 512 7 7 (25088)
I0618 23:35:09.444301  7999 net.cpp:156] Memory required for data: 222380036
I0618 23:35:09.444308  7999 layer_factory.hpp:77] Creating layer scale5a_branch2b
I0618 23:35:09.444340  7999 net.cpp:91] Creating Layer scale5a_branch2b
I0618 23:35:09.444344  7999 net.cpp:425] scale5a_branch2b <- res5a_branch2b
I0618 23:35:09.444350  7999 net.cpp:386] scale5a_branch2b -> res5a_branch2b (in-place)
I0618 23:35:09.444401  7999 layer_factory.hpp:77] Creating layer scale5a_branch2b
I0618 23:35:09.444540  7999 net.cpp:141] Setting up scale5a_branch2b
I0618 23:35:09.444546  7999 net.cpp:148] Top shape: 1 512 7 7 (25088)
I0618 23:35:09.444550  7999 net.cpp:156] Memory required for data: 222480388
I0618 23:35:09.444555  7999 layer_factory.hpp:77] Creating layer res5a_branch2b_relu
I0618 23:35:09.444561  7999 net.cpp:91] Creating Layer res5a_branch2b_relu
I0618 23:35:09.444566  7999 net.cpp:425] res5a_branch2b_relu <- res5a_branch2b
I0618 23:35:09.444568  7999 net.cpp:386] res5a_branch2b_relu -> res5a_branch2b (in-place)
I0618 23:35:09.444851  7999 net.cpp:141] Setting up res5a_branch2b_relu
I0618 23:35:09.444861  7999 net.cpp:148] Top shape: 1 512 7 7 (25088)
I0618 23:35:09.444864  7999 net.cpp:156] Memory required for data: 222580740
I0618 23:35:09.444867  7999 layer_factory.hpp:77] Creating layer res5a_branch2c
I0618 23:35:09.444878  7999 net.cpp:91] Creating Layer res5a_branch2c
I0618 23:35:09.444881  7999 net.cpp:425] res5a_branch2c <- res5a_branch2b
I0618 23:35:09.444908  7999 net.cpp:399] res5a_branch2c -> res5a_branch2c
I0618 23:35:09.447804  7999 net.cpp:141] Setting up res5a_branch2c
I0618 23:35:09.447818  7999 net.cpp:148] Top shape: 1 2048 7 7 (100352)
I0618 23:35:09.447823  7999 net.cpp:156] Memory required for data: 222982148
I0618 23:35:09.447827  7999 layer_factory.hpp:77] Creating layer bn5a_branch2c
I0618 23:35:09.447836  7999 net.cpp:91] Creating Layer bn5a_branch2c
I0618 23:35:09.447840  7999 net.cpp:425] bn5a_branch2c <- res5a_branch2c
I0618 23:35:09.447845  7999 net.cpp:386] bn5a_branch2c -> res5a_branch2c (in-place)
I0618 23:35:09.448071  7999 net.cpp:141] Setting up bn5a_branch2c
I0618 23:35:09.448078  7999 net.cpp:148] Top shape: 1 2048 7 7 (100352)
I0618 23:35:09.448081  7999 net.cpp:156] Memory required for data: 223383556
I0618 23:35:09.448088  7999 layer_factory.hpp:77] Creating layer scale5a_branch2c
I0618 23:35:09.448096  7999 net.cpp:91] Creating Layer scale5a_branch2c
I0618 23:35:09.448099  7999 net.cpp:425] scale5a_branch2c <- res5a_branch2c
I0618 23:35:09.448103  7999 net.cpp:386] scale5a_branch2c -> res5a_branch2c (in-place)
I0618 23:35:09.448149  7999 layer_factory.hpp:77] Creating layer scale5a_branch2c
I0618 23:35:09.448279  7999 net.cpp:141] Setting up scale5a_branch2c
I0618 23:35:09.448285  7999 net.cpp:148] Top shape: 1 2048 7 7 (100352)
I0618 23:35:09.448288  7999 net.cpp:156] Memory required for data: 223784964
I0618 23:35:09.448293  7999 layer_factory.hpp:77] Creating layer res5a
I0618 23:35:09.448300  7999 net.cpp:91] Creating Layer res5a
I0618 23:35:09.448304  7999 net.cpp:425] res5a <- res5a_branch1
I0618 23:35:09.448308  7999 net.cpp:425] res5a <- res5a_branch2c
I0618 23:35:09.448326  7999 net.cpp:399] res5a -> res5a
I0618 23:35:09.448362  7999 net.cpp:141] Setting up res5a
I0618 23:35:09.448367  7999 net.cpp:148] Top shape: 1 2048 7 7 (100352)
I0618 23:35:09.448370  7999 net.cpp:156] Memory required for data: 224186372
I0618 23:35:09.448374  7999 layer_factory.hpp:77] Creating layer res5a_relu
I0618 23:35:09.448379  7999 net.cpp:91] Creating Layer res5a_relu
I0618 23:35:09.448382  7999 net.cpp:425] res5a_relu <- res5a
I0618 23:35:09.448387  7999 net.cpp:386] res5a_relu -> res5a (in-place)
I0618 23:35:09.448667  7999 net.cpp:141] Setting up res5a_relu
I0618 23:35:09.448676  7999 net.cpp:148] Top shape: 1 2048 7 7 (100352)
I0618 23:35:09.448679  7999 net.cpp:156] Memory required for data: 224587780
I0618 23:35:09.448683  7999 layer_factory.hpp:77] Creating layer res5a_res5a_relu_0_split
I0618 23:35:09.448689  7999 net.cpp:91] Creating Layer res5a_res5a_relu_0_split
I0618 23:35:09.448693  7999 net.cpp:425] res5a_res5a_relu_0_split <- res5a
I0618 23:35:09.448701  7999 net.cpp:399] res5a_res5a_relu_0_split -> res5a_res5a_relu_0_split_0
I0618 23:35:09.448707  7999 net.cpp:399] res5a_res5a_relu_0_split -> res5a_res5a_relu_0_split_1
I0618 23:35:09.448760  7999 net.cpp:141] Setting up res5a_res5a_relu_0_split
I0618 23:35:09.448766  7999 net.cpp:148] Top shape: 1 2048 7 7 (100352)
I0618 23:35:09.448770  7999 net.cpp:148] Top shape: 1 2048 7 7 (100352)
…
I0618 23:35:09.700412  7999 net.cpp:91] Creating Layer res4c_res4c_relu_0_split
I0618 23:35:09.700415  7999 net.cpp:425] res4c_res4c_relu_0_split <- res4c
I0618 23:35:09.700420  7999 net.cpp:399] res4c_res4c_relu_0_split -> res4c_res4c_relu_0_split_0
I0618 23:35:09.700428  7999 net.cpp:399] res4c_res4c_relu_0_split -> res4c_res4c_relu_0_split_1
I0618 23:35:09.700479  7999 net.cpp:141] Setting up res4c_res4c_relu_0_split
I0618 23:35:09.700484  7999 net.cpp:148] Top shape: 10 1024 14 14 (2007040)
I0618 23:35:09.700487  7999 net.cpp:148] Top shape: 10 1024 14 14 (2007040)
I0618 23:35:09.700490  7999 net.cpp:156] Memory required for data: 1988976680
I0618 23:35:09.700494  7999 layer_factory.hpp:77] Creating layer res4d_branch2a
I0618 23:35:09.700502  7999 net.cpp:91] Creating Layer res4d_branch2a
I0618 23:35:09.700505  7999 net.cpp:425] res4d_branch2a <- res4c_res4c_relu_0_split_0
I0618 23:35:09.700512  7999 net.cpp:399] res4d_branch2a -> res4d_branch2a
I0618 23:35:09.702731  7999 net.cpp:141] Setting up res4d_branch2a
I0618 23:35:09.702746  7999 net.cpp:148] Top shape: 10 256 14 14 (501760)
I0618 23:35:09.702751  7999 net.cpp:156] Memory required for data: 1990983720
I0618 23:35:09.702759  7999 layer_factory.hpp:77] Creating layer bn4d_branch2a
I0618 23:35:09.702769  7999 net.cpp:91] Creating Layer bn4d_branch2a
I0618 23:35:09.702775  7999 net.cpp:425] bn4d_branch2a <- res4d_branch2a
I0618 23:35:09.702783  7999 net.cpp:386] bn4d_branch2a -> res4d_branch2a (in-place)
I0618 23:35:09.703063  7999 net.cpp:141] Setting up bn4d_branch2a
I0618 23:35:09.703073  7999 net.cpp:148] Top shape: 10 256 14 14 (501760)
I0618 23:35:09.703075  7999 net.cpp:156] Memory required for data: 1992990760
I0618 23:35:09.703083  7999 layer_factory.hpp:77] Creating layer scale4d_branch2a
I0618 23:35:09.703093  7999 net.cpp:91] Creating Layer scale4d_branch2a
I0618 23:35:09.703099  7999 net.cpp:425] scale4d_branch2a <- res4d_branch2a
I0618 23:35:09.703109  7999 net.cpp:386] scale4d_branch2a -> res4d_branch2a (in-place)
I0618 23:35:09.703173  7999 layer_factory.hpp:77] Creating layer scale4d_branch2a
I0618 23:35:09.703338  7999 net.cpp:141] Setting up scale4d_branch2a
I0618 23:35:09.703349  7999 net.cpp:148] Top shape: 10 256 14 14 (501760)
I0618 23:35:09.703367  7999 net.cpp:156] Memory required for data: 1994997800
I0618 23:35:09.703378  7999 layer_factory.hpp:77] Creating layer res4d_branch2a_relu
I0618 23:35:09.703387  7999 net.cpp:91] Creating Layer res4d_branch2a_relu
I0618 23:35:09.703392  7999 net.cpp:425] res4d_branch2a_relu <- res4d_branch2a
I0618 23:35:09.703397  7999 net.cpp:386] res4d_branch2a_relu -> res4d_branch2a (in-place)
I0618 23:35:09.703644  7999 net.cpp:141] Setting up res4d_branch2a_relu
I0618 23:35:09.703656  7999 net.cpp:148] Top shape: 10 256 14 14 (501760)
I0618 23:35:09.703661  7999 net.cpp:156] Memory required for data: 1997004840
I0618 23:35:09.703666  7999 layer_factory.hpp:77] Creating layer res4d_branch2b
I0618 23:35:09.703676  7999 net.cpp:91] Creating Layer res4d_branch2b
I0618 23:35:09.703680  7999 net.cpp:425] res4d_branch2b <- res4d_branch2a
I0618 23:35:09.703688  7999 net.cpp:399] res4d_branch2b -> res4d_branch2b
I0618 23:35:09.706650  7999 net.cpp:141] Setting up res4d_branch2b
I0618 23:35:09.706665  7999 net.cpp:148] Top shape: 10 256 14 14 (501760)
I0618 23:35:09.706670  7999 net.cpp:156] Memory required for data: 1999011880
I0618 23:35:09.706679  7999 layer_factory.hpp:77] Creating layer bn4d_branch2b
I0618 23:35:09.706693  7999 net.cpp:91] Creating Layer bn4d_branch2b
I0618 23:35:09.706698  7999 net.cpp:425] bn4d_branch2b <- res4d_branch2b
I0618 23:35:09.706704  7999 net.cpp:386] bn4d_branch2b -> res4d_branch2b (in-place)
I0618 23:35:09.706986  7999 net.cpp:141] Setting up bn4d_branch2b
I0618 23:35:09.706997  7999 net.cpp:148] Top shape: 10 256 14 14 (501760)
I0618 23:35:09.707002  7999 net.cpp:156] Memory required for data: 2001018920
I0618 23:35:09.707012  7999 layer_factory.hpp:77] Creating layer scale4d_branch2b
I0618 23:35:09.707020  7999 net.cpp:91] Creating Layer scale4d_branch2b
I0618 23:35:09.707026  7999 net.cpp:425] scale4d_branch2b <- res4d_branch2b
I0618 23:35:09.707032  7999 net.cpp:386] scale4d_branch2b -> res4d_branch2b (in-place)
I0618 23:35:09.707099  7999 layer_factory.hpp:77] Creating layer scale4d_branch2b
I0618 23:35:09.707270  7999 net.cpp:141] Setting up scale4d_branch2b
I0618 23:35:09.707279  7999 net.cpp:148] Top shape: 10 256 14 14 (501760)
I0618 23:35:09.707283  7999 net.cpp:156] Memory required for data: 2003025960
I0618 23:35:09.707288  7999 layer_factory.hpp:77] Creating layer res4d_branch2b_relu
I0618 23:35:09.707296  7999 net.cpp:91] Creating Layer res4d_branch2b_relu
I0618 23:35:09.707299  7999 net.cpp:425] res4d_branch2b_relu <- res4d_branch2b
I0618 23:35:09.707304  7999 net.cpp:386] res4d_branch2b_relu -> res4d_branch2b (in-place)
I0618 23:35:09.707516  7999 net.cpp:141] Setting up res4d_branch2b_relu
I0618 23:35:09.707525  7999 net.cpp:148] Top shape: 10 256 14 14 (501760)
I0618 23:35:09.707530  7999 net.cpp:156] Memory required for data: 2005033000
I0618 23:35:09.707532  7999 layer_factory.hpp:77] Creating layer res4d_branch2c
I0618 23:35:09.707542  7999 net.cpp:91] Creating Layer res4d_branch2c
I0618 23:35:09.707546  7999 net.cpp:425] res4d_branch2c <- res4d_branch2b
I0618 23:35:09.707551  7999 net.cpp:399] res4d_branch2c -> res4d_branch2c
I0618 23:35:09.710517  7999 net.cpp:141] Setting up res4d_branch2c
I0618 23:35:09.710536  7999 net.cpp:148] Top shape: 10 1024 14 14 (2007040)
I0618 23:35:09.710541  7999 net.cpp:156] Memory required for data: 2013061160
I0618 23:35:09.710548  7999 layer_factory.hpp:77] Creating layer bn4d_branch2c
I0618 23:35:09.710558  7999 net.cpp:91] Creating Layer bn4d_branch2c
I0618 23:35:09.710566  7999 net.cpp:425] bn4d_branch2c <- res4d_branch2c
I0618 23:35:09.710572  7999 net.cpp:386] bn4d_branch2c -> res4d_branch2c (in-place)
I0618 23:35:09.710912  7999 net.cpp:141] Setting up bn4d_branch2c
I0618 23:35:09.710924  7999 net.cpp:148] Top shape: 10 1024 14 14 (2007040)
I0618 23:35:09.710928  7999 net.cpp:156] Memory required for data: 2021089320
I0618 23:35:09.710935  7999 layer_factory.hpp:77] Creating layer scale4d_branch2c
I0618 23:35:09.710943  7999 net.cpp:91] Creating Layer scale4d_branch2c
I0618 23:35:09.710949  7999 net.cpp:425] scale4d_branch2c <- res4d_branch2c
I0618 23:35:09.710975  7999 net.cpp:386] scale4d_branch2c -> res4d_branch2c (in-place)
I0618 23:35:09.711051  7999 layer_factory.hpp:77] Creating layer scale4d_branch2c
I0618 23:35:09.711246  7999 net.cpp:141] Setting up scale4d_branch2c
I0618 23:35:09.711258  7999 net.cpp:148] Top shape: 10 1024 14 14 (2007040)
I0618 23:35:09.711261  7999 net.cpp:156] Memory required for data: 2029117480
I0618 23:35:09.711267  7999 layer_factory.hpp:77] Creating layer res4d
I0618 23:35:09.711277  7999 net.cpp:91] Creating Layer res4d
I0618 23:35:09.711282  7999 net.cpp:425] res4d <- res4c_res4c_relu_0_split_1
I0618 23:35:09.711288  7999 net.cpp:425] res4d <- res4d_branch2c
I0618 23:35:09.711293  7999 net.cpp:399] res4d -> res4d
I0618 23:35:09.711335  7999 net.cpp:141] Setting up res4d
I0618 23:35:09.711344  7999 net.cpp:148] Top shape: 10 1024 14 14 (2007040)
I0618 23:35:09.711347  7999 net.cpp:156] Memory required for data: 2037145640
I0618 23:35:09.711350  7999 layer_factory.hpp:77] Creating layer res4d_relu
I0618 23:35:09.711357  7999 net.cpp:91] Creating Layer res4d_relu
I0618 23:35:09.711361  7999 net.cpp:425] res4d_relu <- res4d
I0618 23:35:09.711365  7999 net.cpp:386] res4d_relu -> res4d (in-place)
I0618 23:35:09.711710  7999 net.cpp:141] Setting up res4d_relu
I0618 23:35:09.711721  7999 net.cpp:148] Top shape: 10 1024 14 14 (2007040)
I0618 23:35:09.711724  7999 net.cpp:156] Memory required for data: 2045173800
I0618 23:35:09.711729  7999 layer_factory.hpp:77] Creating layer res4d_res4d_relu_0_split
I0618 23:35:09.711736  7999 net.cpp:91] Creating Layer res4d_res4d_relu_0_split
I0618 23:35:09.711740  7999 net.cpp:425] res4d_res4d_relu_0_split <- res4d
I0618 23:35:09.711745  7999 net.cpp:399] res4d_res4d_relu_0_split -> res4d_res4d_relu_0_split_0
I0618 23:35:09.711750  7999 net.cpp:399] res4d_res4d_relu_0_split -> res4d_res4d_relu_0_split_1
I0618 23:35:09.711803  7999 net.cpp:141] Setting up res4d_res4d_relu_0_split
I0618 23:35:09.711809  7999 net.cpp:148] Top shape: 10 1024 14 14 (2007040)
I0618 23:35:09.711813  7999 net.cpp:148] Top shape: 10 1024 14 14 (2007040)
I0618 23:35:09.711815  7999 net.cpp:156] Memory required for data: 2061230120
I0618 23:35:09.711819  7999 layer_factory.hpp:77] Creating layer res4e_branch2a
I0618 23:35:09.711828  7999 net.cpp:91] Creating Layer res4e_branch2a
I0618 23:35:09.711833  7999 net.cpp:425] res4e_branch2a <- res4d_res4d_relu_0_split_0
I0618 23:35:09.711836  7999 net.cpp:399] res4e_branch2a -> res4e_branch2a
I0618 23:35:09.714126  7999 net.cpp:141] Setting up res4e_branch2a
I0618 23:35:09.714143  7999 net.cpp:148] Top shape: 10 256 14 14 (501760)
I0618 23:35:09.714149  7999 net.cpp:156] Memory required for data: 2063237160
I0618 23:35:09.714155  7999 layer_factory.hpp:77] Creating layer bn4e_branch2a
I0618 23:35:09.714165  7999 net.cpp:91] Creating Layer bn4e_branch2a
I0618 23:35:09.714171  7999 net.cpp:425] bn4e_branch2a <- res4e_branch2a
I0618 23:35:09.714179  7999 net.cpp:386] bn4e_branch2a -> res4e_branch2a (in-place)
I0618 23:35:09.714468  7999 net.cpp:141] Setting up bn4e_branch2a
I0618 23:35:09.714478  7999 net.cpp:148] Top shape: 10 256 14 14 (501760)
I0618 23:35:09.714480  7999 net.cpp:156] Memory required for data: 2065244200
I0618 23:35:09.714489  7999 layer_factory.hpp:77] Creating layer scale4e_branch2a
I0618 23:35:09.714498  7999 net.cpp:91] Creating Layer scale4e_branch2a
I0618 23:35:09.714504  7999 net.cpp:425] scale4e_branch2a <- res4e_branch2a
I0618 23:35:09.714510  7999 net.cpp:386] scale4e_branch2a -> res4e_branch2a (in-place)
I0618 23:35:09.714578  7999 layer_factory.hpp:77] Creating layer scale4e_branch2a
I0618 23:35:09.714743  7999 net.cpp:141] Setting up scale4e_branch2a
I0618 23:35:09.714754  7999 net.cpp:148] Top shape: 10 256 14 14 (501760)
I0618 23:35:09.714757  7999 net.cpp:156] Memory required for data: 2067251240
I0618 23:35:09.714763  7999 layer_factory.hpp:77] Creating layer res4e_branch2a_relu
I0618 23:35:09.714771  7999 net.cpp:91] Creating Layer res4e_branch2a_relu
I0618 23:35:09.714777  7999 net.cpp:425] res4e_branch2a_relu <- res4e_branch2a
I0618 23:35:09.714797  7999 net.cpp:386] res4e_branch2a_relu -> res4e_branch2a (in-place)
I0618 23:35:09.715019  7999 net.cpp:141] Setting up res4e_branch2a_relu
I0618 23:35:09.715030  7999 net.cpp:148] Top shape: 10 256 14 14 (501760)
I0618 23:35:09.715034  7999 net.cpp:156] Memory required for data: 2069258280
I0618 23:35:09.715037  7999 layer_factory.hpp:77] Creating layer res4e_branch2b
I0618 23:35:09.715046  7999 net.cpp:91] Creating Layer res4e_branch2b
I0618 23:35:09.715050  7999 net.cpp:425] res4e_branch2b <- res4e_branch2a
I0618 23:35:09.715056  7999 net.cpp:399] res4e_branch2b -> res4e_branch2b
I0618 23:35:09.718001  7999 net.cpp:141] Setting up res4e_branch2b
I0618 23:35:09.718019  7999 net.cpp:148] Top shape: 10 256 14 14 (501760)
I0618 23:35:09.718022  7999 net.cpp:156] Memory required for data: 2071265320
I0618 23:35:09.718031  7999 layer_factory.hpp:77] Creating layer bn4e_branch2b
I0618 23:35:09.718041  7999 net.cpp:91] Creating Layer bn4e_branch2b
I0618 23:35:09.718045  7999 net.cpp:425] bn4e_branch2b <- res4e_branch2b
I0618 23:35:09.718055  7999 net.cpp:386] bn4e_branch2b -> res4e_branch2b (in-place)
I0618 23:35:09.718348  7999 net.cpp:141] Setting up bn4e_branch2b
I0618 23:35:09.718358  7999 net.cpp:148] Top shape: 10 256 14 14 (501760)
I0618 23:35:09.718360  7999 net.cpp:156] Memory required for data: 2073272360
I0618 23:35:09.718370  7999 layer_factory.hpp:77] Creating layer scale4e_branch2b
I0618 23:35:09.718382  7999 net.cpp:91] Creating Layer scale4e_branch2b
I0618 23:35:09.718386  7999 net.cpp:425] scale4e_branch2b <- res4e_branch2b
I0618 23:35:09.718390  7999 net.cpp:386] scale4e_branch2b -> res4e_branch2b (in-place)
I0618 23:35:09.718457  7999 layer_factory.hpp:77] Creating layer scale4e_branch2b
I0618 23:35:09.718585  7999 net.cpp:141] Setting up scale4e_branch2b
I0618 23:35:09.718592  7999 net.cpp:148] Top shape: 10 256 14 14 (501760)
I0618 23:35:09.718595  7999 net.cpp:156] Memory required for data: 2075279400
I0618 23:35:09.718600  7999 layer_factory.hpp:77] Creating layer res4e_branch2b_relu
I0618 23:35:09.718606  7999 net.cpp:91] Creating Layer res4e_branch2b_relu
I0618 23:35:09.718610  7999 net.cpp:425] res4e_branch2b_relu <- res4e_branch2b
I0618 23:35:09.718614  7999 net.cpp:386] res4e_branch2b_relu -> res4e_branch2b (in-place)
I0618 23:35:09.718822  7999 net.cpp:141] Setting up res4e_branch2b_relu
I0618 23:35:09.718832  7999 net.cpp:148] Top shape: 10 256 14 14 (501760)
I0618 23:35:09.718835  7999 net.cpp:156] Memory required for data: 2077286440
I0618 23:35:09.718839  7999 layer_factory.hpp:77] Creating layer res4e_branch2c
I0618 23:35:09.718847  7999 net.cpp:91] Creating Layer res4e_branch2c
I0618 23:35:09.718850  7999 net.cpp:425] res4e_branch2c <- res4e_branch2b
I0618 23:35:09.718857  7999 net.cpp:399] res4e_branch2c -> res4e_branch2c
I0618 23:35:09.721087  7999 net.cpp:141] Setting up res4e_branch2c
I0618 23:35:09.721102  7999 net.cpp:148] Top shape: 10 1024 14 14 (2007040)
I0618 23:35:09.721107  7999 net.cpp:156] Memory required for data: 2085314600
I0618 23:35:09.721112  7999 layer_factory.hpp:77] Creating layer bn4e_branch2c
I0618 23:35:09.721122  7999 net.cpp:91] Creating Layer bn4e_branch2c
I0618 23:35:09.721127  7999 net.cpp:425] bn4e_branch2c <- res4e_branch2c
I0618 23:35:09.721135  7999 net.cpp:386] bn4e_branch2c -> res4e_branch2c (in-place)
I0618 23:35:09.721452  7999 net.cpp:141] Setting up bn4e_branch2c
I0618 23:35:09.721460  7999 net.cpp:148] Top shape: 10 1024 14 14 (2007040)
I0618 23:35:09.721463  7999 net.cpp:156] Memory required for data: 2093342760
I0618 23:35:09.721473  7999 layer_factory.hpp:77] Creating layer scale4e_branch2c
I0618 23:35:09.721483  7999 net.cpp:91] Creating Layer scale4e_branch2c
I0618 23:35:09.721489  7999 net.cpp:425] scale4e_branch2c <- res4e_branch2c
I0618 23:35:09.721494  7999 net.cpp:386] scale4e_branch2c -> res4e_branch2c (in-place)
I0618 23:35:09.721568  7999 layer_factory.hpp:77] Creating layer scale4e_branch2c
I0618 23:35:09.721755  7999 net.cpp:141] Setting up scale4e_branch2c
I0618 23:35:09.721765  7999 net.cpp:148] Top shape: 10 1024 14 14 (2007040)
I0618 23:35:09.721787  7999 net.cpp:156] Memory required for data: 2101370920
I0618 23:35:09.737475  7999 layer_factory.hpp:77] Creating layer res4e
I0618 23:35:09.737512  7999 net.cpp:91] Creating Layer res4e
I0618 23:35:09.737530  7999 net.cpp:425] res4e <- res4d_res4d_relu_0_split_1
I0618 23:35:09.737545  7999 net.cpp:425] res4e <- res4e_branch2c
I0618 23:35:09.737566  7999 net.cpp:399] res4e -> res4e
I0618 23:35:09.737702  7999 net.cpp:141] Setting up res4e
I0618 23:35:09.737728  7999 net.cpp:148] Top shape: 10 1024 14 14 (2007040)
I0618 23:35:09.737738  7999 net.cpp:156] Memory required for data: 2109399080
I0618 23:35:09.737751  7999 layer_factory.hpp:77] Creating layer res4e_relu
I0618 23:35:09.737772  7999 net.cpp:91] Creating Layer res4e_relu
I0618 23:35:09.737783  7999 net.cpp:425] res4e_relu <- res4e
I0618 23:35:09.737802  7999 net.cpp:386] res4e_relu -> res4e (in-place)
I0618 23:35:09.738781  7999 net.cpp:141] Setting up res4e_relu
I0618 23:35:09.738807  7999 net.cpp:148] Top shape: 10 1024 14 14 (2007040)
I0618 23:35:09.738816  7999 net.cpp:156] Memory required for data: 2117427240
I0618 23:35:09.738826  7999 layer_factory.hpp:77] Creating layer res4e_res4e_relu_0_split
I0618 23:35:09.738839  7999 net.cpp:91] Creating Layer res4e_res4e_relu_0_split
I0618 23:35:09.738849  7999 net.cpp:425] res4e_res4e_relu_0_split <- res4e
I0618 23:35:09.738864  7999 net.cpp:399] res4e_res4e_relu_0_split -> res4e_res4e_relu_0_split_0
I0618 23:35:09.738880  7999 net.cpp:399] res4e_res4e_relu_0_split -> res4e_res4e_relu_0_split_1
I0618 23:35:09.739006  7999 net.cpp:141] Setting up res4e_res4e_relu_0_split
I0618 23:35:09.739020  7999 net.cpp:148] Top shape: 10 1024 14 14 (2007040)
I0618 23:35:09.739030  7999 net.cpp:148] Top shape: 10 1024 14 14 (2007040)
I0618 23:35:09.739037  7999 net.cpp:156] Memory required for data: 2133483560
I0618 23:35:09.739047  7999 layer_factory.hpp:77] Creating layer res4f_branch2a
I0618 23:35:09.739066  7999 net.cpp:91] Creating Layer res4f_branch2a
I0618 23:35:09.739076  7999 net.cpp:425] res4f_branch2a <- res4e_res4e_relu_0_split_0
I0618 23:35:09.739089  7999 net.cpp:399] res4f_branch2a -> res4f_branch2a
I0618 23:35:09.744717  7999 net.cpp:141] Setting up res4f_branch2a
I0618 23:35:09.744740  7999 net.cpp:148] Top shape: 10 256 14 14 (501760)
I0618 23:35:09.744745  7999 net.cpp:156] Memory required for data: 2135490600
I0618 23:35:09.744756  7999 layer_factory.hpp:77] Creating layer bn4f_branch2a
I0618 23:35:09.744774  7999 net.cpp:91] Creating Layer bn4f_branch2a
I0618 23:35:09.744781  7999 net.cpp:425] bn4f_branch2a <- res4f_branch2a
I0618 23:35:09.744788  7999 net.cpp:386] bn4f_branch2a -> res4f_branch2a (in-place)
I0618 23:35:09.745216  7999 net.cpp:141] Setting up bn4f_branch2a
I0618 23:35:09.745231  7999 net.cpp:148] Top shape: 10 256 14 14 (501760)
I0618 23:35:09.745239  7999 net.cpp:156] Memory required for data: 2137497640
I0618 23:35:09.745251  7999 layer_factory.hpp:77] Creating layer scale4f_branch2a
I0618 23:35:09.745263  7999 net.cpp:91] Creating Layer scale4f_branch2a
I0618 23:35:09.745271  7999 net.cpp:425] scale4f_branch2a <- res4f_branch2a
I0618 23:35:09.745288  7999 net.cpp:386] scale4f_branch2a -> res4f_branch2a (in-place)
I0618 23:35:09.745381  7999 layer_factory.hpp:77] Creating layer scale4f_branch2a
I0618 23:35:09.745582  7999 net.cpp:141] Setting up scale4f_branch2a
I0618 23:35:09.745597  7999 net.cpp:148] Top shape: 10 256 14 14 (501760)
I0618 23:35:09.745602  7999 net.cpp:156] Memory required for data: 2139504680
I0618 23:35:09.745610  7999 layer_factory.hpp:77] Creating layer res4f_branch2a_relu
I0618 23:35:09.745618  7999 net.cpp:91] Creating Layer res4f_branch2a_relu
I0618 23:35:09.745623  7999 net.cpp:425] res4f_branch2a_relu <- res4f_branch2a
I0618 23:35:09.745630  7999 net.cpp:386] res4f_branch2a_relu -> res4f_branch2a (in-place)
I0618 23:35:09.745915  7999 net.cpp:141] Setting up res4f_branch2a_relu
I0618 23:35:09.745926  7999 net.cpp:148] Top shape: 10 256 14 14 (501760)
I0618 23:35:09.745931  7999 net.cpp:156] Memory required for data: 2141511720
I0618 23:35:09.745957  7999 layer_factory.hpp:77] Creating layer res4f_branch2b
I0618 23:35:09.745971  7999 net.cpp:91] Creating Layer res4f_branch2b
I0618 23:35:09.745976  7999 net.cpp:425] res4f_branch2b <- res4f_branch2a
I0618 23:35:09.745983  7999 net.cpp:399] res4f_branch2b -> res4f_branch2b
I0618 23:35:09.750143  7999 net.cpp:141] Setting up res4f_branch2b
I0618 23:35:09.750169  7999 net.cpp:148] Top shape: 10 256 14 14 (501760)
I0618 23:35:09.750176  7999 net.cpp:156] Memory required for data: 2143518760
I0618 23:35:09.750190  7999 layer_factory.hpp:77] Creating layer bn4f_branch2b
I0618 23:35:09.750203  7999 net.cpp:91] Creating Layer bn4f_branch2b
I0618 23:35:09.750210  7999 net.cpp:425] bn4f_branch2b <- res4f_branch2b
I0618 23:35:09.750221  7999 net.cpp:386] bn4f_branch2b -> res4f_branch2b (in-place)
I0618 23:35:09.750665  7999 net.cpp:141] Setting up bn4f_branch2b
I0618 23:35:09.750681  7999 net.cpp:148] Top shape: 10 256 14 14 (501760)
I0618 23:35:09.750686  7999 net.cpp:156] Memory required for data: 2145525800
I0618 23:35:09.750700  7999 layer_factory.hpp:77] Creating layer scale4f_branch2b
I0618 23:35:09.750713  7999 net.cpp:91] Creating Layer scale4f_branch2b
I0618 23:35:09.750721  7999 net.cpp:425] scale4f_branch2b <- res4f_branch2b
I0618 23:35:09.750728  7999 net.cpp:386] scale4f_branch2b -> res4f_branch2b (in-place)
I0618 23:35:09.750826  7999 layer_factory.hpp:77] Creating layer scale4f_branch2b
I0618 23:35:09.751081  7999 net.cpp:141] Setting up scale4f_branch2b
I0618 23:35:09.751093  7999 net.cpp:148] Top shape: 10 256 14 14 (501760)
I0618 23:35:09.751101  7999 net.cpp:156] Memory required for data: 2147532840
I0618 23:35:09.751113  7999 layer_factory.hpp:77] Creating layer res4f_branch2b_relu
I0618 23:35:09.751123  7999 net.cpp:91] Creating Layer res4f_branch2b_relu
I0618 23:35:09.751129  7999 net.cpp:425] res4f_branch2b_relu <- res4f_branch2b
I0618 23:35:09.751140  7999 net.cpp:386] res4f_branch2b_relu -> res4f_branch2b (in-place)
I0618 23:35:09.751489  7999 net.cpp:141] Setting up res4f_branch2b_relu
I0618 23:35:09.751503  7999 net.cpp:148] Top shape: 10 256 14 14 (501760)
I0618 23:35:09.751508  7999 net.cpp:156] Memory required for data: 2149539880
I0618 23:35:09.751513  7999 layer_factory.hpp:77] Creating layer res4f_branch2c
I0618 23:35:09.751526  7999 net.cpp:91] Creating Layer res4f_branch2c
I0618 23:35:09.751531  7999 net.cpp:425] res4f_branch2c <- res4f_branch2b
I0618 23:35:09.751541  7999 net.cpp:399] res4f_branch2c -> res4f_branch2c
I0618 23:35:09.754601  7999 net.cpp:141] Setting up res4f_branch2c
I0618 23:35:09.754619  7999 net.cpp:148] Top shape: 10 1024 14 14 (2007040)
I0618 23:35:09.754624  7999 net.cpp:156] Memory required for data: 2157568040
I0618 23:35:09.754637  7999 layer_factory.hpp:77] Creating layer bn4f_branch2c
I0618 23:35:09.754647  7999 net.cpp:91] Creating Layer bn4f_branch2c
I0618 23:35:09.754657  7999 net.cpp:425] bn4f_branch2c <- res4f_branch2c
I0618 23:35:09.754668  7999 net.cpp:386] bn4f_branch2c -> res4f_branch2c (in-place)
I0618 23:35:09.755112  7999 net.cpp:141] Setting up bn4f_branch2c
I0618 23:35:09.755125  7999 net.cpp:148] Top shape: 10 1024 14 14 (2007040)
I0618 23:35:09.755131  7999 net.cpp:156] Memory required for data: 2165596200
I0618 23:35:09.755192  7999 layer_factory.hpp:77] Creating layer scale4f_branch2c
I0618 23:35:09.755205  7999 net.cpp:91] Creating Layer scale4f_branch2c
I0618 23:35:09.755213  7999 net.cpp:425] scale4f_branch2c <- res4f_branch2c
I0618 23:35:09.755221  7999 net.cpp:386] scale4f_branch2c -> res4f_branch2c (in-place)
I0618 23:35:09.755326  7999 layer_factory.hpp:77] Creating layer scale4f_branch2c
I0618 23:35:09.755586  7999 net.cpp:141] Setting up scale4f_branch2c
I0618 23:35:09.755599  7999 net.cpp:148] Top shape: 10 1024 14 14 (2007040)
I0618 23:35:09.755604  7999 net.cpp:156] Memory required for data: 2173624360
I0618 23:35:09.755612  7999 layer_factory.hpp:77] Creating layer res4f
I0618 23:35:09.755625  7999 net.cpp:91] Creating Layer res4f
I0618 23:35:09.755633  7999 net.cpp:425] res4f <- res4e_res4e_relu_0_split_1
I0618 23:35:09.755667  7999 net.cpp:425] res4f <- res4f_branch2c
I0618 23:35:09.755676  7999 net.cpp:399] res4f -> res4f
I0618 23:35:09.755733  7999 net.cpp:141] Setting up res4f
I0618 23:35:09.755744  7999 net.cpp:148] Top shape: 10 1024 14 14 (2007040)
I0618 23:35:09.755748  7999 net.cpp:156] Memory required for data: 2181652520
I0618 23:35:09.755753  7999 layer_factory.hpp:77] Creating layer res4f_relu
I0618 23:35:09.755764  7999 net.cpp:91] Creating Layer res4f_relu
I0618 23:35:09.755771  7999 net.cpp:425] res4f_relu <- res4f
I0618 23:35:09.755781  7999 net.cpp:386] res4f_relu -> res4f (in-place)
I0618 23:35:09.756288  7999 net.cpp:141] Setting up res4f_relu
I0618 23:35:09.756302  7999 net.cpp:148] Top shape: 10 1024 14 14 (2007040)
I0618 23:35:09.756307  7999 net.cpp:156] Memory required for data: 2189680680
I0618 23:35:09.756341  7999 layer_factory.hpp:77] Creating layer res4f_res4f_relu_0_split
I0618 23:35:09.756350  7999 net.cpp:91] Creating Layer res4f_res4f_relu_0_split
I0618 23:35:09.756356  7999 net.cpp:425] res4f_res4f_relu_0_split <- res4f
I0618 23:35:09.756366  7999 net.cpp:399] res4f_res4f_relu_0_split -> res4f_res4f_relu_0_split_0
I0618 23:35:09.756376  7999 net.cpp:399] res4f_res4f_relu_0_split -> res4f_res4f_relu_0_split_1
I0618 23:35:09.756456  7999 net.cpp:141] Setting up res4f_res4f_relu_0_split
I0618 23:35:09.756465  7999 net.cpp:148] Top shape: 10 1024 14 14 (2007040)
I0618 23:35:09.756471  7999 net.cpp:148] Top shape: 10 1024 14 14 (2007040)
I0618 23:35:09.756475  7999 net.cpp:156] Memory required for data: 2205737000
I0618 23:35:09.756479  7999 layer_factory.hpp:77] Creating layer res5a_branch1
I0618 23:35:09.756494  7999 net.cpp:91] Creating Layer res5a_branch1
I0618 23:35:09.756500  7999 net.cpp:425] res5a_branch1 <- res4f_res4f_relu_0_split_0
I0618 23:35:09.756506  7999 net.cpp:399] res5a_branch1 -> res5a_branch1
I0618 23:35:09.774626  7999 net.cpp:141] Setting up res5a_branch1
I0618 23:35:09.774655  7999 net.cpp:148] Top shape: 10 2048 7 7 (1003520)
I0618 23:35:09.774659  7999 net.cpp:156] Memory required for data: 2209751080
I0618 23:35:09.774668  7999 layer_factory.hpp:77] Creating layer bn5a_branch1
I0618 23:35:09.774682  7999 net.cpp:91] Creating Layer bn5a_branch1
I0618 23:35:09.774688  7999 net.cpp:425] bn5a_branch1 <- res5a_branch1
I0618 23:35:09.774699  7999 net.cpp:386] bn5a_branch1 -> res5a_branch1 (in-place)
I0618 23:35:09.775068  7999 net.cpp:141] Setting up bn5a_branch1
I0618 23:35:09.775076  7999 net.cpp:148] Top shape: 10 2048 7 7 (1003520)
I0618 23:35:09.775079  7999 net.cpp:156] Memory required for data: 2213765160
I0618 23:35:09.775089  7999 layer_factory.hpp:77] Creating layer scale5a_branch1
I0618 23:35:09.775099  7999 net.cpp:91] Creating Layer scale5a_branch1
I0618 23:35:09.775104  7999 net.cpp:425] scale5a_branch1 <- res5a_branch1
I0618 23:35:09.775113  7999 net.cpp:386] scale5a_branch1 -> res5a_branch1 (in-place)
I0618 23:35:09.775197  7999 layer_factory.hpp:77] Creating layer scale5a_branch1
I0618 23:35:09.775395  7999 net.cpp:141] Setting up scale5a_branch1
I0618 23:35:09.775408  7999 net.cpp:148] Top shape: 10 2048 7 7 (1003520)
I0618 23:35:09.775413  7999 net.cpp:156] Memory required for data: 2217779240
I0618 23:35:09.775418  7999 layer_factory.hpp:77] Creating layer res5a_branch2a
I0618 23:35:09.775427  7999 net.cpp:91] Creating Layer res5a_branch2a
I0618 23:35:09.775434  7999 net.cpp:425] res5a_branch2a <- res4f_res4f_relu_0_split_1
I0618 23:35:09.775442  7999 net.cpp:399] res5a_branch2a -> res5a_branch2a
I0618 23:35:09.777848  7999 net.cpp:141] Setting up res5a_branch2a
I0618 23:35:09.777861  7999 net.cpp:148] Top shape: 10 512 7 7 (250880)
I0618 23:35:09.777865  7999 net.cpp:156] Memory required for data: 2218782760
I0618 23:35:09.777870  7999 layer_factory.hpp:77] Creating layer bn5a_branch2a
I0618 23:35:09.777878  7999 net.cpp:91] Creating Layer bn5a_branch2a
I0618 23:35:09.777881  7999 net.cpp:425] bn5a_branch2a <- res5a_branch2a
I0618 23:35:09.777887  7999 net.cpp:386] bn5a_branch2a -> res5a_branch2a (in-place)
I0618 23:35:09.778132  7999 net.cpp:141] Setting up bn5a_branch2a
I0618 23:35:09.778159  7999 net.cpp:148] Top shape: 10 512 7 7 (250880)
I0618 23:35:09.778162  7999 net.cpp:156] Memory required for data: 2219786280
I0618 23:35:09.778170  7999 layer_factory.hpp:77] Creating layer scale5a_branch2a
I0618 23:35:09.778177  7999 net.cpp:91] Creating Layer scale5a_branch2a
I0618 23:35:09.778180  7999 net.cpp:425] scale5a_branch2a <- res5a_branch2a
I0618 23:35:09.778184  7999 net.cpp:386] scale5a_branch2a -> res5a_branch2a (in-place)
I0618 23:35:09.778245  7999 layer_factory.hpp:77] Creating layer scale5a_branch2a
I0618 23:35:09.778429  7999 net.cpp:141] Setting up scale5a_branch2a
I0618 23:35:09.778437  7999 net.cpp:148] Top shape: 10 512 7 7 (250880)
I0618 23:35:09.778440  7999 net.cpp:156] Memory required for data: 2220789800
I0618 23:35:09.778446  7999 layer_factory.hpp:77] Creating layer res5a_branch2a_relu
I0618 23:35:09.778453  7999 net.cpp:91] Creating Layer res5a_branch2a_relu
I0618 23:35:09.778460  7999 net.cpp:425] res5a_branch2a_relu <- res5a_branch2a
I0618 23:35:09.778466  7999 net.cpp:386] res5a_branch2a_relu -> res5a_branch2a (in-place)
I0618 23:35:09.778856  7999 net.cpp:141] Setting up res5a_branch2a_relu
I0618 23:35:09.778869  7999 net.cpp:148] Top shape: 10 512 7 7 (250880)
I0618 23:35:09.778873  7999 net.cpp:156] Memory required for data: 2221793320
I0618 23:35:09.778878  7999 layer_factory.hpp:77] Creating layer res5a_branch2b
I0618 23:35:09.778890  7999 net.cpp:91] Creating Layer res5a_branch2b
I0618 23:35:09.778894  7999 net.cpp:425] res5a_branch2b <- res5a_branch2a
I0618 23:35:09.778899  7999 net.cpp:399] res5a_branch2b -> res5a_branch2b
I0618 23:35:09.785281  7999 net.cpp:141] Setting up res5a_branch2b
I0618 23:35:09.785306  7999 net.cpp:148] Top shape: 10 512 7 7 (250880)
I0618 23:35:09.785310  7999 net.cpp:156] Memory required for data: 2222796840
I0618 23:35:09.785318  7999 layer_factory.hpp:77] Creating layer bn5a_branch2b
I0618 23:35:09.785331  7999 net.cpp:91] Creating Layer bn5a_branch2b
I0618 23:35:09.785337  7999 net.cpp:425] bn5a_branch2b <- res5a_branch2b
I0618 23:35:09.785344  7999 net.cpp:386] bn5a_branch2b -> res5a_branch2b (in-place)
I0618 23:35:09.785604  7999 net.cpp:141] Setting up bn5a_branch2b
I0618 23:35:09.785610  7999 net.cpp:148] Top shape: 10 512 7 7 (250880)
I0618 23:35:09.785614  7999 net.cpp:156] Memory required for data: 2223800360
I0618 23:35:09.785620  7999 layer_factory.hpp:77] Creating layer scale5a_branch2b
I0618 23:35:09.785627  7999 net.cpp:91] Creating Layer scale5a_branch2b
I0618 23:35:09.785630  7999 net.cpp:425] scale5a_branch2b <- res5a_branch2b
I0618 23:35:09.785636  7999 net.cpp:386] scale5a_branch2b -> res5a_branch2b (in-place)
I0618 23:35:09.785698  7999 layer_factory.hpp:77] Creating layer scale5a_branch2b
I0618 23:35:09.785879  7999 net.cpp:141] Setting up scale5a_branch2b
I0618 23:35:09.785889  7999 net.cpp:148] Top shape: 10 512 7 7 (250880)
I0618 23:35:09.785892  7999 net.cpp:156] Memory required for data: 2224803880
I0618 23:35:09.785898  7999 layer_factory.hpp:77] Creating layer res5a_branch2b_relu
I0618 23:35:09.785905  7999 net.cpp:91] Creating Layer res5a_branch2b_relu
I0618 23:35:09.785912  7999 net.cpp:425] res5a_branch2b_relu <- res5a_branch2b
I0618 23:35:09.785917  7999 net.cpp:386] res5a_branch2b_relu -> res5a_branch2b (in-place)
I0618 23:35:09.786161  7999 net.cpp:141] Setting up res5a_branch2b_relu
I0618 23:35:09.786170  7999 net.cpp:148] Top shape: 10 512 7 7 (250880)
I0618 23:35:09.786175  7999 net.cpp:156] Memory required for data: 2225807400
I0618 23:35:09.786177  7999 layer_factory.hpp:77] Creating layer res5a_branch2c
I0618 23:35:09.786191  7999 net.cpp:91] Creating Layer res5a_branch2c
I0618 23:35:09.786197  7999 net.cpp:425] res5a_branch2c <- res5a_branch2b
I0618 23:35:09.786204  7999 net.cpp:399] res5a_branch2c -> res5a_branch2c
I0618 23:35:09.789623  7999 net.cpp:141] Setting up res5a_branch2c
I0618 23:35:09.789640  7999 net.cpp:148] Top shape: 10 2048 7 7 (1003520)
I0618 23:35:09.789644  7999 net.cpp:156] Memory required for data: 2229821480
I0618 23:35:09.789675  7999 layer_factory.hpp:77] Creating layer bn5a_branch2c
I0618 23:35:09.789688  7999 net.cpp:91] Creating Layer bn5a_branch2c
I0618 23:35:09.789695  7999 net.cpp:425] bn5a_branch2c <- res5a_branch2c
I0618 23:35:09.789702  7999 net.cpp:386] bn5a_branch2c -> res5a_branch2c (in-place)
I0618 23:35:09.790056  7999 net.cpp:141] Setting up bn5a_branch2c
I0618 23:35:09.790066  7999 net.cpp:148] Top shape: 10 2048 7 7 (1003520)
I0618 23:35:09.790068  7999 net.cpp:156] Memory required for data: 2233835560
I0618 23:35:09.790081  7999 layer_factory.hpp:77] Creating layer scale5a_branch2c
I0618 23:35:09.790091  7999 net.cpp:91] Creating Layer scale5a_branch2c
I0618 23:35:09.790096  7999 net.cpp:425] scale5a_branch2c <- res5a_branch2c
I0618 23:35:09.790099  7999 net.cpp:386] scale5a_branch2c -> res5a_branch2c (in-place)
I0618 23:35:09.790180  7999 layer_factory.hpp:77] Creating layer scale5a_branch2c
I0618 23:35:09.790390  7999 net.cpp:141] Setting up scale5a_branch2c
I0618 23:35:09.790400  7999 net.cpp:148] Top shape: 10 2048 7 7 (1003520)
I0618 23:35:09.790405  7999 net.cpp:156] Memory required for data: 2237849640
I0618 23:35:09.790415  7999 layer_factory.hpp:77] Creating layer res5a
I0618 23:35:09.790423  7999 net.cpp:91] Creating Layer res5a
I0618 23:35:09.790427  7999 net.cpp:425] res5a <- res5a_branch1
I0618 23:35:09.790431  7999 net.cpp:425] res5a <- res5a_branch2c
I0618 23:35:09.790436  7999 net.cpp:399] res5a -> res5a
I0618 23:35:09.790472  7999 net.cpp:141] Setting up res5a
I0618 23:35:09.790477  7999 net.cpp:148] Top shape: 10 2048 7 7 (1003520)
I0618 23:35:09.790480  7999 net.cpp:156] Memory required for data: 2241863720
I0618 23:35:09.790483  7999 layer_factory.hpp:77] Creating layer res5a_relu
I0618 23:35:09.790488  7999 net.cpp:91] Creating Layer res5a_relu
I0618 23:35:09.790491  7999 net.cpp:425] res5a_relu <- res5a
I0618 23:35:09.790498  7999 net.cpp:386] res5a_relu -> res5a (in-place)
I0618 23:35:09.790824  7999 net.cpp:141] Setting up res5a_relu
I0618 23:35:09.790834  7999 net.cpp:148] Top shape: 10 2048 7 7 (1003520)
I0618 23:35:09.790838  7999 net.cpp:156] Memory required for data: 2245877800
I0618 23:35:09.790841  7999 layer_factory.hpp:77] Creating layer res5a_res5a_relu_0_split
I0618 23:35:09.790848  7999 net.cpp:91] Creating Layer res5a_res5a_relu_0_split
I0618 23:35:09.790851  7999 net.cpp:425] res5a_res5a_relu_0_split <- res5a
I0618 23:35:09.790859  7999 net.cpp:399] res5a_res5a_relu_0_split -> res5a_res5a_relu_0_split_0
I0618 23:35:09.790866  7999 net.cpp:399] res5a_res5a_relu_0_split -> res5a_res5a_relu_0_split_1
I0618 23:35:09.790920  7999 net.cpp:141] Setting up res5a_res5a_relu_0_split
I0618 23:35:09.790927  7999 net.cpp:148] Top shape: 10 2048 7 7 (1003520)
I0618 23:35:09.790930  7999 net.cpp:148] Top shape: 10 2048 7 7 (1003520)
I0618 23:35:09.790933  7999 net.cpp:156] Memory required for data: 2253905960
I0618 23:35:09.790936  7999 layer_factory.hpp:77] Creating layer res5b_branch2a
I0618 23:35:09.790946  7999 net.cpp:91] Creating Layer res5b_branch2a
I0618 23:35:09.790949  7999 net.cpp:425] res5b_branch2a <- res5a_res5a_relu_0_split_0
I0618 23:35:09.790953  7999 net.cpp:399] res5b_branch2a -> res5b_branch2a
I0618 23:35:09.794415  7999 net.cpp:141] Setting up res5b_branch2a
I0618 23:35:09.794433  7999 net.cpp:148] Top shape: 10 512 7 7 (250880)
I0618 23:35:09.794436  7999 net.cpp:156] Memory required for data: 2254909480
I0618 23:35:09.794445  7999 layer_factory.hpp:77] Creating layer bn5b_branch2a
I0618 23:35:09.794457  7999 net.cpp:91] Creating Layer bn5b_branch2a
I0618 23:35:09.794462  7999 net.cpp:425] bn5b_branch2a <- res5b_branch2a
I0618 23:35:09.794468  7999 net.cpp:386] bn5b_branch2a -> res5b_branch2a (in-place)
I0618 23:35:09.794817  7999 net.cpp:141] Setting up bn5b_branch2a
I0618 23:35:09.794826  7999 net.cpp:148] Top shape: 10 512 7 7 (250880)
I0618 23:35:09.794831  7999 net.cpp:156] Memory required for data: 2255913000
I0618 23:35:09.794842  7999 layer_factory.hpp:77] Creating layer scale5b_branch2a
I0618 23:35:09.794849  7999 net.cpp:91] Creating Layer scale5b_branch2a
I0618 23:35:09.794872  7999 net.cpp:425] scale5b_branch2a <- res5b_branch2a
I0618 23:35:09.794880  7999 net.cpp:386] scale5b_branch2a -> res5b_branch2a (in-place)
I0618 23:35:09.794957  7999 layer_factory.hpp:77] Creating layer scale5b_branch2a
I0618 23:35:09.795162  7999 net.cpp:141] Setting up scale5b_branch2a
I0618 23:35:09.795171  7999 net.cpp:148] Top shape: 10 512 7 7 (250880)
I0618 23:35:09.795174  7999 net.cpp:156] Memory required for data: 2256916520
I0618 23:35:09.795181  7999 layer_factory.hpp:77] Creating layer res5b_branch2a_relu
I0618 23:35:09.795192  7999 net.cpp:91] Creating Layer res5b_branch2a_relu
I0618 23:35:09.795197  7999 net.cpp:425] res5b_branch2a_relu <- res5b_branch2a
I0618 23:35:09.795202  7999 net.cpp:386] res5b_branch2a_relu -> res5b_branch2a (in-place)
I0618 23:35:09.795603  7999 net.cpp:141] Setting up res5b_branch2a_relu
I0618 23:35:09.795614  7999 net.cpp:148] Top shape: 10 512 7 7 (250880)
I0618 23:35:09.795619  7999 net.cpp:156] Memory required for data: 2257920040
I0618 23:35:09.795621  7999 layer_factory.hpp:77] Creating layer res5b_branch2b
I0618 23:35:09.795630  7999 net.cpp:91] Creating Layer res5b_branch2b
I0618 23:35:09.795634  7999 net.cpp:425] res5b_branch2b <- res5b_branch2a
I0618 23:35:09.795640  7999 net.cpp:399] res5b_branch2b -> res5b_branch2b
I0618 23:35:09.802446  7999 net.cpp:141] Setting up res5b_branch2b
I0618 23:35:09.802469  7999 net.cpp:148] Top shape: 10 512 7 7 (250880)
I0618 23:35:09.802474  7999 net.cpp:156] Memory required for data: 2258923560
I0618 23:35:09.802481  7999 layer_factory.hpp:77] Creating layer bn5b_branch2b
I0618 23:35:09.802494  7999 net.cpp:91] Creating Layer bn5b_branch2b
I0618 23:35:09.802500  7999 net.cpp:425] bn5b_branch2b <- res5b_branch2b
I0618 23:35:09.802505  7999 net.cpp:386] bn5b_branch2b -> res5b_branch2b (in-place)
I0618 23:35:09.802790  7999 net.cpp:141] Setting up bn5b_branch2b
I0618 23:35:09.802799  7999 net.cpp:148] Top shape: 10 512 7 7 (250880)
I0618 23:35:09.802803  7999 net.cpp:156] Memory required for data: 2259927080
I0618 23:35:09.802810  7999 layer_factory.hpp:77] Creating layer scale5b_branch2b
I0618 23:35:09.802819  7999 net.cpp:91] Creating Layer scale5b_branch2b
I0618 23:35:09.802824  7999 net.cpp:425] scale5b_branch2b <- res5b_branch2b
I0618 23:35:09.802830  7999 net.cpp:386] scale5b_branch2b -> res5b_branch2b (in-place)
I0618 23:35:09.802913  7999 layer_factory.hpp:77] Creating layer scale5b_branch2b
I0618 23:35:09.803110  7999 net.cpp:141] Setting up scale5b_branch2b
I0618 23:35:09.803118  7999 net.cpp:148] Top shape: 10 512 7 7 (250880)
I0618 23:35:09.803122  7999 net.cpp:156] Memory required for data: 2260930600
I0618 23:35:09.803129  7999 layer_factory.hpp:77] Creating layer res5b_branch2b_relu
I0618 23:35:09.803138  7999 net.cpp:91] Creating Layer res5b_branch2b_relu
I0618 23:35:09.803143  7999 net.cpp:425] res5b_branch2b_relu <- res5b_branch2b
I0618 23:35:09.803149  7999 net.cpp:386] res5b_branch2b_relu -> res5b_branch2b (in-place)
I0618 23:35:09.803393  7999 net.cpp:141] Setting up res5b_branch2b_relu
I0618 23:35:09.803403  7999 net.cpp:148] Top shape: 10 512 7 7 (250880)
I0618 23:35:09.803406  7999 net.cpp:156] Memory required for data: 2261934120
I0618 23:35:09.803409  7999 layer_factory.hpp:77] Creating layer res5b_branch2c
I0618 23:35:09.803422  7999 net.cpp:91] Creating Layer res5b_branch2c
I0618 23:35:09.803428  7999 net.cpp:425] res5b_branch2c <- res5b_branch2b
I0618 23:35:09.803436  7999 net.cpp:399] res5b_branch2c -> res5b_branch2c
I0618 23:35:09.807126  7999 net.cpp:141] Setting up res5b_branch2c
I0618 23:35:09.807147  7999 net.cpp:148] Top shape: 10 2048 7 7 (1003520)
I0618 23:35:09.807152  7999 net.cpp:156] Memory required for data: 2265948200
I0618 23:35:09.807158  7999 layer_factory.hpp:77] Creating layer bn5b_branch2c
I0618 23:35:09.807168  7999 net.cpp:91] Creating Layer bn5b_branch2c
I0618 23:35:09.807174  7999 net.cpp:425] bn5b_branch2c <- res5b_branch2c
I0618 23:35:09.807184  7999 net.cpp:386] bn5b_branch2c -> res5b_branch2c (in-place)
I0618 23:35:09.807512  7999 net.cpp:141] Setting up bn5b_branch2c
I0618 23:35:09.807539  7999 net.cpp:148] Top shape: 10 2048 7 7 (1003520)
I0618 23:35:09.807543  7999 net.cpp:156] Memory required for data: 2269962280
I0618 23:35:09.807550  7999 layer_factory.hpp:77] Creating layer scale5b_branch2c
I0618 23:35:09.807556  7999 net.cpp:91] Creating Layer scale5b_branch2c
I0618 23:35:09.807560  7999 net.cpp:425] scale5b_branch2c <- res5b_branch2c
I0618 23:35:09.807564  7999 net.cpp:386] scale5b_branch2c -> res5b_branch2c (in-place)
I0618 23:35:09.807638  7999 layer_factory.hpp:77] Creating layer scale5b_branch2c
I0618 23:35:09.807795  7999 net.cpp:141] Setting up scale5b_branch2c
I0618 23:35:09.807801  7999 net.cpp:148] Top shape: 10 2048 7 7 (1003520)
I0618 23:35:09.807803  7999 net.cpp:156] Memory required for data: 2273976360
I0618 23:35:09.807809  7999 layer_factory.hpp:77] Creating layer res5b
I0618 23:35:09.807814  7999 net.cpp:91] Creating Layer res5b
I0618 23:35:09.807818  7999 net.cpp:425] res5b <- res5a_res5a_relu_0_split_1
I0618 23:35:09.807822  7999 net.cpp:425] res5b <- res5b_branch2c
I0618 23:35:09.807828  7999 net.cpp:399] res5b -> res5b
I0618 23:35:09.807857  7999 net.cpp:141] Setting up res5b
I0618 23:35:09.807863  7999 net.cpp:148] Top shape: 10 2048 7 7 (1003520)
I0618 23:35:09.807865  7999 net.cpp:156] Memory required for data: 2277990440
I0618 23:35:09.807868  7999 layer_factory.hpp:77] Creating layer res5b_relu
I0618 23:35:09.807875  7999 net.cpp:91] Creating Layer res5b_relu
I0618 23:35:09.807879  7999 net.cpp:425] res5b_relu <- res5b
I0618 23:35:09.807883  7999 net.cpp:386] res5b_relu -> res5b (in-place)
I0618 23:35:09.808257  7999 net.cpp:141] Setting up res5b_relu
I0618 23:35:09.808269  7999 net.cpp:148] Top shape: 10 2048 7 7 (1003520)
I0618 23:35:09.808272  7999 net.cpp:156] Memory required for data: 2282004520
I0618 23:35:09.808277  7999 layer_factory.hpp:77] Creating layer res5b_res5b_relu_0_split
I0618 23:35:09.808290  7999 net.cpp:91] Creating Layer res5b_res5b_relu_0_split
I0618 23:35:09.808295  7999 net.cpp:425] res5b_res5b_relu_0_split <- res5b
I0618 23:35:09.808301  7999 net.cpp:399] res5b_res5b_relu_0_split -> res5b_res5b_relu_0_split_0
I0618 23:35:09.808308  7999 net.cpp:399] res5b_res5b_relu_0_split -> res5b_res5b_relu_0_split_1
I0618 23:35:09.808385  7999 net.cpp:141] Setting up res5b_res5b_relu_0_split
I0618 23:35:09.808395  7999 net.cpp:148] Top shape: 10 2048 7 7 (1003520)
I0618 23:35:09.808400  7999 net.cpp:148] Top shape: 10 2048 7 7 (1003520)
I0618 23:35:09.808404  7999 net.cpp:156] Memory required for data: 2290032680
I0618 23:35:09.808409  7999 layer_factory.hpp:77] Creating layer res5c_branch2a
I0618 23:35:09.808418  7999 net.cpp:91] Creating Layer res5c_branch2a
I0618 23:35:09.808423  7999 net.cpp:425] res5c_branch2a <- res5b_res5b_relu_0_split_0
I0618 23:35:09.808432  7999 net.cpp:399] res5c_branch2a -> res5c_branch2a
I0618 23:35:09.811699  7999 net.cpp:141] Setting up res5c_branch2a
I0618 23:35:09.811717  7999 net.cpp:148] Top shape: 10 512 7 7 (250880)
I0618 23:35:09.811722  7999 net.cpp:156] Memory required for data: 2291036200
I0618 23:35:09.811731  7999 layer_factory.hpp:77] Creating layer bn5c_branch2a
I0618 23:35:09.811741  7999 net.cpp:91] Creating Layer bn5c_branch2a
I0618 23:35:09.811748  7999 net.cpp:425] bn5c_branch2a <- res5c_branch2a
I0618 23:35:09.811758  7999 net.cpp:386] bn5c_branch2a -> res5c_branch2a (in-place)
I0618 23:35:09.812134  7999 net.cpp:141] Setting up bn5c_branch2a
I0618 23:35:09.812144  7999 net.cpp:148] Top shape: 10 512 7 7 (250880)
I0618 23:35:09.812149  7999 net.cpp:156] Memory required for data: 2292039720
I0618 23:35:09.812160  7999 layer_factory.hpp:77] Creating layer scale5c_branch2a
I0618 23:35:09.812170  7999 net.cpp:91] Creating Layer scale5c_branch2a
I0618 23:35:09.812173  7999 net.cpp:425] scale5c_branch2a <- res5c_branch2a
I0618 23:35:09.812178  7999 net.cpp:386] scale5c_branch2a -> res5c_branch2a (in-place)
I0618 23:35:09.812257  7999 layer_factory.hpp:77] Creating layer scale5c_branch2a
I0618 23:35:09.812479  7999 net.cpp:141] Setting up scale5c_branch2a
I0618 23:35:09.812489  7999 net.cpp:148] Top shape: 10 512 7 7 (250880)
I0618 23:35:09.812512  7999 net.cpp:156] Memory required for data: 2293043240
I0618 23:35:09.812521  7999 layer_factory.hpp:77] Creating layer res5c_branch2a_relu
I0618 23:35:09.812530  7999 net.cpp:91] Creating Layer res5c_branch2a_relu
I0618 23:35:09.812535  7999 net.cpp:425] res5c_branch2a_relu <- res5c_branch2a
I0618 23:35:09.812541  7999 net.cpp:386] res5c_branch2a_relu -> res5c_branch2a (in-place)
I0618 23:35:09.812894  7999 net.cpp:141] Setting up res5c_branch2a_relu
I0618 23:35:09.812904  7999 net.cpp:148] Top shape: 10 512 7 7 (250880)
I0618 23:35:09.812907  7999 net.cpp:156] Memory required for data: 2294046760
I0618 23:35:09.812911  7999 layer_factory.hpp:77] Creating layer res5c_branch2b
I0618 23:35:09.812922  7999 net.cpp:91] Creating Layer res5c_branch2b
I0618 23:35:09.812924  7999 net.cpp:425] res5c_branch2b <- res5c_branch2a
I0618 23:35:09.812932  7999 net.cpp:399] res5c_branch2b -> res5c_branch2b
I0618 23:35:09.819584  7999 net.cpp:141] Setting up res5c_branch2b
I0618 23:35:09.819608  7999 net.cpp:148] Top shape: 10 512 7 7 (250880)
I0618 23:35:09.819612  7999 net.cpp:156] Memory required for data: 2295050280
I0618 23:35:09.819620  7999 layer_factory.hpp:77] Creating layer bn5c_branch2b
I0618 23:35:09.819630  7999 net.cpp:91] Creating Layer bn5c_branch2b
I0618 23:35:09.819635  7999 net.cpp:425] bn5c_branch2b <- res5c_branch2b
I0618 23:35:09.819641  7999 net.cpp:386] bn5c_branch2b -> res5c_branch2b (in-place)
I0618 23:35:09.819908  7999 net.cpp:141] Setting up bn5c_branch2b
I0618 23:35:09.819916  7999 net.cpp:148] Top shape: 10 512 7 7 (250880)
I0618 23:35:09.819918  7999 net.cpp:156] Memory required for data: 2296053800
I0618 23:35:09.819926  7999 layer_factory.hpp:77] Creating layer scale5c_branch2b
I0618 23:35:09.819932  7999 net.cpp:91] Creating Layer scale5c_branch2b
I0618 23:35:09.819936  7999 net.cpp:425] scale5c_branch2b <- res5c_branch2b
I0618 23:35:09.819939  7999 net.cpp:386] scale5c_branch2b -> res5c_branch2b (in-place)
I0618 23:35:09.820003  7999 layer_factory.hpp:77] Creating layer scale5c_branch2b
I0618 23:35:09.820219  7999 net.cpp:141] Setting up scale5c_branch2b
I0618 23:35:09.820228  7999 net.cpp:148] Top shape: 10 512 7 7 (250880)
I0618 23:35:09.820233  7999 net.cpp:156] Memory required for data: 2297057320
I0618 23:35:09.820240  7999 layer_factory.hpp:77] Creating layer res5c_branch2b_relu
I0618 23:35:09.820246  7999 net.cpp:91] Creating Layer res5c_branch2b_relu
I0618 23:35:09.820250  7999 net.cpp:425] res5c_branch2b_relu <- res5c_branch2b
I0618 23:35:09.820258  7999 net.cpp:386] res5c_branch2b_relu -> res5c_branch2b (in-place)
I0618 23:35:09.820503  7999 net.cpp:141] Setting up res5c_branch2b_relu
I0618 23:35:09.820514  7999 net.cpp:148] Top shape: 10 512 7 7 (250880)
I0618 23:35:09.820519  7999 net.cpp:156] Memory required for data: 2298060840
I0618 23:35:09.820524  7999 layer_factory.hpp:77] Creating layer res5c_branch2c
I0618 23:35:09.820538  7999 net.cpp:91] Creating Layer res5c_branch2c
I0618 23:35:09.820541  7999 net.cpp:425] res5c_branch2c <- res5c_branch2b
I0618 23:35:09.820547  7999 net.cpp:399] res5c_branch2c -> res5c_branch2c
I0618 23:35:09.823979  7999 net.cpp:141] Setting up res5c_branch2c
I0618 23:35:09.823998  7999 net.cpp:148] Top shape: 10 2048 7 7 (1003520)
I0618 23:35:09.824002  7999 net.cpp:156] Memory required for data: 2302074920
I0618 23:35:09.824008  7999 layer_factory.hpp:77] Creating layer bn5c_branch2c
I0618 23:35:09.824018  7999 net.cpp:91] Creating Layer bn5c_branch2c
I0618 23:35:09.824024  7999 net.cpp:425] bn5c_branch2c <- res5c_branch2c
I0618 23:35:09.824033  7999 net.cpp:386] bn5c_branch2c -> res5c_branch2c (in-place)
I0618 23:35:09.824400  7999 net.cpp:141] Setting up bn5c_branch2c
I0618 23:35:09.824412  7999 net.cpp:148] Top shape: 10 2048 7 7 (1003520)
I0618 23:35:09.824417  7999 net.cpp:156] Memory required for data: 2306089000
I0618 23:35:09.824425  7999 layer_factory.hpp:77] Creating layer scale5c_branch2c
I0618 23:35:09.824434  7999 net.cpp:91] Creating Layer scale5c_branch2c
I0618 23:35:09.824440  7999 net.cpp:425] scale5c_branch2c <- res5c_branch2c
I0618 23:35:09.824466  7999 net.cpp:386] scale5c_branch2c -> res5c_branch2c (in-place)
I0618 23:35:09.824966  7999 layer_factory.hpp:77] Creating layer scale5c_branch2c
I0618 23:35:09.825144  7999 net.cpp:141] Setting up scale5c_branch2c
I0618 23:35:09.825153  7999 net.cpp:148] Top shape: 10 2048 7 7 (1003520)
I0618 23:35:09.825156  7999 net.cpp:156] Memory required for data: 2310103080
I0618 23:35:09.825162  7999 layer_factory.hpp:77] Creating layer res5c
I0618 23:35:09.825171  7999 net.cpp:91] Creating Layer res5c
I0618 23:35:09.825177  7999 net.cpp:425] res5c <- res5b_res5b_relu_0_split_1
I0618 23:35:09.825184  7999 net.cpp:425] res5c <- res5c_branch2c
I0618 23:35:09.825191  7999 net.cpp:399] res5c -> res5c
I0618 23:35:09.825230  7999 net.cpp:141] Setting up res5c
I0618 23:35:09.825239  7999 net.cpp:148] Top shape: 10 2048 7 7 (1003520)
I0618 23:35:09.825243  7999 net.cpp:156] Memory required for data: 2314117160
I0618 23:35:09.825248  7999 layer_factory.hpp:77] Creating layer res5c_relu
I0618 23:35:09.825258  7999 net.cpp:91] Creating Layer res5c_relu
I0618 23:35:09.825261  7999 net.cpp:425] res5c_relu <- res5c
I0618 23:35:09.825265  7999 net.cpp:386] res5c_relu -> res5c (in-place)
I0618 23:35:09.825665  7999 net.cpp:141] Setting up res5c_relu
I0618 23:35:09.825677  7999 net.cpp:148] Top shape: 10 2048 7 7 (1003520)
I0618 23:35:09.825680  7999 net.cpp:156] Memory required for data: 2318131240
I0618 23:35:09.825685  7999 layer_factory.hpp:77] Creating layer pool5
I0618 23:35:09.825695  7999 net.cpp:91] Creating Layer pool5
I0618 23:35:09.825700  7999 net.cpp:425] pool5 <- res5c
I0618 23:35:09.825708  7999 net.cpp:399] pool5 -> pool5
I0618 23:35:09.825980  7999 net.cpp:141] Setting up pool5
I0618 23:35:09.825990  7999 net.cpp:148] Top shape: 10 2048 1 1 (20480)
I0618 23:35:09.825994  7999 net.cpp:156] Memory required for data: 2318213160
I0618 23:35:09.825997  7999 layer_factory.hpp:77] Creating layer fc10
I0618 23:35:09.826009  7999 net.cpp:91] Creating Layer fc10
I0618 23:35:09.826014  7999 net.cpp:425] fc10 <- pool5
I0618 23:35:09.826020  7999 net.cpp:399] fc10 -> fc10
I0618 23:35:09.826567  7999 net.cpp:141] Setting up fc10
I0618 23:35:09.826577  7999 net.cpp:148] Top shape: 10 10 (100)
I0618 23:35:09.826581  7999 net.cpp:156] Memory required for data: 2318213560
I0618 23:35:09.826586  7999 layer_factory.hpp:77] Creating layer loss
I0618 23:35:09.826594  7999 net.cpp:91] Creating Layer loss
I0618 23:35:09.826597  7999 net.cpp:425] loss <- fc10
I0618 23:35:09.826601  7999 net.cpp:425] loss <- label
I0618 23:35:09.826606  7999 net.cpp:399] loss -> loss
I0618 23:35:09.826613  7999 layer_factory.hpp:77] Creating layer loss
…
